resources/loan_model_alpha.onnx (onnx, 41043 bytes, 9 tensors)

StatefulPartitionedCall/sequential_7/dense_31/MatMul/ReadVariableOp:0 f4 [64, 1]
-0.16348116 0.18572403 -0.030160971 -0.04878219 0.46090955 -0.34035987 0.26564786 -0.19260946
0.5338466 -0.3813407 -0.17370766 -0.02421343 -0.23507835 -0.15511982 0.3247943 0.25504366
-0.25633126 -0.07469686 -0.2955968 -0.12147098 -0.48471606 0.17722581 0.3614757 0.11751811
-0.36180723 0.23517177 -0.42029956 0.004030067 0.0924316 0.50729257 0.096228 -0.27692863
-0.2360361 -0.2320848 0.121715456 0.19102608 -0.23058505 0.21064673 -0.37344238 0.23237827
-0.20571974 -0.28788164 0.43896034 0.48741823 0.115524225 -0.2731589 0.19451952 -0.20589317
-0.09919345 -0.10975553 -0.32502595 -0.44194236 -0.20158403 0.38583046 -0.17192347 0.49068776
0.26391146 0.064535104 0.20143324 0.46913648 -0.067251116 0.32219344 0.37261716 -0.08177606
00000000: 9b67 27be 712e 3e3e 2414 f7bc d5cf 47bd
00000010: 56fc eb3e a643 aebe ff02 883e 6a3b 45be
00000020: 2caa 083f 173f c3be 6ce0 31be 3e5b c6bc
00000030: 61b8 70be bbd7 1ebe 704b a63e 1595 823e
00000040: da3d 83be abfa 98bd 7758 97be c7c5 f8bd
00000050: b42c f8be af7a 353e 5813 b93e 56ad f03d
00000060: cc3e b9be ded0 703e 8131 d7be a70e 843b
00000070: c74c bd3d eddd 013f 3013 c53d 97c9 8dbe
00000080: 73b3 71be a3a7 6dbe f445 f93d 579c 433e
00000090: 7d1e 6cbe c7b3 573e d733 bfbe 92f4 6d3e
000000a0: 32a8 52be 3965 93be 69bf e03e e28e f93e
000000b0: f797 ec3d 7cdb 8bbe 2030 473e a9d5 52be
000000c0: ef25 cbbd 82c7 e0bd cd69 a6be 4546 e2be
000000d0: 0b6c 4ebe 928b c53e b50c 30be 6d3b fb3e
000000e0: 671f 873e fb2a 843d 8444 4e3e a832 f03e
000000f0: f4ba 89bd 8af6 a43e adc7 be3e 357a a7bd

StatefulPartitionedCall/sequential_7/dense_30/MatMul/ReadVariableOp:0 f4 [64, 64]
0.07677291 -0.19186376 0.16889584 0.20078035 -0.022123804 -0.08580452 0.1471071 -0.29816976
-0.030517166 0.05744057 0.035062864 -0.1954468 0.17359279 0.17702124 -0.08520845 -0.17099088
0.21287274 0.13798359 -0.050316148 0.20720284 0.1262231 -0.10730023 -0.0031213907 0.15313458
0.06985576 0.103545666 0.05102065 0.06236969 -0.044598244 0.19236676 -0.26082054 0.050787352
0.061233774 0.09880672 -0.02509821 -0.0979558 0.10535306 0.10846324 0.04689692 0.03979721
-0.04864347 -0.20738485 -0.17597896 0.14804313 -0.11939985 -0.15392022 0.09085777 -0.12088384
-0.095004216 -0.12525868 0.11329685 -0.107401654 0.120934695 0.041907158 0.07164007 -0.027538728
-0.09505651 0.08708892 0.10672298 -0.011737613 -0.18102847 -0.1527598 0.028606256 0.09828785
-0.026357422 -0.0047265594 0.030545259 0.17468166 0.08384541 0.011752856 0.20490254 0.19850445
-0.015305405 -0.056602497 0.054723956 -0.19240406 0.035614926 0.121314436 0.041221324 -0.043608375
0.08826665 -0.09998352 -0.024425121 0.15164642 -0.052021485 0.04789813 0.03611117 -0.14586966
-0.20492303 0.051263515 0.14469844 -0.03407148 0.13529156 -0.09963784 -0.01450698 0.069724664
0.16991612 -0.052040342 0.10225886 -0.28496966 0.18129936 -0.080252394 0.2863895 -0.05575906
0.13749656 -0.078340225 0.093505725 -0.19408831 -0.106458984 0.049337506 0.055031843 -0.22458655
-0.10308295 0.068332136 -0.19686848 0.024900643 -0.17229389 -0.24844056 0.043224428 -0.3047121
0.09148182 -0.07654868 -0.21559748 -0.14174569 -0.06348019 0.067756854 -0.30944613 -0.20386429
-0.1095967 0.23455061 -0.20581228 -0.053482097 0.2324309 -0.00995552 0.020793824 -0.014350377
0.3321369 0.28201297 -0.118269056 -0.22188175 -0.06441784 -0.36464486 0.105578095 0.1467035
-0.22864035 -0.18925138 -0.01794504 -0.13004941 -0.065533526 0.3546023 0.371677 -0.044127792
-0.17001471 0.19984885 -0.0035627852 0.14094862 0.3787442 0.3878532 0.29004228 -0.047510892
-0.08484505 -0.23898016 0.111386865 0.46387127 -0.22424288 0.15013069 -0.24922357 0.24721709
-0.075599 -0.14398357 0.23813576 0.20127513 0.3416205 -0.18097991 0.0923439 0.028069057
-0.26734394 0.18827559 0.09115906 -0.30512506 -0.084052354 0.09434759 -0.20484853 0.32320705
0.2932485 0.16949771 -0.001413 -0.10272617 0.025875784 0.09448485 0.38975346 -0.1115745
0.22804222 -0.2536893 0.0874022 0.116757885 -0.3057808 0.12133975 0.062260997 0.13719836
-0.19442147 -0.11009117 -0.10965995 -0.19184321 0.14201693 0.13492317 -0.19070269 0.18780024
0.028325208 -0.15140699 0.112123206 0.02308651 -0.15648331 0.15443553 0.10887124 0.15867773
0.04862097 0.2390617 -0.36226302 -0.060802292 -0.09909797 0.076538004 0.19114538 -0.026127826
0.22518142 -0.09735215 -0.11592961 -0.009596198 0.13524336 -0.04578121 -0.15011196 0.12070406
-0.042361718 0.15344912 -0.07214566 0.054376826 -0.24685483 -0.1618915 -0.22274853 0.018881902
-0.044244025 0.0022626095 0.06530217 -0.1569806 0.07626578 0.22460221 0.18743344 0.020335471
-0.083521284 -0.053561125 0.0129690245 -0.17038544 -0.09917003 0.15728897 -0.19343317 0.09167951
00000000: 1e3b 9d3d ef77 44be 08f3 2c3e 5d99 4d3e
00000010: fb3c b5bc 48ba afbd 3ea3 163e b5a9 98be
00000020: 23ff f9bc ce46 6b3d 149e 0f3d 3523 48be
00000030: 4fc2 313e 0e45 353e c581 aebd 3c18 2fbe
00000040: 50fb 593e 924b 0d3e 4e18 4ebd fb2c 543e
00000050: a140 013e 39c0 dbbd 3f90 4cbb 50cf 1c3e
00000060: 8910 8f3d c00f d43d 07fb 503d 5c77 7f3d
00000070: a6ac 36bd cbfb 443e 458a 85be 6606 503d
00000080: 44d0 7a3d 2d5b ca3d c39a cdbc 0d9d c8bd
00000090: 58c3 d73d fa21 de3d fc16 403d 6602 233d
000000a0: 603e 47bd b25c 54be d433 34be 9e98 173e
000000b0: e987 f4bd 439d 1dbe a313 ba3d f291 f7bd
000000c0: 9291 c2bd d043 00be 2e08 e83d 66f5 dbbd
000000d0: 9cac f73d d7a6 2b3d 07b8 923d e698 e1bc
000000e0: fdac c2bd ad5b b23d 9491 da3d 1e4f 40bc
000000f0: 875f 39be 116d 1cbe ab57 ea3c 244b c93d
00000100: 85eb d7bc 41e1 9abb 0d3a fa3c c0df 323e
00000110: 24b7 ab3d 0d8f 403c f9d1 513e c044 4b3e
00000120: 85c3 7abc 05d8 67bd 3a26 603d 9205 45be
00000130: f5e0 113d b473 f83d b1d7 283d b29e 32bd
00000140: 25c5 b43d 29c4 ccbd 3117 c8bc 3349 1b3e
00000150: 7b14 55bd d430 443d 4ee9 133d db5e 15be
00000160: 58d7 51be b1f9 513d d42b 143e 898e 0bbd
00000170: df89 0a3e ed0e ccbd afae 6dbc cecb 8e3d
00000180: 7efe 2d3e 4128 55bd 186d d13d 8be7 91be
00000190: 8aa6 393e 5e5b a4bd a5a1 923e 9d63 64bd
000001a0: e6cb 0c3e d770 a0bd ee7f bf3d 16bf 46be
000001b0: 2b07 dabd 2016 4a3d 1269 613d 04fa 65be
000001c0: 271d d3bd b8f1 8b3d e497 49be 6ffc cb3c
000001d0: cf6d 30be 3467 7ebe 190c 313d 3903 9cbe
000001e0: d25a bb3d 8ec5 9cbd 96c5 5cbe c825 11be
000001f0: e701 82bd 1bc4 8a3d b96f 9ebe cdc1 50be
00000200: 3c74 e0bd 092e 703e 74c0 52be 0b10 5bbd
00000210: 5e02 6e3e 7a1c 23bc cf57 aa3c d81d 6bbc
00000220: d90d aa3e 0164 903e 0c37 f2bd f834 63be
00000230: 80ed 83bd bbb2 babe 5439 d83d 7139 163e
00000240: b220 6abe 1dcb 41be 7a01 93bc ac2b 05be
00000250: 7136 86bd 6f8e b53e 734c be3e 58bf 34bd
00000260: 5618 2ebe 2da5 4c3e 9e7d 69bb d654 103e
00000270: c3ea c13e b294 c63e 6c80 943e c89a 42bd
00000280: 3ec3 adbd 37b7 74be cc1e e43d 8980 ed3e
00000290: ed9f 65be dcbb 193e 7734 7fbe 7a26 7d3e
000002a0: a6d3 9abd 6e70 13be dcd9 733e 111b 4e3e
000002b0: e2e8 ae3e cc52 39be cc1e bd3d 14f1 e53c
000002c0: 4ee1 88be 51cb 403e 9ab1 ba3d 5a39 9cbe
000002d0: a423 acbd 4f39 c13d d0c3 51be 657b a53e
000002e0: ab24 963e cf90 2d3e 6a34 b9ba 1962 d2bd
000002f0: 74f9 d33c 4681 c13d c48d c73e 2c81 e4bd
00000300: e683 693e 90e3 81be edff b23d c21e ef3d
00000310: 4d8f 9cbe fa80 f83d 6305 7f3d ba7d 0c3e
00000320: 6c16 47be 7b77 e1bd 6595 e0bd 8c72 44be
00000330: e36c 113e 4d29 0a3e 9147 43be b54e 403e
00000340: 440a e83c 6f0a 1bbe daa0 e53d ec1f bd3c
00000350: 293d 20be 5924 1e3e e2f7 de3d 6a7c 223e
00000360: c826 473d 97cc 743e 8a7a b9be d30b 79bd
00000370: e0f3 cabd f5bf 9c3d 9dbb 433e 060a d6bc
00000380: f595 663e 9060 c7bd 816c edbd 5f39 1dbc
00000390: 3c7d 0a3e 1485 3bbd f3b6 19be b133 f73d
000003a0: 7b83 2dbd c421 1d3e 1bc1 93bd 3cba 5e3d
000003b0: 83c7 7cbe e3c6 25be 3118 64be 38ae 9a3c
000003c0: 3939 35bd 4a48 143b 25bd 853d 86bf 20be
000003d0: 3c31 9c3d 1ffe 653e 8dee 3f3e 9396 a63c
000003e0: 350d abbd e962 5bbd 087c 543c 8579 2ebe
000003f0: a819 cbbd 5c10 213e 5813 46be 78c2 bb3d

StatefulPartitionedCall/sequential_7/dense_30/BiasAdd/ReadVariableOp:0 f4 [64]
0.07759443 -0.03419077 0.015833657 0.012341517 0.08670306 0.08910468 -0.054087814 0.06273844
-0.033563662 0.017305825 -0.03767303 -0.017649354 0.06119349 0.0674684 0.036600426 0.023879964
0.0642387 0.07406006 0.08249513 0.025579331 0.11486253 -0.01694232 -0.015836813 -0.012030014
0.08821173 0.01270341 0.011899141 -0.06381994 -0.034209415 0.002631266 -0.026464868 0.049974896
0.049672537 0.042243604 0.058879443 -0.0054690107 -0.042150203 0.012060797 0.036448967 -0.0080338465
0.061501894 -0.044877697 -0.0060806694 -0.010693885 -0.02959369 0.010386959 -0.0008703264 0.032866046
-0.031241668 -0.06716678 0.04473178 0.12701352 0.037500527 0.0467443 0.043258842 0.055547528
-0.02553584 -0.04967916 -0.07605843 0.0018685476 -0.022556582 0.048971694 0.039680775 0.07104342
00000000: d4e9 9e3d 9f0b 0cbd 96b5 813c 1334 4a3c
00000010: 6091 b13d 847c b63d 2f8b 5dbd 037d 803d
00000020: 0d7a 09bd f2c4 8d3c 094f 1abd 6195 90bc
00000030: 06a6 7a3d df2c 8a3d 54ea 153d ea9f c33c
00000040: 948f 833d cdac 973d 35f3 a83d bf8b d13c
00000050: 0c3d eb3d 9fca 8abc 34bc 81bc 8919 45bc
00000060: 5aa8 b43d f721 503c 9df4 423c 07b4 82bd
00000070: 2c1f 0cbd 5171 2c3b dacc d8bc 7ab2 4c3d
00000080: 6e75 4b3d a107 2d3d 922b 713d 6335 b3bb
00000090: b1a5 2cbd a69a 453c 834b 153d 65a0 03bc
000000a0: 69e9 7b3d add1 37bd 5a40 c7bb 6835 2fbc
000000b0: 776e f2bc 102e 2a3c 9e26 64ba 8c9e 063d
000000c0: 87ee ffbc bd8e 89bd ac38 373d d50f 023e
000000d0: 279a 193d f376 3f3d 2f30 313d ce85 633d
000000e0: 8a30 d1bc 607c 4bbd 86c4 9bbd 0eea f43a
000000f0: 95c8 b8bc 8b96 483d 4f88 223d 367f 913d

StatefulPartitionedCall/sequential_7/dense_29/MatMul/ReadVariableOp:0 f4 [64, 64]
0.007008346 -0.2439671 0.08945419 0.019144224 0.12164755 -0.050096985 -0.04017653 0.10076773
-0.18882802 0.11739461 0.27640334 -0.17763902 -0.23532091 -0.05967843 0.07767386 0.23674579
-0.31479287 0.070364945 -0.29466304 0.11275261 -0.26304185 0.14622408 -0.14198871 -0.019196216
-0.06263841 -0.0884538 -0.036950197 0.07210309 -0.18438743 0.16463208 -0.0744123 0.27476534
0.20007701 -0.17510606 0.07964194 -0.052693177 0.29848444 -0.2229527 -0.053932637 0.0029547613
-0.26143444 -0.1356295 0.21020055 -0.19715218 -0.032284696 -0.14651062 0.1893156 -0.2917958
-0.23639144 -0.3468377 0.1509278 -0.122173026 0.023809358 0.18231684 0.062448867 -0.18691084
0.06926602 0.10382041 0.04772498 -0.29076087 -0.11384798 -0.20676476 0.030831963 -0.34707195
-0.21776657 -0.00785623 0.10112845 0.18437158 -0.1345004 0.17226805 0.06430006 -0.06895367
-0.20986247 0.17121747 0.06831158 -0.021697957 0.06311956 0.03035131 -0.06506342 -0.086249255
-0.1320803 -0.17737098 0.012473852 -0.23485725 -0.04107969 0.15506168 -0.21099879 0.2184745
-0.0707836 -0.07936849 -0.18469414 -0.18664944 -0.11046823 0.19007935 0.2208426 -0.042104278
-0.0493712 0.128037 -0.20533998 0.060813937 -0.05260171 -0.14988397 0.053829845 -0.14992048
-0.11786843 -0.028291244 -0.12203091 0.11664414 0.015168425 0.0788952 -0.103139386 -0.21150967
0.06642552 -0.06484898 0.04746944 -0.04682406 -0.38151765 -0.08797266 -0.008988013 0.19455174
-0.24020603 -0.018824128 -0.26939762 -0.18882698 -0.03979313 0.21324544 0.060038283 -0.18935524
-0.13225679 0.05028178 -0.113661095 0.19544953 -0.052476294 0.18902214 -0.063740455 -0.24053873
-0.1767195 -0.007318652 0.26759392 0.032691807 0.19857293 -0.023827251 -0.10609591 -0.08054417
0.05228041 -0.25528482 0.19598386 0.15770295 -0.2772899 0.03811929 0.16476622 -0.1252184
-0.2076434 0.15074638 -0.13544367 -0.13739428 0.195657 -0.14726368 0.05085869 -0.1635777
-0.13609603 -0.07059263 -0.07126403 -0.082109086 -0.15312843 -0.21929085 -0.047159646 -0.07464057
0.11917494 0.17087577 -0.07364801 -0.076939225 0.2817021 -0.116183996 -0.3308738 -0.045597292
-0.31832954 0.037155088 0.16176873 -0.16937776 -0.045942068 -0.010603798 0.17733961 -0.14081015
0.24590084 -0.04807319 0.25612977 -0.16199513 0.076685436 -0.045071214 0.036456022 -0.13082705
0.13342209 -0.20216957 0.20386672 0.16064481 -0.052274134 -0.19091119 -0.097666614 0.11708006
-0.025516324 -0.08886425 0.09772618 -0.1277277 -0.13430513 0.14640561 0.08793834 -0.1424702
-0.054580893 0.011090523 0.077639595 -0.028313989 7.729366e-05 0.09691211 0.02743476 0.18323764
-0.100347206 -0.26391017 0.1224367 -0.16464926 0.05674404 0.20041247 -0.12425359 0.24141943
-0.14499749 0.15107386 0.1687081 0.20289227 0.1051275 -0.025085365 0.11297613 0.08478116
-0.03316028 0.10711736 -0.06385275 -0.030236516 -0.2554832 -0.01056627 -0.25667226 0.22398919
0.18237507 -0.077266075 0.003329521 -0.116075106 -0.02289216 0.07575951 0.06155773 -0.25943562
-0.03872348 -0.124555044 -0.10493269 8.451019e-05 -0.07377936 -0.123221554 0.19859542 0.00068225834
00000000: 44a6 e53b 83d2 79be c233 b73d 59d4 9c3c
00000010: 5a22 f93d 7f32 4dbd 2590 24bd 505f ce3d
00000020: 225c 41be 966c f03d bd84 8d3e 01e7 35be
00000030: f7f7 70be 5f71 74bd 7913 9f3d 7d6d 723e
00000040: 882c a1be 7f1b 903d 13de 96be d7ea e63d
00000050: 6cad 86be c4bb 153e 7d65 11be 6241 9dbc
00000060: 9148 80bd 4427 b5bd 1759 17bd c9aa 933d
00000070: 0fd0 3cbe 5095 283e 7a65 98bd 0bae 8c3e
00000080: fde0 4c3e 014f 33be 501b a33d cdd4 57bd
00000090: f4d2 983e b64d 64be 78e8 5cbd aba4 413b
000000a0: bcda 85be 76e2 0abe d03e 573e 43e2 49be
000000b0: f53c 04bd e106 16be f3db 413e 4266 95be
000000c0: 9910 72be b694 b1be d18c 1a3e da35 fabd
000000d0: d80b c33c 44b1 3a3e 62ca 7f3d 8e65 3fbe
000000e0: 58db 8d3d cc9f d43d 457b 433d 9cde 94be
000000f0: 2129 e9bd 24ba 53be 5093 fc3c 6ab3 b1be
00000100: 33fe 5ebe 6bb7 00bc 6f1c cf3d e7cb 3c3e
00000110: 79ba 09be 0967 303e c0af 833d 9537 8dbd
00000120: 30e6 56be a253 2f3e f1e6 8b3d eabf b1bc
00000130: d444 813d 4fa3 f83c f83f 85bd 73a3 b0bd
00000140: 0f40 07be bda0 35be 215f 4c3c 6b7e 70be
00000150: 2d43 28bd 7dc8 1e3e 1110 58be c8b7 5f3e
00000160: fef6 90bd f28b a2bd 7620 3dbe 0821 3fbe
00000170: 2b3d e2bd 29a4 423e 9024 623e 8975 2cbd
00000180: 7539 4abd 221c 033e a544 52be 0918 793d
00000190: e474 57bd 2f7b 19be af7c 5c3d c184 19be
000001a0: 0165 f1bd 0ac3 e7bc 57eb f9bd 1fe3 ee3d
000001b0: fc84 783c ce93 a13d be3a d3bd fe95 58be
000001c0: 1a0a 883d 8bcf 84bd 516f 423d 96ca 3fbd
000001d0: 4856 c3be 032b b4bd 7542 13bc 9238 473e
000001e0: 92f8 75be 0f35 9abc 7cee 89be dc5b 41be
000001f0: 1ffe 22bd 035d 5a3e b4ea 753d 57e6 41be
00000200: 536e 07be 45f4 4d3d 26c7 e8bd ec23 483e
00000210: 62f1 56bd 058f 413e 5b8a 82bd c94f 76be
00000220: f5f5 34be 4dd1 efbb 1202 893e d8e7 053d
00000230: b456 4b3e 5e31 c3bc d048 d9bd 58f4 a4bd
00000240: fc23 563d b1b4 82be feaf 483e e27c 213e
00000250: f1f8 8dbe f922 1c3d 7ab8 283e 4139 00be
00000260: 79a0 54be 425d 1a3e bfb1 0abe 16b1 0cbe
00000270: 4f5a 483e 4acc 16be 3451 503d ea80 27be
00000280: c25c 0bbe de92 90bd e0f2 91bd cf28 a8bd
00000290: b3cd 1cbe c88d 60be 792a 41bd 28dd 98bd
000002a0: fe11 f43d 0ffa 2e3e c5d4 96bd 5092 9dbd
000002b0: 423b 903e e0f1 edbd 4a68 a9be 3ac4 3abd
000002c0: 17fc a2be ef2f 183d b4a6 253e 5d71 2dbe
000002d0: c02d 3cbd 8dbb 2dbc 8498 353e 8930 10be
000002e0: 6ecd 7b3e 65e8 44bd 7123 833e 0de2 25be
000002f0: 410d 9d3d 989c 38bd e952 153d 87f7 05be
00000300: cd9f 083e 8a05 4fbe 70c2 503e 1380 243e
00000310: 671d 56bd 397e 43be 6f05 c8bd acc7 ef3d
00000320: 9c07 d1bc 76fe b5bd aa24 c83d 0dcb 02be
00000330: 4987 09be 5aeb 153e 0419 b43d b5e3 11be
00000340: 3790 5fbd 06b5 353c 8201 9f3d bdf2 e7bc
00000350: b818 a238 db79 c63d ddbe e03c a6a2 3b3e
00000360: d682 cdbd 3c1f 87be 18c0 fa3d d199 28be
00000370: 706c 683d ed38 4d3e ab78 febd a836 773e
00000380: 397a 14be 1bb3 1a3e d1c1 2c3e fec2 4f3e
00000390: 164d d73d d37f cdbc 0760 e73d bfa1 ad3d
000003a0: 13d3 07bd 5960 db3d 3bc5 82bd 92b2 f7bc
000003b0: b2ce 82be 261e 2dbc 8c6a 83be 6c5d 653e
000003c0: 88c0 3a3e ad3d 9ebd 1834 5a3b c9b8 edbd
000003d0: 5788 bbbc cd27 9b3d f523 7c3d bfd4 84be
000003e0: 839c 1ebd b716 ffbd f3e6 d6bd 103b b138
000003f0: a219 97bd 955b fcbd 995c 4b3e 95d9 323a

StatefulPartitionedCall/sequential_7/dense_29/BiasAdd/ReadVariableOp:0 f4 [64]
0.010588033 -0.06278878 0.014166273 0.012511463 0.05121123 0.04634809 -0.021525491 0.09421671
-0.043736275 0.059255645 0.0041034273 0.0070433626 0.026382739 0.011870504 0.046924997 0.05380022
-0.027835283 -0.019752445 -0.056573223 0.017089104 -0.028816612 -0.035945285 -0.0027079901 0.13345245
-0.021876574 0.041421667 -0.012590942 0.0063875318 0.0068231313 0.08664047 0.023788558 0.059365794
0.03531462 0.02557369 -0.005681734 -0.02583263 0.032772686 -0.017249564 -0.035431463 -0.003647834
-0.02283127 0.0054150103 0.023722643 -0.0068363906 0.037265405 -0.01635028 -0.03387384 -0.101293154
-0.009206732 -0.017053088 0.00021847071 -0.08637654 -0.044300664 0.11405993 -0.019285928 -0.0099476855
0.028600104 0.08046615 0.030873006 -0.049556773 -0.015254974 0.0021077956 0.08378677 -0.084094614
00000000: 6e79 2d3c 6797 80bd a819 683c e1fc 4c3c
00000010: dec2 513d 7fd7 3d3d 3a56 b0bc b1f4 c03d
00000020: cf24 33bd 0cb6 723d 0b76 863b 02cc e63b
00000030: 9d20 d83c 817c 423c 6d34 403d 9f5d 5c3d
00000040: d206 e4bc e1cf a1bc 53b9 67bd 73fe 8b3c
00000050: d110 ecbc 5d3b 13bd 8978 31bb c2a7 083e
00000060: 8036 b3bc c4a9 293d 3d4a 4ebc 804e d13b
00000070: 9394 df3b 8f70 b13d 39e0 c23c 8c29 733d
00000080: 10a6 103d ea7f d13c d72d babb f49e d3bc
00000090: a73c 063d f54e 8dbc 9520 11bd 8010 6fbb
000000a0: a508 bbbc 6670 b13b fd55 c23c cd03 e0bb
000000b0: 9ca3 183d 06f1 85bc 4cbf 0abd c972 cfbd
000000c0: d5d7 16bc ebb2 8bbc 4915 6539 2fe6 b0bd
000000d0: 9d74 35bd 4198 e93d 86fd 9dbc 9efb 22bc
000000e0: c44a ea3c 70cb a43d 63e9 fc3c 0bfc 4abd
000000f0: 00f0 79bc f122 0a3b 6698 ab3d cc39 acbd

StatefulPartitionedCall/sequential_7/dense_28/MatMul/ReadVariableOp:0 f4 [11, 64]
-0.0021319145 0.046745572 0.15365355 -0.21486847 -0.122022785 -0.27084076 0.116577595 0.26837888
0.039467767 -0.0741216 0.16782145 0.09002183 -0.17908911 -0.042824958 -0.39251477 0.08522548
-0.050414253 0.30216417 -0.18481547 -0.18819049 0.2274161 0.13729714 0.14335376 0.2587036
0.049506065 0.39300293 -0.04338099 -0.056353636 -0.044738412 0.1832553 0.19344623 -0.032760456
-0.1750431 -0.08354666 -0.2814192 0.11798546 0.23007677 0.23977354 0.21809065 0.20691736
0.030444456 -0.2532162 0.19138396 0.12817141 0.101756096 -0.08504802 0.2885695 0.28653193
-0.13872305 -0.006398249 0.14794123 0.2600696 -0.22417358 0.3040274 -0.28564006 0.19522496
-0.0026309018 -0.30028662 -0.17893426 0.22415826 -0.17155956 0.09167346 0.2693188 0.1877271
-0.48372388 0.09737896 0.19345114 -0.2553665 0.18031417 0.33953288 0.08314667 0.25592753
-0.0028690938 0.054953203 -0.053197607 -0.2653178 -0.2947642 -0.10614405 0.06412843 0.105695955
-0.41796535 -0.010269958 0.13524659 -0.16465102 -0.26473415 -0.08905866 -0.12493676 -0.3397914
0.17800175 0.17189234 -0.36150065 -0.12895818 0.19744173 -0.15557514 -0.06493723 0.010056151
-0.2422948 0.048716 0.12827927 -0.025197135 0.31484446 -0.11669699 -0.21826202 0.10910762
0.46678072 0.0126522025 0.111699186 -0.21111861 -0.022910109 0.090913594 0.17443642 0.09205204
0.15706077 0.1256632 0.04924909 0.34230265 -0.12559831 -0.4298421 -0.24124692 0.14052364
-0.2665598 -0.009458254 0.19370554 -0.07258358 0.028770063 0.109580144 -0.12140496 0.13626434
-0.014187136 -0.04253863 0.012431993 0.05307188 -0.007862758 -0.13263725 0.052447826 -0.0023452167
-0.1121683 0.042271197 -0.10304219 0.28667057 -0.21916537 -0.21184592 -0.16715619 -0.24433555
-0.25870064 -0.1753552 0.06006724 0.09600338 0.2370148 -0.037880406 -0.0029802849 0.11189054
0.09874669 -0.027818717 -0.13478158 -0.20527232 -0.18297496 -0.03841267 -0.048381936 -0.23392771
-0.20096259 -0.09163418 -0.12854211 -0.054118123 0.19510318 0.19865017 -0.1568304 -0.15299846
-0.37589672 -0.025789846 0.12580392 -0.059637815 0.017529277 0.28791457 0.10060578 -0.15756658
-0.21251573 0.0320056 0.005132055 -0.06948907 -0.105165176 -0.02001059 0.11422186 0.1142683
-0.19255121 -0.025661992 0.17214338 0.22512656 0.096386135 0.14089575 -0.0396623 0.20615079
0.094831824 0.17904104 -0.041541632 -0.24811678 -0.07673872 -0.11197121 -0.023901679 -0.1346143
0.006042222 0.19291867 -0.2626047 -0.30297318 -0.0070319274 0.06267872 -0.1265833 -0.17549558
-0.18719013 -0.06639322 0.020867454 0.24512103 0.17571168 -0.012451586 0.0591296 -0.044052165
-0.24303122 -0.22855239 0.2773617 -0.20501968 -0.24360286 -0.13656944 0.13722785 0.17948534
0.086931705 -0.17459817 -0.22671156 0.0940468 0.045557212 -0.11756358 0.1492234 0.099959426
-0.044658992 -0.044783227 0.22006288 0.029984374 0.19303532 -0.07795993 -0.31082806 -0.012534719
0.020209903 -0.109326735 0.09666326 0.20363995 -0.23870434 -0.0123259295 -0.03808835 0.13384224
-0.27108392 -0.34232685 -0.19400878 -0.042783737 0.28165257 -0.3368569 -0.13120897 -0.14008278
00000000: 97b7 0bbb 4978 3f3d 5b57 1d3e 7b06 5cbe
00000010: 15e7 f9bd a4ab 8abe 3cc0 ee3d f568 893e
00000020: f4a8 213d 11cd 97bd 63d9 2b3e 5d5d b83d
00000030: 2363 37be 3969 2fbd b2f7 c8be b28a ae3d
00000040: 2d7f 4ebd 43b5 9a3e 4440 3dbe 02b5 40be
00000050: c4df 683e 9f97 0c3e 54cb 123e cc74 843e
00000060: dfc6 4a3d ae37 c93e 44b0 31bd 12d3 66bd
00000070: a03f 37bd 47a7 3b3e c516 463e d42f 06bd
00000080: 803e 33be 831a abbd 2d16 90be 5ca2 f13d
00000090: 3f99 6b3e 3287 753e 2853 5f3e 25e2 533e
000000a0: a766 f93c 8ea5 81be 28fa 433e 5e3f 033e
000000b0: 8065 d03d a82d aebd 62bf 933e 50b4 923e
000000c0: 6a0d 0ebe 67a8 d1bb e87d 173e d827 853e
000000d0: c28d 65be 7ba9 9b3e 6a3f 92be 0de9 473e
000000e0: 356b 2cbb 2bbf 99be 8b3a 37be be89 653e
000000f0: 4fad 2fbe 4cbf bb3d 27e4 893e 883b 403e
00000100: a8aa f7be 9f6e c73d 0e18 463e 66bf 82be
00000110: 47a4 383e 41d7 ad3e cd48 aa3d ef08 833e
00000120: 6807 3cbb 9c16 613d bce5 59bd bcd7 87be
00000130: 55eb 96be 0d62 d9bd c455 833d 1f77 d83d
00000140: 8eff d5be 5343 28bc 157e 0a3e 479a 28be
00000150: 3c8b 87be 6364 b6bd d8de ffbd 23f9 adbe
00000160: 1746 363e 8c04 303e 9d16 b9be 9d0d 04be
00000170: 2a2e 4a3e 174f 1fbe cffd 84bd 8ec2 243c
00000180: 211c 78be 6e8a 473d a45b 033e 396a cebc
00000190: 4b33 a13e d5fe eebd 1480 5fbe d173 df3d
000001a0: e2fd ee3e 2f4b 4f3c 8bc2 e43d 7a2f 58be
000001b0: fbad bbbc e830 ba3d 769f 323e c885 bc3d
000001c0: 8ad4 203e dbad 003e 6ab9 493d 4b42 af3e
000001d0: d89c 00be 4414 dcbe 6f09 77be 6ee5 0f3e
000001e0: 877a 88be cbf6 1abc bf5a 463e b3a6 94bd
000001f0: 32af eb3c 8e6b e03d 2aa3 f8bd e188 0b3e
00000200: 2971 68bc fd3c 2ebd 8faf 4b3c e661 593d
00000210: ccd2 00bc 0fd2 07be 88d3 563d 35b2 19bb
00000220: 7eb8 e5bd 9024 2d3d c907 d3bd 7cc6 923e
00000230: e36c 60be 23ee 58be fe2a 2bbe 1933 7abe
00000240: 6974 84be 5090 33be 1109 763d 6c9d c43d
00000250: 02b4 723e 7c28 1bbd e250 43bb de26 e53d
00000260: b43b ca3d 14e4 e3bc 2f04 0abe e832 52be
00000270: ca5d 3bbe 9b56 1dbd 232c 46bd bf8a 6fbe
00000280: 23c9 4dbe b3aa bbbd 8ba0 03be f7aa 5dbd
00000290: 21c9 473e f36a 4b3e 2698 20be a1ab 1cbe
000002a0: 8975 c0be 3a45 d3bc bed2 003e c846 74bd
000002b0: 8f99 8f3c 8a69 933e 670a ce3d 2259 21be
000002c0: b99d 59be 4e18 033d cc2a a83b 4950 8ebd
000002d0: d760 d7bd 40ed a3bc 27ed e93d 8005 ea3d
000002e0: 252c 45be 1939 d2bc 5b46 303e 9487 663e
000002f0: 1866 c53d fa46 103e f074 22bd 3119 533e
00000300: 3037 c23d 8956 373e 8f27 2abd 5312 7ebe
00000310: 3129 9dbd 2951 e5bd 74cd c3bc 55d8 09be
00000320: d5fd c53b 798c 453e 2074 86be 4d1f 9bbe
00000330: 156c e6bb b35d 803d 0d9f 01be 1db5 33be
00000340: c5ae 3fbe 2bf9 87bd 39f2 aa3c 0201 7b3e
00000350: c3ed 333e bd01 4cbc e131 723d 0b70 34bd
00000360: 2ddd 78be a309 6abe 5a02 8e3e aef0 51be
00000370: 0773 79be dcd8 0bbe 7585 0c3e 01cb 373e
00000380: 4009 b23d ddc9 32be 1327 68be 9c9b c03d
00000390: 339a 3a3d 2dc5 f0bd 05ce 183e 87b7 cc3d
000003a0: 59ec 36bd 9e6e 37bd 2a58 613e caa1 f53c
000003b0: 0dab 453e 75a9 9fbd db24 9fbe 6c5e 4dbc
000003c0: 3d8f a53c b2e6 dfbd 63f7 c53d fe86 503e
000003d0: e96e 74be b2f2 49bc 8802 1cbd f10d 093e
000003e0: 83cb 8abe 7745 afbe 3daa 46be 003e 2fbd
000003f0: c434 903e 8278 acbe a55b 06be dc71 0fbe

StatefulPartitionedCall/sequential_7/dense_28/BiasAdd/ReadVariableOp:0 f4 [64]
0.00043897936 -0.016969277 0.013714367 0.037601992 0.05521627 0.008028649 -0.035348378 -0.029340256
-0.033742547 0.05356403 0.041790735 -0.09586942 -0.012138426 -0.015838405 0.031537853 0.009809978
-0.09311727 -0.023060504 -0.020681638 0.0043158946 -0.04367768 0.06483413 -0.047229532 -0.08529713
-0.011871823 0.021990763 -0.011396418 -0.16561083 -0.022777116 -0.10562417 0.018593011 -0.0402469
-0.13942711 -0.0660087 0.0035766226 -0.026424095 -0.014885108 -0.018160487 -0.13730222 -0.035023287
0.05247354 -0.017911397 -0.08034464 -0.091638826 0.0337105 0.013269248 -0.029491235 -0.08808115
-0.031210823 -0.07417568 0.038311087 -0.02599928 -0.09816341 -0.037384935 -0.040857892 -0.12452812
-0.120331556 0.042462964 -0.060617626 -0.07003568 0.065158196 -0.0680925 0.008311512 -0.12483423
00000000: d026 e639 2703 8bbc 39b2 603c 8c04 1a3d
00000010: 752a 623d 988a 033c 76c9 10bd fa5a f0bc
00000020: a035 0abd f565 5b3d c32c 2b3d 3057 c4bd
00000030: 40e0 46bc 8bbf 81bc d62d 013d 08ba 203c
00000040: 44b4 bebd 62e9 bcbc 8a6c a9bc 596c 8d3b
00000050: 5ee7 32bd c2c7 843d c173 41bd 43b0 aebd
00000060: 0982 42bc f925 b43c 0bb8 3abc e395 29be
00000070: 1397 babc 7c51 d8bd 5f50 983c efd9 24bd
00000080: fbc5 0ebe 922f 87bd c565 6a3b 5877 d8bc
00000090: abe0 73bc 4dc5 94bc f498 0cbe 9474 0fbd
000000a0: 7fee 563d ecba 92bc bb8b a4bd 23ad bbbd
000000b0: 0514 0a3d 4367 593c 9a97 f1bc e463 b4bd
000000c0: d7ad ffbc 6be9 97bd 16ec 1c3d 71fc d4bc
000000d0: e609 c9bd f220 19bd 9b5a 27bd 9908 ffbd
000000e0: 6470 f6bd a5ed 2d3d 304a 78bd de6e 8fbd
000000f0: a971 853d 1574 8bbd 022d 083c 17a9 ffbd

StatefulPartitionedCall/sequential_7/customer_data/batchnorm/sub:0 f4 [11]
-0.6226038 -1.7790865 -2.2946587 -3.3469718 -1.4947629 -0.9752687 -2.0938523 -31.560143
-0.38320264 -4.609184 -1.7121272
00000000: f662 1fbf 1bb9 e3bf b0db 12c0 c934 56c0
00000010: 6454 bfbf 36ab 79bf ad01 06c0 2c7b fcc1
00000020: 2333 c4be 6f7e 93c0 fc26 dbbf

StatefulPartitionedCall/sequential_7/customer_data/batchnorm/mul:0 f4 [11]
1.6688026 7.2544e-06 1.0768067 3.6643496 2.3586156 2.326715 2.4267662 31.622776
3.118967 0.00032743896 0.00068336865
00000000: 539b d53f d26a f336 cdd4 893f b484 6a40
00000010: 8ff3 1640 e6e8 1440 2350 1b40 72fb fc41
00000020: 289d 4740 1dac ab39 1824 333a
