resources/loan_model_alpha.onnx (onnx, 41111 bytes, 9 tensors)

StatefulPartitionedCall/sequential_1/dense_7/MatMul/ReadVariableOp:0 f4 [64, 1]
00000000: a9be 9d3e 9c10 9fbe 9953 1b3e 0015 3fbe
00000010: 4502 ad3d 69c2 013f bf4c 8fbe d879 7e3e
00000020: 33db 37be 91c7 05be 181b 823e d0f2 babd
00000030: 9128 85be 2538 853e 106b 633e fe51 2d3e
00000040: 1631 5abe 0385 3ebe ed54 83be 0a17 7dbe
00000050: 77c5 88be 3658 14bd dde9 a43e c2a8 9cbe
00000060: 36f1 b9be 136c e8bd 63d4 af3e 3d07 923e
00000070: 82b2 d13e b574 6ebd b2ab 49be e5e0 063d
00000080: 6ce7 8e3e c0a9 8dbd 819c c5be 87e7 17be
00000090: efa9 bb3e e6e3 b2be 0f29 ab3e 9168 c53e
000000a0: 4a40 c1be 171e 6dbe 5dfe dd3e 3570 45bd
000000b0: a9b3 a1be 035b 9e3e a0e6 043f 675f 0f3e
000000c0: 15ea d9bc b9ff da3e 34e1 67be af98 7abe
000000d0: 9bd6 bbbe 0dd0 43be 99d3 c53e 3347 4e3e
000000e0: 8ae7 8c3e 27e4 53be 6788 103f c22e 813e
000000f0: 454c fa3d bf1d f2be 3afa 35be 21a7 9cbe
0.30809525 -0.3106736 0.15168609 -0.18660355 0.084476985 0.5068727 -0.2798824 0.24851167
-0.17954712 -0.1306441 0.25411296 -0.09128344 -0.26007512 0.26019397 0.2220881 0.16925809
-0.21307787 -0.18605427 -0.2565073 -0.2471582 -0.26713154 -0.036216937 0.32209674 -0.30597502
-0.36316842 -0.113487385 0.34341726 0.28521147 0.40956503 -0.05821677 -0.19694403 0.03292932
0.27910936 -0.06917143 -0.38595966 -0.14834414 0.36653087 -0.34939498 0.33429763 0.3855634
-0.3774436 -0.2315601 0.43358126 -0.048202712 -0.31582382 0.3092881 0.51914406 0.14001237
-0.026600877 0.42773226 -0.22644502 -0.24472307 -0.36687168 -0.19122334 0.38638 0.20144348
0.275204 -0.20692502 0.56458133 0.25230986 0.122215785 -0.4728832 -0.17771235 -0.3059626

StatefulPartitionedCall/sequential_1/dense_6/MatMul/ReadVariableOp:0 f4 [64, 64]
00000000: 41c6 45be 99de 12be 044c a8bd d96c f63d
00000010: 968a 87be b684 0f3e b5e4 7a3e 4148 1d3e
00000020: 8138 7f3e 1daf ec3d 3d06 173d e8d7 68bc
00000030: 60ed eabd f8b6 263e bbbe 24be e9ce 3bbe
00000040: aae4 033e 0f23 943e 4211 59bd 26d6 2b3d
00000050: 0597 20bd 15c7 e33d f472 3e3e 2529 4ebc
00000060: 2c8e aebd 4412 7fbd 70c7 51be d39c 87bc
00000070: c312 71be f5fa 613e fa76 30be e22b 443e
00000080: 2531 ce3c bdf2 c7bd 0f31 16be 744d 253d
00000090: b8dd 1dbe c54d 853e 53ef ed3d cec3 5e3e
000000a0: 328b a6be b349 d63b 07f4 d3bd 3f69 5ebc
000000b0: 2d6c 863d cf79 2bbe 8c19 a4be 09c3 173e
000000c0: d2f8 683d d962 79be ce80 f4bd cbcb 823e
000000d0: 78dd 803e 97a5 c23c 3f3c 283e d1ca e5bd
000000e0: 1cfb 113e 7713 a3be 8ec0 403e 34ac 5ebd
000000f0: 0847 3bbe 5fb9 e03d b3ff e5ba 1757 c23d
00000100: 3d9b 05be 1fe6 b8bd 1176 f1bd 7f30 863e
00000110: 9ba2 183e 951a 7f3d e734 39be d4f4 7cbe
00000120: f558 863e e409 bd3d e763 84be a960 7c3d
00000130: 76af 9fbd 6eaf dbbd 69c3 17be 9fdb f2bc
00000140: 2149 83bc fef5 353d 9501 20be 9bbc 873e
00000150: b30f 063e 68b3 313e 6819 cebe d186 943c
00000160: e13f 5dbd ad86 01be 2e9c 4abe 1b68 20bd
00000170: 7d4d 62be 224a 3b3e 93da 8ebe 6b34 48be
00000180: 9e19 4d3e 1ee2 cd3d e3d7 483c 50d7 88bc
00000190: 590c 903d cf97 603e fb27 bfbe 30b8 b3bd
000001a0: 86db e73d f659 21be e5ea 38bd a5f8 cb3d
000001b0: 260e ddbc 2282 69be 7c16 613d a919 5e3d
000001c0: 3102 053d 31e7 2cbb 44e1 49bd a6c4 3f3d
000001d0: 8579 2b3e 7410 e73d 34f1 c33c 60f5 b2bd
000001e0: 242f 8dbe d6df b0be 0cd3 73be dc77 a53d
000001f0: d1f7 883d a1a1 56be cc1f 883e 2dba 08be
00000200: 72ac ce3c 9190 743e 72c5 dfbd c6f1 f53d
00000210: 53e2 303d d892 63be f912 d43d 12d0 543c
00000220: c4e7 ec3d 924c af3d a233 ec3d 8c3f 1abc
00000230: a49a d7bc e699 86bb 78c7 8bbe e1d4 1f3e
00000240: 97e5 7c3e 4e25 1d3e f6aa c5bc 22cb a0bd
00000250: 1894 0e3e 6cef 663e 6e55 d5bd d13d 9c3e
00000260: e0ca 593e 7539 a53e 48b3 74bb e797 babc
00000270: fc1c 72bc 1f11 aa3e 9d55 7dbd 9bce 8dbd
00000280: d900 c6bc c11f 823e a9ee 10be 9adc 4e3e
00000290: 14c4 64be 84c2 9c3e 4aca 78be 4513 d43b
000002a0: 4e67 81be 135e 2bbe 79a0 1dbd 78b1 e7bb
000002b0: b6aa 453c 0db9 ca3d d0e6 9abb e2aa 3dbe
000002c0: d821 6f3e 97c4 be3c 2bdc 933e 12dc 033e
000002d0: 6d55 d53d e183 373e 792c 75be e2fe 1e3c
000002e0: 8f1a 063d e5c5 0e3e 7ed6 45be 4857 953d
000002f0: 06f1 8c3d 7979 d23b f745 2ebd 5676 893d
00000300: 0be7 28be 269e a73c 38b2 223e a7be 113e
00000310: 1ebb 0f3d 3377 783d 27c8 153e 92c6 2dbe
00000320: 4933 093e d61e 203e d917 cabd 57c3 613e
00000330: b7fd 353e abee 833e 98cf dfbd 6ea9 b83c
00000340: 6fcf 653e 9779 2abd c1af 9d3c aad3 dfbc
00000350: 2530 31be a4e3 2e3d 1cca a33d 054f 853c
00000360: 6803 a53c a703 9e3d 608a 973c cc04 25be
00000370: 1d76 70bd 3b5f f53d d1b0 703d 507e 21bb
00000380: a120 593d 6faf efbc 003b 3cbd 0e7a fe3c
00000390: dfa5 15bd 189b 1cbe eeb9 583d 9775 4d3e
000003a0: 5cd1 aebe 2bf7 9b3d 088c 8abe 3738 63bd
000003b0: ebb4 243d afc1 47be d29c a2be 5ece 95bd
000003c0: dd41 433e 24cd c53d de92 2a3e 4475 7ebe
000003d0: 75de 43be db0a 993d 1743 68be e366 afbc
000003e0: 4822 0e3e a84f c2bd 51db 153c 5913 dbbc
000003f0: 6795 e4bd 356d 523d 9643 823d f415 0cbe
-0.19313909 -0.14342727 -0.08217624 0.1203248 -0.2647292 0.14015469 0.24501307 0.15359594
0.24923898 0.11556838 0.036871184 -0.014211632 -0.11471057 0.16280735 -0.16088383 -0.18340649
0.12880197 0.28932998 -0.052994974 0.041952275 -0.039206523 0.11121956 0.18598539 -0.012583052
-0.08523211 -0.06227328 -0.20486236 -0.016554272 -0.23542313 0.22068389 -0.17232886 0.19157365
0.025169918 -0.097630955 -0.14667152 0.04035707 -0.1541661 0.26035896 0.11617913 0.21754381
-0.32528073 0.0065395474 -0.10349279 -0.013574897 0.06563602 -0.16745685 -0.3205074 0.14820494
0.05687792 -0.24354114 -0.1193863 0.25546107 0.25168967 0.0237606 0.16429232 -0.11220325
0.14255947 -0.31850788 0.18823454 -0.054363444 -0.18288815 0.10972857 -0.0017547518 0.09489267
-0.130475 -0.09028267 -0.117900975 0.26208875 0.14905779 0.06228121 -0.18086587 -0.2470277
0.26239744 0.09230402 -0.2585747 0.06161562 -0.077971384 -0.1072682 -0.14820637 -0.02964574
-0.016026082 0.04442405 -0.15625603 0.26511082 0.13091926 0.17353594 -0.40253758 0.018130692
-0.054015998 -0.12649031 -0.1978614 -0.039161783 -0.22099872 0.18289998 -0.27901134 -0.19551246
0.20029303 0.10052894 0.012258503 -0.016704232 0.07033605 0.2193291 -0.3733519 -0.08775365
0.11321168 -0.15756974 -0.045145888 0.099595346 -0.026984286 -0.22803548 0.054953083 0.05422369
0.032472793 -0.0026382918 -0.049287096 0.046818398 0.16745575 0.11282435 0.023918726 -0.08738208
-0.27575028 -0.34545773 -0.23810977 0.08079502 0.06687892 -0.20960094 0.2658676 -0.1335227
0.025228713 0.23883273 -0.109263316 0.12009005 0.04318459 -0.22223985 0.10355181 0.012989061
0.11567643 0.085595265 0.11533286 -0.009414565 -0.026318856 -0.0041077016 -0.2730062 0.1560855
0.24696957 0.15346262 -0.024129372 -0.078512445 0.13923681 0.2255227 -0.10416685 0.30515912
0.21268797 0.322704 -0.0037338305 -0.02277751 -0.014777418 0.33216187 -0.061849225 -0.069241725
-0.024170326 0.2541485 -0.14153542 0.2020134 -0.22340423 0.30617154 -0.24295917 0.0064720237
-0.25274128 -0.16735105 -0.038483117 -0.0070707165 0.012064626 0.09898577 -0.004727222 -0.18522218
0.23352754 0.0232871 0.28878912 0.12876919 0.10416684 0.17921402 -0.23942746 0.0097043235
0.032740172 0.13942678 -0.19320104 0.07292038 0.06881909 0.006423172 -0.042547192 0.06712024
-0.16494386 0.020461153 0.15888298 0.14232884 0.03509056 0.060660552 0.14627133 -0.1697028
0.1339847 0.15636763 -0.0986783 0.22047172 0.17772566 0.25768027 -0.10928267 0.022541728
0.22442411 -0.041619863 0.019248845 -0.027322609 -0.17303522 0.042697564 0.07997534 0.016273031
0.020143226 0.077155404 0.0184986 -0.16115111 -0.05870639 0.119810544 0.058762375 -0.0024641939
0.053009633 -0.029258458 -0.045954704 0.03106406 -0.03653514 -0.15293539 0.05291169 0.20064388
-0.34144104 0.07615503 -0.2705996 -0.055473533 0.0402116 -0.19507478 -0.3176027 -0.07314752
0.19068094 0.09658268 0.16657588 -0.24849421 -0.1912783 0.07472774 -0.22681843 -0.021411365
0.13880265 -0.094878495 0.009146527 -0.026742624 -0.11161309 0.05137368 0.06360547 -0.1368025

StatefulPartitionedCall/sequential_1/dense_6/BiasAdd/ReadVariableOp:0 f4 [64]
00000000: 7ad1 b33b 9285 583d 8b17 a13c d6a6 6f3d
00000010: 0c65 95bc fcc5 2fbd 5403 3f3d 6875 63bd
00000020: 5e2d aa3d c043 35bc bb4a abbc d529 1d3c
00000030: 621b 403d 0336 9f3c 608c 3ebb 7f80 82bd
00000040: 27a8 8a3d 7cb4 e73c d554 39bd d411 123c
00000050: f400 a1bb 68a8 47bc 5ceb 92bb 0084 a53c
00000060: 5c53 6f3d 5833 cebc de30 5c3c 1206 5839
00000070: a715 e23b 0335 1f3d b349 4dbc 94cf 04bd
00000080: 3b4f d7ba 9784 d33c f716 1d3c e7a0 7f3d
00000090: 36a5 d9bc f5b0 9c3d 1593 7c3b c669 d6bc
000000a0: b601 fcbc 5239 c1bb 7246 653b fec4 03bd
000000b0: 6e9c 243d db36 92ba b753 8b3c 3a76 ceb9
000000c0: 7920 98bc 167e d53c 7623 513d b179 323d
000000d0: 49e5 953d 5af4 0b3d 3e68 31bb 216d e1bc
000000e0: 94cc 9e3d 5643 7ebb 7e1b 303d 0187 41bc
000000f0: 94d3 f5bc d44e b33d c1d9 3b3c 8106 57bb
0.005487618 0.052861758 0.019664546 0.058508717 -0.01823666 -0.042913422 0.046634033 -0.05553189
0.08309434 -0.011063516 -0.020909658 0.009592493 0.046901114 0.019434934 -0.002907537 -0.06372165
0.06770354 0.028284304 -0.045246918 0.008915383 -0.0049134437 -0.012186147 -0.0044836234 0.020204544
0.058429107 -0.025170967 0.013439385 0.00020601627 0.006899554 0.038868915 -0.012529778 -0.032424524
-0.0016426811 0.02582006 0.009587995 0.062409308 -0.026568037 0.076509394 0.0038539816 -0.026173484
-0.030762535 -0.0058967257 0.0034984616 -0.03217029 0.040188245 -0.0011155264 0.017007692 -0.00039379467
-0.018570172 0.026061099 0.05105921 0.043573085 0.07319123 0.03416858 -0.002707019 -0.027517857
0.07753864 -0.003879746 0.04299497 -0.011811973 -0.030008115 0.0875527 0.011465491 -0.0032810273

StatefulPartitionedCall/sequential_1/dense_5/MatMul/ReadVariableOp:0 f4 [64, 64]
00000000: f7c2 44bd 9392 6bbd a563 103e 0292 423e
00000010: a81c 4a3e 7ea3 403e c989 43be dc0b 66bd
00000020: 90ee f33d 8236 d3bd 3bbe d5bc c100 b73d
00000030: 1564 8f3d c7f5 95bd 7a77 1e3e 946f f9bb
00000040: 26d4 20bd cdef 3fbe 5cb0 2dbe 0fae 233e
00000050: bdf3 8c3e f7cd 26bd 84f3 f53d 593f da3d
00000060: fa2f 10be 2c06 1fbe 84d3 40be cfa5 0e3e
00000070: 8e72 d53d 476f 623e 91e0 863d c428 473e
00000080: bbd6 73bd 7ae0 14be 6ff7 5c3d 07ed dfbd
00000090: 642e 833d 5e25 2d3e bb54 633d 4893 053e
000000a0: 41d8 82be 14c4 52be 7276 21bd 6358 793e
000000b0: 964c 45be 7310 0fbd 41ad e83c bd7d 383e
000000c0: 246f abbc 8606 173e 5616 e4bd 80c5 083e
000000d0: f4e1 453e 1b3f d63d 028c 89bd d79d 3dbe
000000e0: 815b cfbd 7aff c73d f4e0 93bd 9c8c 4a3e
000000f0: b310 4a3d d828 ecbd 569c 583e faee 03bc
00000100: 5463 27be 9a83 dfbd b153 8abe 504e 2cbe
00000110: fb65 373d ee00 44bd 0a0d 74bc efc8 adbd
00000120: a107 00be 30b7 26be 012c c83c 32d9 26bc
00000130: b231 173d 1d5a 913d ed1f 073e f348 44bd
00000140: d0be cabd 7431 47be 373b 03bb beff 3abe
00000150: 8c1e 63bd e410 67be 624c 18be 7cf3 893d
00000160: 8866 35be 283e 2cbe 78a2 33be 96bc 7fbc
00000170: b0d6 f93b ddd4 36be 4bc3 5dbe d60f 9ebe
00000180: 1eb5 47be 0f24 85be fa35 b73c c590 83be
00000190: 88ac 16ba f9f0 2a3d 9319 e1bd ea7d 7cbd
000001a0: 90e8 b53d 5858 153e f971 ebbd c211 993c
000001b0: 0686 7a3d 8360 14be 98a9 d8bd c9c8 cdbd
000001c0: 533b 103e 9bca 46be 981f 843d a93a 293e
000001d0: 513f 0d3e dd1c 713d beb7 0abe 978c a7be
000001e0: fdce ce3b 7b50 d7bd d0f3 90be e4c4 e23a
000001f0: 8088 79bd 37b8 383d fafb d43d 8879 4c3d
00000200: 826a 973e 19b9 0abe 6e7e 3abe 420e 41be
00000210: 9bd6 70bd 2abb 06be 59fd 1d3e ebdf 763e
00000220: 22b5 55bd 9eaf 16be 91b3 b4bc 82c2 263e
00000230: a788 89be 0eee a8be 3d00 963e d430 7f3e
00000240: 3edc 323d f83a eb3d ea84 0dbf 6c31 eb3d
00000250: db62 50be 59ea ac3d 9c18 993e e047 b43d
00000260: 42e3 4dbd 4fe6 463e 6e15 afbc f239 c8bd
00000270: 4afe 31be 81b4 d1bd c429 b83c fb12 3f3d
00000280: 693c 133e 6812 15bf f3ae 533e 01dd b53d
00000290: 64dd 5bbe 932d a13d 48bc df3d 178e 3f3d
000002a0: d677 333e 50a6 bc3d 132e 613e 0217 4a3e
000002b0: 5431 553d 00dd 47be 043e febc 04bb 073e
000002c0: 8348 5cbd 25ad d73d efd1 253e 4827 1fbe
000002d0: ebab d0bd 1248 073a 191f 60bd e030 143e
000002e0: 3017 f6bd 8c33 653d b1d3 6cbe c2e4 763d
000002f0: 8748 1cbe f8b9 26be 23d2 213e 5dff 4a3e
00000300: c483 4b3e fe51 d53c 0800 533e d778 21be
00000310: 54dd 11be d70c 02bc b2a2 87bd 6323 203e
00000320: 036e 053e 27f0 6cbe 5d03 cc3b a1ed 9f3b
00000330: 212e 11be 0ebd acbc dd80 bdbd 7db3 18be
00000340: 5391 b8bc fa41 883d 47c2 71bd 1212 b6bd
00000350: 80f9 cebd 5964 ccbd d33f ad3d bb71 4e3e
00000360: c647 0b3e 61d7 35be 3d3e 38be 92e8 3c3e
00000370: bc9a 98bd c093 013e 10be 293e 7aec 5bbe
00000380: 97ba 49be 12ef 1bbe 796d a3bd f6ac 863d
00000390: 1d59 6abe 196d 453e 951e 3c3e 1ef0 8bbc
000003a0: 3b83 c03c 1ba6 d3bd 32a6 b43c 1f51 0c3e
000003b0: 09e6 923d ed39 b6bd 5626 1cbd 4783 1f3d
000003c0: b4a3 d0bd 35b6 77be d026 3cbd 0135 88bd
000003d0: 9ed6 063d 2a0a 1e3e f795 b33c 5504 0bbe
000003e0: b61a 423e a3b5 1ebd 9c2e e7be e3d8 8cbe
000003f0: b5e6 50be e97d 10bc 1d7d fa3c 0a6e 81be
-0.048037495 -0.05751283 0.14100511 0.1900101 0.19737494 0.18812367 -0.1909553 -0.056163654
0.119107366 -0.10313131 -0.026091686 0.08935691 0.07001511 -0.07322269 0.15475264 -0.007612178
-0.03926482 -0.1874382 -0.16961807 0.15984367 0.27529708 -0.040723767 0.120093375 0.10656614
-0.14080802 -0.15529698 -0.18830687 0.13930438 0.1042224 0.22112761 0.065858014 0.19449145
-0.059530955 -0.14538756 0.05394691 -0.10933881 0.06405333 0.16908786 0.055500727 0.13044465
-0.25555614 -0.2058261 -0.0394196 0.24350123 -0.19267496 -0.034927797 0.028402926 0.18016715
-0.02092702 0.14748582 -0.11137073 0.1335659 0.19324476 0.10461255 -0.067161575 -0.18517242
-0.10124875 0.09765525 -0.07220641 0.197802 0.049332332 -0.11531228 0.21153387 -0.008052582
-0.16346484 -0.10913773 -0.27016976 -0.16826749 0.04477499 -0.04785245 -0.014895687 -0.08485591
-0.1250291 -0.16280818 0.024435045 -0.010183619 0.036912628 0.07097266 0.13195772 -0.047921132
-0.09899676 -0.19452459 -0.0020024308 -0.1826162 -0.055449054 -0.22565037 -0.14872888 0.06735894
-0.17714894 -0.16820586 -0.17542446 -0.015608927 0.0076244697 -0.17854638 -0.2165653 -0.30871457
-0.19502684 -0.26004073 0.022364605 -0.25696388 -0.0005747755 0.041733716 -0.10991206 -0.06164352
0.088822484 0.14584482 -0.11496348 0.018685225 0.06116297 -0.14489941 -0.105792224 -0.10048062
0.1408513 -0.19413225 0.064513385 0.16526283 0.13793685 0.058865417 -0.13546655 -0.3272445
0.006311296 -0.10513397 -0.28311014 0.001730111 -0.060921192 0.045097556 0.10399623 0.04992059
0.29573447 -0.13547172 -0.18212292 -0.18853095 -0.058798414 -0.13157335 0.15428676 0.24108855
-0.052174695 -0.1471543 -0.02205828 0.16285136 -0.2686207 -0.3299412 0.29297057 0.2492097
0.04366707 0.11485857 -0.55280936 0.11484036 -0.2035021 0.08443136 0.29901588 0.088027716
-0.050265558 0.19423793 -0.021372523 -0.09776677 -0.1738216 -0.102395065 0.022480853 0.04664896
0.14378513 -0.5823121 0.20672207 0.08880044 -0.21471173 0.07870021 0.10924584 0.046766367
0.17526183 0.09211409 0.21990232 0.1973534 0.052048996 -0.19517899 -0.03103543 0.13254935
-0.05378009 0.105310716 0.16193365 -0.15542328 -0.10189041 0.00051605806 -0.054717157 0.1447177
-0.120161414 0.055957362 -0.23127629 0.060276754 -0.15262042 -0.16281879 0.15802817 0.19823976
0.19874483 0.026040073 0.2060548 -0.15768753 -0.14244586 -0.007937632 -0.066228285 0.15638499
0.13030247 -0.23138486 0.006225987 0.0048806225 -0.14177753 -0.021086242 -0.09253094 -0.1491222
-0.022530233 0.06653209 -0.059023168 -0.088901654 -0.10106182 -0.09980077 0.08459439 0.20160572
0.13601598 -0.17757942 -0.17992492 0.18448094 -0.07451388 0.12654018 0.1657641 -0.21476927
-0.19700085 -0.15227917 -0.079798646 0.065759584 -0.22885557 0.19279899 0.18371041 -0.01708227
0.023500076 -0.103344165 0.022051904 0.1370282 0.07172782 -0.08897767 -0.038122497 0.038943555
-0.10187474 -0.241906 -0.045935452 -0.06650735 0.03291952 0.15433565 0.021922095 -0.13575871
0.18955502 -0.03874744 -0.45152748 -0.2750922 -0.20400508 -0.008819082 0.030577237 -0.25279266

StatefulPartitionedCall/sequential_1/dense_5/BiasAdd/ReadVariableOp:0 f4 [64]
00000000: dc7d 703d 5a35 3a3d a0ea 803d cccf f73c
00000010: f993 2ebc df94 c83b 5241 be3d 969c 093d
00000020: 921d 90bc 7a68 00bb 3627 4a3d d784 083c
00000030: 04fb 02bd 03ee 5abd 0560 ae3c d632 163a
00000040: e060 cc3c cb9e 913c b9b9 0e3d 90de 963d
00000050: 025d 4f3d 732b 0e3d 35b4 87bc 8503 8d3d
00000060: 36a7 0f3c ad66 08bd 5bfa 88bd b393 7dbc
00000070: e495 ae3c 5de9 b0bc 71e5 263c 454b 463c
00000080: d1eb 0a3d c28d 06bd 0411 553d 2c1d 493d
00000090: db7e 903d 0642 9fbc c586 71bc d840 473d
000000a0: 6caf 863b 8605 81bd d097 d9bb b818 233d
000000b0: 0286 fa3a 35b7 863b 37e7 c23c 6f50 333b
000000c0: 8bd0 2cbd 1726 e83a 55b3 423b bf62 88bd
000000d0: 757e 9fbc e250 1bbc 9980 4bbd 4a78 373d
000000e0: 1c7f 5f3c 05a4 143c 0618 0b3d df46 44bd
000000f0: f0f2 97bc 429e cbbb 1bd4 f63c 304e b2bb
0.05871378 0.045461036 0.06294751 0.030250452 -0.010655397 0.0061212624 0.092898026 0.033596598
-0.017592225 -0.0019593523 0.0493538 0.008332453 -0.03197767 -0.053449642 0.02128602 0.0005729621
0.024948537 0.017775914 0.034845088 0.07366669 0.05062581 0.034709405 -0.016565422 0.06885437
0.008767894 -0.033301044 -0.066883765 -0.015477109 0.021311708 -0.021595651 0.010186539 0.012102907
0.0339163 -0.032850035 0.05201818 0.049100086 0.07055446 -0.019440662 -0.014741604 0.048645824
0.0041102674 -0.06299882 -0.006640412 0.039818496 0.0019113424 0.0041111954 0.023791892 0.0027361175
-0.04219107 0.0017711547 0.002970894 -0.06659459 -0.01946948 -0.009479733 -0.049683187 0.04479245
0.013641145 0.009072308 0.033958457 -0.04791915 -0.018548459 -0.006213934 0.030130437 -0.0054414496

StatefulPartitionedCall/sequential_1/dense_4/MatMul/ReadVariableOp:0 f4 [11, 64]
00000000: 79c0 47be f17e 1a3e 3a18 f2bc eb63 973d
00000010: 0311 283e 6349 963d f860 133d 1d3b 82be
00000020: bf4f 923e d2b6 313e 94df 853e 11ab d1be
00000030: 3a93 49be 54bf b0bc cd72 5bbd 541d 643e
00000040: 7d43 2d3e 046d 4bbd a8af 4ebe 5f90 62be
00000050: 5056 583e 5eb3 7b3c f0f1 dc3c 8ed8 65be
00000060: 6efe 5c3e 4640 28be 0c97 5d3e b8b6 94bd
00000070: 879c 8c3e bc57 00be d5d0 2f3e 6105 e03d
00000080: 81bc 323e 691e e4bc 531f 6e3e 6d20 8e3e
00000090: 70d7 55be 0339 dbbd 4340 85be 4211 b0bd
000000a0: f9ab 8dbe 359a 243e 5ad2 f63d 1e11 4ebe
000000b0: 27da 813e e0e1 dc3d 5e4e 14be 3e1f a1bd
000000c0: fe05 163d 1ece 03be 9ee6 aabe 567a 333e
000000d0: dd46 2fbe 4ad2 a03e b286 a63c 51a1 a7bc
000000e0: e016 42bb 9a40 113c 95ea ba3d 51e3 473e
000000f0: 6dd8 093e d838 d8bc 1a43 953d 530c c8bd
00000100: a292 10be 59e2 653e f8aa cf3e 0a57 043d
00000110: f135 19bd 5a64 c53e 5356 20be 1e53 bf3e
00000120: 3ed9 8fbe 819e c4bc 30e6 b93e 7b71 a53e
00000130: a0e7 b1be ca74 6b3e 317d f0ba 0862 733e
00000140: 523d 4a3d 4d14 783e ff4f d03d be3a 853e
00000150: cde4 3ebe 6a9a 7c3c 1a53 143e 4562 b7be
00000160: 677d ba3e 64a4 b43d a647 4b3e 1cdb a0bd
00000170: 6f7d ac3e 7830 543e dc73 48bd 8e2b b0bc
00000180: 8174 77be 8d70 b8be 7c5f a03e 62d1 c9be
00000190: 9475 763e 2f32 66bd 8bf1 19be 30d1 993e
000001a0: 1d79 303e 8698 7c3c cda4 223d c990 32be
000001b0: 57e7 8a3e ef5e 69be 5909 113d 776c 7cbe
000001c0: 71a8 413d 17b2 0f3e ec41 933b cc67 2f3e
000001d0: 269c b23b 3e15 dc3d 5b43 0abe 693f 993e
000001e0: eb2b 803d b962 513e 9036 e93c c0cc 323e
000001f0: 1a2d f03d 209a 283e 870d 0bbe 6f63 ffbd
00000200: 830e 29be 211a 913c 5e24 f0bd deed 81bd
00000210: e760 7d3e 66c3 10be 4c5d 1a3e 569f ccbd
00000220: 51a4 743d ab87 6c3d d44e 503e ee78 fbbd
00000230: 0146 ac3d cd2b a3bd ee4e 96be f866 e2bd
00000240: f2e6 79be cfed 6d3d df71 6f3e 18de 5a3d
00000250: ab5a 6b3e ef11 4fbd 62f7 acbd 9fbc fbbd
00000260: 9dd3 2fbd b384 a73d 0a26 1fbe cde5 5dbe
00000270: d8ef 103e 1981 163e 83af 8fbe ac70 01bd
00000280: baaa 7dbe a363 803d 1d1a 47bd 5f26 d3bd
00000290: 9021 193b 1773 3cbe 3da8 f03d 8f79 ac3d
000002a0: 72ab 42be fd82 92bd ea4e 89bc ba93 1f3d
000002b0: 07c8 983e 09c9 e4bd 5f94 2f3d e9eb a1be
000002c0: 86ec 293e 0365 3d3e e49b 673e e385 3abe
000002d0: 889a 353e 4a53 3abe 32e9 253e de84 10be
000002e0: 1a1d 513e 2cf5 03be 7e4d 653e 4c41 1f3d
000002f0: 5d5a 5abe e64b 69be a49c 9f3e 2171 e3bd
00000300: ca3c 4fbe 35fa cebd 55f8 3fbd 2786 243e
00000310: 1578 39be c96f 81be f010 1bbe 7f03 043e
00000320: 8af9 66be 22ec 8abe 0553 4cbe cb26 a73e
00000330: 4d23 6cbe b0c3 f6bd fb87 2fbe 2d7c 50be
00000340: 04a3 793e d09c 293e f8e5 573e 79b1 75be
00000350: ee22 793e 07bd 553e d214 11be a46d fabd
00000360: 61a7 5bbe bf98 38be f94e 3d3e d3f7 663e
00000370: 98f4 c23c 505f e0bd a5c3 4d3e 7f8f a1be
00000380: bac3 4d3e 2ebb dfbd d4b8 c43c e86e 2b3e
00000390: f3ef 013e 6197 1b3e 4296 213e 7870 753e
000003a0: 590f 993e aa61 33be 972b 32be 6cde 7dbd
000003b0: 875b 7b3e 6b98 3fbe c1e0 8d3e bacb 583e
000003c0: a9e6 1f3e a7c2 1bbe c011 86be 66be 693e
000003d0: a756 0f3e 1197 5e3e 0c4b 8e3e 8496 00be
000003e0: bcec 97bd c170 bf3e d576 c7bc 16e0 843e
000003f0: 43c2 dcbd 3a80 94bd 46d1 903e 5d72 303e
-0.19507016 0.15087487 -0.029552568 0.07392105 0.1641274 0.07338216 0.03598115 -0.25435725
0.28576466 0.17354897 0.2614714 -0.40950826 -0.19685069 -0.021575607 -0.05357628 0.22276813
0.16920276 -0.049664512 -0.20184195 -0.22125386 0.21126676 0.015362589 0.026970834 -0.2244589
0.21581432 -0.16430768 0.21639651 -0.07261413 0.2746317 -0.12533468 0.17169507 0.10938526
0.17454721 -0.027846532 0.23254137 0.27759114 -0.20882964 -0.107042335 -0.2602559 -0.08597042
-0.27670267 0.1607445 0.1205184 -0.20123717 0.2536175 0.1078527 -0.1448302 -0.07867287
0.03662681 -0.12871596 -0.33379072 0.17527136 -0.17116876 0.31410438 0.0203279 -0.020462664
-0.0029615685 0.0088655 0.09126774 0.19520308 0.13461466 -0.026394293 0.07288189 -0.09767976
-0.14118436 0.22449626 0.40560126 0.03230957 -0.03740496 0.38553125 -0.1565793 0.373681
-0.2809543 -0.024001362 0.36308432 0.3231314 -0.34747028 0.2299377 -0.0018347857 0.23767865
0.049374886 0.24226494 0.10171508 0.2602138 -0.18641968 0.015417675 0.14484826 -0.3581716
0.364238 0.088204175 0.1985155 -0.07854292 0.33689448 0.20721614 -0.048938617 -0.021505143
-0.24165536 -0.3602337 0.3132285 -0.3941756 0.2406829 -0.056200203 -0.15033548 0.3004241
0.17233701 0.015417224 0.039707948 -0.17438044 0.27129623 -0.2279012 0.035409305 -0.24650751
0.04727978 0.1403278 0.0044939425 0.17129439 0.0054507433 0.10746239 -0.13502257 0.2993119
0.06258377 0.20447816 0.0284684 0.17460918 0.117273524 0.16465044 -0.13579379 -0.12470137
-0.16509442 0.017712655 -0.117256865 -0.06344198 0.24743997 -0.14137039 0.15074652 -0.099913284
0.059727017 0.05774657 0.2034257 -0.12278925 0.0841179 -0.07967339 -0.29357094 -0.11054796
-0.24404505 0.05808812 0.23383282 0.05343446 0.22983806 -0.050554212 -0.08445622 -0.12291836
-0.04292642 0.08179607 -0.15541855 -0.21669693 0.14153993 0.14697684 -0.28063592 -0.031601593
-0.24772158 0.06269004 -0.048608888 -0.10310053 0.0023365952 -0.18403278 0.11750839 0.08421623
-0.19010714 -0.0715389 -0.016761262 0.038959242 0.2984011 -0.11171157 0.042866107 -0.31625298
0.16594133 0.18495564 0.22618061 -0.18215136 0.1773473 -0.18195835 0.16202238 -0.14113185
0.20421258 -0.12886494 0.22392842 0.03888063 -0.21323533 -0.22782859 0.31174195 -0.11105562
-0.20238033 -0.10106317 -0.046867687 0.160668 -0.18112214 -0.25280598 -0.1514318 0.12891959
-0.22556129 -0.2713328 -0.19953544 0.32646784 -0.23060341 -0.12049043 -0.17141716 -0.2035987
0.24378592 0.16563725 0.2108382 -0.23993482 0.24329731 0.2087289 -0.14168099 -0.122279435
-0.21450569 -0.18027018 0.18487157 0.22555475 0.023798272 -0.109556794 0.20094164 -0.3155479
0.20094195 -0.109243736 0.024013914 0.16741526 0.1268919 0.15194465 0.15779975 0.23968685
0.29894522 -0.17517725 -0.1739944 -0.061979696 0.24546634 -0.18710487 0.27710536 0.21171466
0.15615334 -0.15210973 -0.26185417 0.22826537 0.13997899 0.21737315 0.2779163 -0.12557417
-0.074182004 0.37390712 -0.024348656 0.25952214 -0.1077924 -0.0725102 0.28284663 0.17231126

StatefulPartitionedCall/sequential_1/dense_4/BiasAdd/ReadVariableOp:0 f4 [64]
00000000: 5e20 813d d56d 86bc 5f8c ce3d 7481 2abd
00000010: 6946 dbbd d92a 40bd 75e8 93bd 182d 09bd
00000020: e4d5 54bd ee54 f43c b11a 9bbc 3f72 093e
00000030: 8e9c 32bd 80ea c5bc f12b 5d3d e491 c63c
00000040: b0cc 343d 8575 6f3c 088a b53b 0818 dc3c
00000050: 6853 973c b729 99bd 008e 533d c77c cabc
00000060: 3147 bfbd edf5 a03c 0331 ccbd 94e2 b1bd
00000070: 5b01 febc afbc dfbc f9ad 5e3d 1f9e 09bb
00000080: 75f8 423d 4c5b 793d 2689 b23d 606d 2abe
00000090: cd52 1bbd d38d ca3c c3c7 193c 7481 23bd
000000a0: d36f 71bd 8bac 453d 9ea4 09bc 3ae6 91bd
000000b0: dff3 88bd d0fb 86bd abd9 3bbd 90e3 f33c
000000c0: 3eb2 033e 69f7 c2bd 0df1 2ebc 5f09 a23d
000000d0: 1a94 a93d a4fe b1bc c1a9 3bbd b7f3 55bd
000000e0: be5e f5bc 7212 313d 1441 8a3c 901b a7bc
000000f0: 73f2 e2bc b1d9 86bd 5037 a0bd 74b7 b63d
0.06305002 -0.016409794 0.100853674 -0.041627362 -0.10706789 -0.046915863 -0.07222072 -0.03349027
-0.051961794 0.029825654 -0.018933626 0.13422488 -0.043606333 -0.02415967 0.053996984 0.024239488
0.044140518 0.014615421 0.0055401362 0.026866928 0.018472388 -0.074786596 0.051649094 -0.024717702
-0.093397506 0.019648517 -0.09970286 -0.086857945 -0.031006506 -0.027311651 0.054365132 -0.0020998789
0.04760023 0.060878083 0.08717565 -0.16643286 -0.03792076 0.02472583 0.009386006 -0.039918378
-0.058944535 0.048260253 -0.008401064 -0.0712399 -0.0668714 -0.06590998 -0.04586188 0.029771596
0.12860963 -0.09519846 -0.010677588 0.07911944 0.08280201 -0.021727867 -0.045816187 -0.052234378
-0.029952403 0.04323048 0.016876735 -0.020398885 -0.0277035 -0.0658449 -0.0782305 0.0892171

StatefulPartitionedCall/sequential_1/batch_normalization_1/batchnorm/sub:0 f4 [11]
00000000: c0de 18bf 90bb e7bf ef9b 21c0 891b 59c0
00000010: 2c98 d1bf fd42 65bf 5c01 11c0 cb82 fcc1
00000020: 217c 9abe 4639 9cc0 d926 d8bf
-0.5971489 -1.8104115 -2.5251424 -3.3923056 -1.6374564 -0.8955534 -2.265708 -31.563864
-0.30172828 -4.8819914 -1.6886855

StatefulPartitionedCall/sequential_1/batch_normalization_1/batchnorm/mul:0 f4 [11]
00000000: 3efa d13f ca08 f136 39b3 903f 0bf6 6a40
00000010: 56bd 1e40 e593 1040 fec6 3140 72fb fc41
00000020: c96c 4240 a711 b639 1b78 383a
1.6404493 7.183383e-06 1.1304694 3.6712673 2.4803061 2.2590268 2.7777705 31.622776
3.0378897 0.00034726897 0.000703694
