resources/loan_model_alpha.onnx (onnx, 41562 bytes, 9 tensors)

StatefulPartitionedCall/sequential_3/dense_15/MatMul/ReadVariableOp:0 f4 [64, 1]
-0.21113479 0.19510803 -0.0041819266 -0.05699262 0.33889762 -0.3703581 0.29162604 -0.17239526
0.54165846 -0.21414594 -0.15518282 -0.0024611214 -0.27188385 -0.21612853 0.4360149 0.24123482
-0.29100034 -0.12576418 -0.3262081 -0.12184517 -0.29199132 0.143786 0.37018725 0.11034102
-0.3552305 0.24855645 -0.4466333 0.0027789753 0.11707339 0.52797794 0.1872405 -0.2877817
-0.2890187 -0.23465179 0.16497199 0.15277566 -0.31253353 0.246285 -0.38763574 0.3313934
-0.21509823 -0.5180423 0.42178205 0.5895815 0.12127664 -0.25445762 0.18630882 -0.19772814
-0.13396052 -0.23165081 -0.32773104 -0.50747776 -0.19576605 0.2694613 -0.18742795 0.38990054
0.29679838 0.064448364 0.21378733 0.36770603 -0.034901373 0.4746207 0.5231227 -0.033838365
00000000: b833 58be 66ca 473e 8b08 89bb 1871 69bd
00000010: fd83 ad3e 949f bdbe 0250 953e 6288 30be
00000020: 21aa 0a3f 1349 5bbe 3fe8 1ebe c44a 21bb
00000030: 5c34 8bbe cc50 5dbe 583d df3e 4306 773e
00000040: fffd 94be 53c8 00be c004 a7be f689 f9bd
00000050: e37f 95be a33c 133e 2f89 bd3e 79fa e13d
00000060: c6e0 b5be 9585 7e3e 1fad e4be 781f 363b
00000070: 2cc4 ef3d 9029 073f f9bb 3f3e 1f58 93be
00000080: 42fa 93be 8f48 70be 6bee 283e 3971 1c3e
00000090: 6504 a0be 2332 7c3e 3178 c6be 65ac a93e
000000a0: b642 5cbe 6c9e 04bf d1f3 d73e d0ee 163f
000000b0: e35f f83d 4548 82be bdc7 3e3e 3f79 4abe
000000c0: f22c 09be df35 6dbe 5dcc a7be 10ea 01bf
000000d0: e576 48be d5f6 893e 1ded 3fbe 0ba1 c73e
000000e0: f5f5 973e 81fd 833d 11eb 5a3e f743 bc3e
000000f0: bef4 0ebd 7c01 f33e 5feb 053f 199a 0abd

StatefulPartitionedCall/sequential_3/dense_14/MatMul/ReadVariableOp:0 f4 [64, 64]
0.088103 -0.21799092 0.17386092 0.20883437 0.08370871 -0.10800824 0.13181035 -0.16980992
-0.013398163 -0.029377112 0.022053372 -0.24978177 0.21866539 0.18831858 -0.06316949 -0.17103335
0.21919025 0.17243567 -0.02059665 0.20774832 0.09017708 -0.1097939 -0.0041958964 0.17368512
0.07157731 0.079580136 0.0849221 0.08403683 -0.08863993 0.18181941 -0.28930312 0.045396667
0.047696255 0.10474449 -0.02845964 -0.037612557 0.035416197 0.09675991 0.041893285 -0.0022578107
-0.05240057 -0.12397993 -0.19138314 0.12915471 -0.11556273 -0.15758307 0.09764726 -0.097969696
-0.15699388 -0.2159121 0.14164186 -0.06626516 0.12347835 0.017238107 0.093884245 0.00088139885
-0.091958836 0.08981954 0.15761629 -0.03145828 -0.195057 -0.08858372 0.03610746 0.14830658
-0.06686653 -0.071658224 0.033169255 0.17802753 0.051672067 -0.0329767 0.19709209 0.21693408
0.017320165 -0.11179007 0.051435612 -0.18351193 0.023193873 0.16513765 0.090441845 -0.08950177
0.0716108 -0.093509935 0.062023073 0.18416877 0.01722652 0.06007669 0.0058538257 -0.08533555
-0.2002539 0.029070182 0.1841089 -0.0068978146 0.10886508 -0.07189637 -0.11611323 0.07654714
0.08941348 -0.053510997 -0.009188113 -0.28855968 0.21583098 -0.09695437 0.28024873 -0.13116759
0.14294425 -0.20774668 0.11787569 -0.2833446 -0.055672638 0.03577443 0.055793 -0.17809068
-0.11114338 0.06281189 -0.12460095 0.031128723 -0.17414737 -0.23914541 0.032231633 -0.26176634
0.08464784 -0.07332136 -0.2732402 -0.08812317 -0.07366429 -0.049943168 -0.33650878 -0.13914503
0.01143295 0.312026 -0.19602743 -0.050060797 0.20990105 0.08119093 -0.07474513 0.04398673
0.19034916 0.15702964 -0.22397353 -0.19191866 0.021424524 -0.297276 0.35994744 0.14241137
-0.10872726 -0.05073334 0.058716543 -0.16759074 -0.05039523 0.31620792 0.37535954 -0.0720766
-0.0776109 0.18472444 0.01617216 0.13326718 0.4153596 0.31875932 0.32155645 -0.057036422
-0.004946898 -0.29837972 0.17588378 0.32157305 -0.2638156 0.15257336 -0.25344595 0.27573532
-0.083162144 -0.21665478 0.16973236 0.35668305 0.30545974 -0.18382196 0.10103561 0.1394206
-0.27234945 -0.09179725 0.13802655 -0.27748042 -0.09494496 0.0030983519 -0.11328204 0.3832716
0.31582838 0.1510038 -0.0027119236 -0.0021401495 0.024843603 -0.1887871 0.46089858 -0.118231945
0.27067667 -0.13829131 0.09329378 0.103040166 -0.061360937 0.16932587 0.07153449 0.07234703
-0.16921213 -0.13978271 -0.16234103 -0.23435155 0.15544277 0.16043118 -0.12105551 0.19279464
0.051508136 -0.11007968 0.17347255 0.06137743 -0.16818625 0.1663835 0.11672113 0.1863467
0.0769019 0.22152829 -0.2019201 -0.020914061 -0.07378737 0.1185005 0.21530887 -0.015901431
0.23090662 -0.10950076 -0.042631898 0.016248535 0.06260067 -0.008708549 -0.20433007 0.14285477
-0.057703804 0.26854658 0.03851483 0.076558776 -0.1632311 -0.20722397 -0.1717994 0.08466504
-0.13475169 0.004838363 0.091803595 -0.09919497 0.07789722 0.15716307 0.18928617 0.0559232
-0.04274748 -0.040462997 -0.061931983 -0.10609933 -0.06982473 0.19704744 -0.2734701 0.10558696
00000000: 586f b43d 0339 5fbe 9908 323e add8 553e
00000010: 796f ab3d 6d33 ddbd 4bf9 063e a7e2 2dbe
00000020: f883 5bbc 45a8 f0bc 46a9 b43c cbc6 7fbe
00000030: d2e9 5f3e 96d6 403e 015f 81bd 5e23 2fbe
00000040: 6973 603e fa92 303e 4eba a8bc fabb 543e
00000050: c3ae b83d a0db e0bd bb7d 89bb 83da 313e
00000060: 2097 923d e9fa a23d a3eb ad3d 801b ac3d
00000070: da88 b5bd de2e 3a3e 8a1f 94be dbf1 393d
00000080: 265d 433d 4784 d63d 3124 e9bc a00f 1abd
00000090: 9310 113d 0f2a c63d 4b98 2b3d c7f7 13bb
000000a0: fba1 56bd 31e9 fdbd f1f9 43be 2241 043e
000000b0: 27ac ecbd 755d 21be 49fb c73d 56a4 c8bd
000000c0: 01c3 20be 1018 5dbe 900a 113e 07b6 87bd
000000d0: 38e2 fc3d ee36 8d3c 6246 c03d ad0d 673a
000000e0: ea54 bcbd 4ff3 b73d 2a66 213e 66da 00bd
000000f0: 06bd 47be 626b b5bd 6ae5 133d aedd 173e
00000100: 52f1 88bd 8cc1 92bd 7cdc 073d d94c 363e
00000110: 17a6 533d 9412 07bd 82d2 493e f823 5e3e
00000120: 05e3 8d3c 31f2 e4bd 26ae 523d 8dea 3bbe
00000130: 1401 be3c d819 293e 9339 b93d b44c b7bd
00000140: afa8 923d 2382 bfbd e80b 7e3d bd96 3c3e
00000150: a21e 8d3c fa12 763d 73d1 bf3b 68c4 aebd
00000160: 5c0f 4dbe 9724 ee3c 0b87 3c3e 1007 e2bb
00000170: a8f4 de3d 673e 93bd c6cc edbd bfc4 9c3d
00000180: 6a1e b73d 592e 5bbd bd89 16bc 18be 93be
00000190: cc02 5d3e 0390 c6bd c37c 8f3e cc50 06be
000001a0: fa5f 123e 8cbb 54be cf68 f13d 8b12 91be
000001b0: fe08 64bd 3588 123d 3387 643d 675d 36be
000001c0: 249f e3bd 85a3 803d c82e ffbd aa01 ff3c
000001d0: b053 32be 89e2 74be 5105 043d 3d06 86be
000001e0: d95b ad3d 8229 96bd 24e6 8bbe ec79 b4bd
000001f0: 4edd 96bd 3591 4cbd e14a acbe 097c 0ebe
00000200: 4551 3b3c dfc1 9f3e 6abb 48be 8d0c 4dbd
00000210: 4df0 563e 6e47 a63d fa13 99bd 6e2b 343d
00000220: e4ea 423e 61cc 203e 5159 65be 5386 44be
00000230: 7c82 af3c 8f34 98be 084b b83e 49d4 113e
00000240: 66ac debd c3cd 4fbd c280 703d e89c 2bbe
00000250: 3b6b 4ebd 01e6 a13e 202f c03e e59c 93bd
00000260: 77f2 9ebd 6728 3d3e 7a7b 843c 3177 083e
00000270: 03aa d43e 6c34 a33e 0ca3 a43e 069f 69bd
00000280: 9719 a2bb 3ac5 98be e11a 343e 39a5 a43e
00000290: d712 87be 313c 1c3e abc3 81be 2e2d 8d3e
000002a0: ea50 aabd c0da 5dbe 52ce 2d3e 299f b63e
000002b0: 3865 9c3e d33b 3cbe c2eb ce3d 46c4 0e3e
000002c0: 6371 8bbe 3200 bcbd d556 0d3e ea11 8ebe
000002d0: 8172 c2bd b80d 4b3b 6a00 e8bd 2d3c c43e
000002e0: 42b4 a13e bda0 1a3e 87ba 31bb c041 0cbb
000002f0: d084 cb3c 6851 41be e6fa eb3e 9723 f2bd
00000300: 2296 8a3e 3d9c 0dbe cf10 bf3d b906 d33d
00000310: 9b55 7bbd c363 2d3e ad80 923d ae2a 943d
00000320: f245 2dbe 3323 0fbe ba3c 26be daf9 6fbe
00000330: 642c 1f3e 1248 243e f4eb f7bd f56b 453e
00000340: 32fa 523d 7571 e1bd caa2 313e e666 7b3d
00000350: 0439 2cbe 7060 2a3e 7d0b ef3d abd1 3e3e
00000360: be7e 9d3d 50d8 623e 25c4 4ebe f753 abbc
00000370: d51d 97bd 64b0 f23d ee79 5c3e b843 82bc
00000380: c972 6c3e ef41 e0bd c99e 2ebd a61b 853c
00000390: c834 803d 4dae 0ebc e73b 51be 8548 123e
000003a0: d35a 6cbd f07e 893e bac1 1d3d d9ca 9c3d
000003b0: 0e26 27be 8532 54be 2fec 2fbe dd64 ad3d
000003c0: 59fc 09be 218b 9e3b 8603 bc3d bc26 cbbd
000003d0: 9488 9f3d 5bef 203e 3cd4 413e ba0f 653d
000003e0: fb17 2fbd 87bc 25bd 64ac 7dbd 9b4a d9bd
000003f0: 4500 8fbd cec6 493e 4604 8cbe fa3d d83d

StatefulPartitionedCall/sequential_3/dense_14/BiasAdd/ReadVariableOp:0 f4 [64]
0.098100364 0.0047036745 -0.0040382985 -0.012320026 0.03232192 0.07492676 -0.033474024 0.112474866
-0.05904393 -0.043645114 -0.036503106 -0.029999606 0.06506308 0.08050511 0.01873545 0.018247752
0.07274954 0.06524104 0.0908699 0.03238185 0.047175005 -0.0040374566 -0.012639328 -0.0066539515
0.082423314 0.013307874 0.02529994 -0.040273257 -0.030314537 -0.027326439 -0.014607498 0.04003437
0.05035881 0.023665376 0.013036449 0.0011229358 -0.0880503 0.016482556 -0.003815439 0.0060707615
0.033824105 0.13925764 0.020961886 0.0035022323 -0.026498469 0.0024242406 -0.004990122 0.030319812
-0.046242926 0.0028695513 0.023107005 0.11068381 0.034066807 0.026595213 0.033312015 0.047382377
0.0055762767 -0.015697295 -0.025288453 0.0066041793 -0.060486913 0.011622987 0.019055877 0.056517903
00000000: d8e8 c83d 4821 9a3b b453 84bb efd9 49bc
00000010: fd63 043d 3373 993d 0f1c 09bd 3959 e63d
00000020: 0cd8 71bd 38c5 32bd 4884 15bd bcc1 f5bc
00000030: cb3f 853d dddf a43d 167b 993c 4f7c 953c
00000040: b6fd 943d 189d 853d 001a ba3d d5a2 043d
00000050: 943a 413d a44c 84bb 2f15 4fbc 6409 dabb
00000060: 8ecd a83d 4509 5a3c d241 cf3c 92f5 24bd
00000070: 3156 f8bc b2db dfbc 4a54 6fbc 14fb 233d
00000080: 0a45 4e3d e4dd c13c d596 553c 792f 933a
00000090: b753 b4bd 6d06 873c 720c 7abb 3ded c63b
000000a0: 258b 0a3d 8e99 0e3e 43b8 ab3c b585 653b
000000b0: 5113 d9bc 02e0 1e3b 2d84 a3bb 4161 f83c
000000c0: 3969 3dbd 150f 3c3b e74a bd3c 32ae e23d
000000d0: a389 0b3d 34de d93c 2e72 083d 0614 423d
000000e0: 33b9 b63b 9d97 80bc bb29 cfbc df67 d83b
000000f0: 20c1 77bd 576e 3e3c 121b 9c3c 517f 673d

StatefulPartitionedCall/sequential_3/dense_13/MatMul/ReadVariableOp:0 f4 [64, 64]
0.018727839 -0.29191738 0.1947195 0.09717625 0.16408958 -0.0987547 -0.038354088 -0.09655454
-0.1912557 0.11752989 0.31262127 -0.12144153 -0.1960332 -0.06423967 0.13549037 0.2699237
-0.17081054 0.061044283 -0.22463554 0.110955626 -0.32329935 0.25166214 -0.039475072 -0.06402406
-0.008491829 -0.07856676 -0.105667815 0.08969867 -0.20141947 0.17086402 -0.02395272 0.265289
0.094892524 -0.15460904 0.07363652 -0.08875756 0.2769749 -0.19156781 -0.058077417 -0.015791168
-0.2202749 -0.21052971 0.16152456 -0.23990822 -0.049069814 -0.15445888 0.1889234 -0.23815486
-0.15456024 -0.22851221 0.16225535 -0.11303759 0.03065433 0.14154622 0.092780575 -0.1402382
0.12238711 -0.13409549 -0.0018181957 -0.23631091 -0.015370336 -0.08419109 0.039971434 -0.29830867
-0.21614854 0.0013197872 0.08268307 0.07761553 0.030479386 0.11938605 0.17451666 -0.12375095
-0.18924126 0.18767546 0.094846234 0.06673557 0.10003077 0.030462986 -0.037561715 -0.09327371
-0.15245506 -0.15151964 0.030902866 -0.19750677 -0.03816077 0.16676186 -0.28861105 0.17956185
-0.1440088 -0.02304514 -0.24932437 -0.14180435 -0.104759075 0.19099295 0.18685524 -0.08720355
-0.054352526 0.15896173 -0.19679925 -0.0025642458 -0.01461668 -0.10755163 0.10852438 -0.26933768
-0.13566852 -0.06336164 -0.14594564 0.057894956 0.0021259792 0.094964735 -0.06782612 0.027704747
0.072850876 -0.05761541 0.031074218 0.036575716 -0.28113338 -0.117572635 -0.028479822 0.16109006
-0.20980108 0.05661874 -0.24573438 -0.1787131 -0.021692403 0.23658854 0.111885026 -0.21721293
-0.13398804 0.041582745 0.12346875 0.17020829 -0.38708845 0.16916232 -0.025814679 -0.10894958
-0.10632632 -0.012753159 0.2298595 0.045959156 0.17849249 -0.0135476915 -0.17634983 -0.04853471
0.020826109 -0.29894555 0.14342315 0.13627392 -0.30148706 -0.050517183 0.038800612 -0.10697748
-0.077212475 0.11518617 -0.13155046 -0.15326354 0.17887221 -0.06719472 0.011756424 -0.15393957
-0.14115952 -0.035013728 -0.03812473 -0.0939681 -0.10324464 -0.22465439 -0.031912412 -0.08975699
0.07200692 0.14096013 -0.07417526 -0.055219818 0.2820018 -0.0873203 -0.14308117 -0.050491147
-0.25411895 0.11627623 0.1242204 -0.29063115 0.035281103 -0.08969471 0.21564788 -0.16974796
0.24905623 -0.18180816 0.27566016 -0.14936547 0.12525338 -0.18514991 0.102253705 -0.13336122
0.13486242 -0.23854777 0.26030144 0.24642386 0.03902655 -0.21288736 -0.121413924 0.107436985
-0.07554134 -0.06436308 0.03600061 -0.10154917 -0.15142772 0.15149589 0.08253859 -0.09266282
0.03921403 -0.06443536 0.10368426 -0.016081396 0.0035250168 0.07293915 0.035390176 0.22798511
-0.15041214 -0.14131053 0.12230152 -0.081851706 0.07554235 0.21520902 -0.10590947 0.22813217
-0.1509734 0.1757108 0.18950704 0.20078747 0.20599347 -0.08644798 0.11164979 -0.020760454
-0.096864425 0.21695305 -0.058517907 -0.01736212 -0.20788115 -0.05306827 -0.3482521 0.2147528
0.20775157 -0.10979734 -0.0029480231 -0.11652145 -0.032183193 0.061151877 0.042604182 -0.27942026
0.030631544 -0.2243423 -0.0807501 -0.043113984 -0.05508721 -0.12920992 0.2164704 -0.025384251
00000000: 206b 993c 3276 95be 8c64 473e 5704 c73d
00000010: 1907 283e e73f cabd 2d19 1dbd 63be c5bd
00000020: 89d8 43be 83b3 f03d e50f a03e 56b6 f8bd
00000030: edbc 48be 1790 83bd fdbd 0a3e 7033 8a3e
00000040: f5e8 2ebe 9209 7a3d dc06 66be b43c e33d
00000050: 7e87 a5be dcd9 803e 9db0 21bd 0c1f 83bd
00000060: 5021 0bbc 9ce7 a0bd 5e68 d8bd f0b3 b73d
00000070: e840 4ebe faf6 2e3e 7f38 c4bc f6d3 873e
00000080: 0357 c23d d551 1ebe bece 963d 86c6 b5bd
00000090: a7cf 8d3e 5a2a 44be 96e2 6dbd 7b5c 81bc
000000a0: be8f 61be 1a95 57be b266 253e 80aa 75be
000000b0: 6efd 48bd 782a 1ebe 2375 413e dede 73be
000000c0: 0a45 1ebe 1bff 69be 4426 263e 4180 e7bd
000000d0: ca1e fb3c 7ef1 103e be03 be3d 9a9a 0fbe
000000e0: 18a6 fa3d 5450 09be 8650 eeba 7dfb 71be
000000f0: ddd3 7bbc 616c acbd 16b9 233d eabb 98be
00000100: 0b56 5dbe b6fc ac3a be55 a93d e4f4 9e3d
00000110: e8af f93c ac80 f43d 7fb4 323e 2371 fdbd
00000120: 76c8 41be ff2d 403e be3e c23d a9ac 883d
00000130: efdc cc3d 838d f93c 50da 19bd 4906 bfbd
00000140: 2e1d 1cbe f727 1bbe 0228 fd3c 373f 4abe
00000150: 784e 1cbd 9fc3 2a3e d4c4 93be 10df 373e
00000160: 0b77 13be 29c9 bcbc e34e 7fbe 2935 11be
00000170: ed8b d6bd a893 433e fb56 3f3e c697 b2bd
00000180: c1a0 5ebd ddc6 223e be85 49be e80c 28bb
00000190: cd7a 6fbc 0744 dcbd 0842 de3d a1e6 89be
000001a0: b0ec 0abe bfc3 81bd c672 15be 4323 6d3d
000001b0: 0354 0b3b df7c c23d 6ce8 8abd 11f5 e23c
000001c0: d732 953d 23fe 6bbd 5c8f fe3c 6bd0 153d
000001d0: b7f0 8fbe ecc9 f0bd 844e e9bc cbf4 243e
000001e0: 18d6 56be 0de9 673d cba1 7bbe 9100 37be
000001f0: 44b4 b1bc 4444 723e fa23 e53d 116d 5ebe
00000200: 2934 09be ab52 2a3d 2fdd fc3d 154b 2e3e
00000210: 7530 c6be e338 2d3e 4e79 d3bc f520 dfbd
00000220: 9dc1 d9bd a0f2 50bc 4a60 6b3e ab3f 3c3d
00000230: bcc6 363e 23f7 5dbc 0d95 34be 55cc 46bd
00000240: 849b aa3c 640f 99be 85dd 123e 648b 0b3e
00000250: 835c 9abe 1beb 4ebd 64ed 1e3d 0217 dbbd
00000260: 9321 9ebd bae6 eb3d 2ab5 06be 1ef1 1cbe
00000270: 472a 373e 639d 89bd 049e 403c 56a2 1dbe
00000280: 1f8c 10be 8e6a 0fbd ad28 1cbd 5972 c0bd
00000290: ed71 d3bd cd0b 66be 97b6 02bd 83d2 b7bd
000002a0: 5d78 933d da57 103e 33e9 97bd 2d2e 62bd
000002b0: 8a62 903e fcd4 b2bd df83 12be cecf 4ebd
000002c0: e11b 82be 3b22 ee3d 4467 fe3d 9bcd 94be
000002d0: eb82 103d dcb1 b7bd ccd2 5c3e 69d2 2dbe
000002e0: 9908 7f3e eb2b 3abe 5423 8d3e 43f3 18be
000002f0: 6c42 003e f097 3dbe 646a d13d d88f 08be
00000300: 6019 0a3e de45 74be 3b46 853e 8956 7c3e
00000310: 4eda 1f3d 25ff 59be dda7 f8bd ec07 dc3d
00000320: 6bb5 9abd cad0 83bd 6075 133d 03f9 cfbd
00000330: de0f 1bbe bd21 1b3e fe09 a93d 01c6 bdbd
00000340: e49e 203d b0f6 83bd 6a58 d43d 22bd 83bc
00000350: f803 673b 1f61 953d 4af5 103d ee74 693e
00000360: a405 1abe b5b3 10be 3879 fa3d dea1 a7bd
00000370: f3b5 9a3d c15f 5c3e 10e7 d8bd 7b9b 693e
00000380: c598 1abe 88ed 333e 220e 423e 3b9b 4d3e
00000390: f4ef 523e a30b b1bd a5a8 e43d d411 aabc
000003a0: db60 c6bd f128 5e3e 79b0 6fbd 013b 8ebc
000003b0: ccde 54be 1d5e 59bd 194e b2be 28e8 5b3e
000003c0: d4bc 543e 6edd e0bd 9f33 41bb cca2 eebd
000003d0: 86d2 03bd 647a 7a3d b981 2e3d 2c10 8fbe
000003e0: 01ef fa3c fdb9 65be 4f60 a5bd 4a98 30bd
000003f0: 20a3 61bd 9b4f 04be 6baa 5d3e a2f2 cfbc

StatefulPartitionedCall/sequential_3/dense_13/BiasAdd/ReadVariableOp:0 f4 [64]
0.012672485 -0.044048086 -0.0064156223 0.054058246 0.114882514 0.011648657 -0.013196697 -0.025145136
-0.044257358 0.07301398 0.043584518 0.0421991 0.0075867064 -0.020729205 0.0041366597 0.09131747
-0.024162635 -0.013399743 -0.037718244 -0.014122131 -0.035377115 0.0068914574 0.0032822494 0.12125963
0.03239286 0.049627267 -0.027744906 0.027095363 0.02079112 0.06138778 0.04593873 0.05267172
-0.0032820203 0.04048802 0.031319045 -0.030026592 0.035135712 -0.024665844 -0.0137085905 -0.051888276
-0.018468013 -0.071971685 0.016722916 -0.0055237673 0.039941996 -0.029230544 0.013562848 -0.010367039
-0.005516395 -0.0836308 0.00095247995 -0.029694598 -0.015761726 0.049799196 0.018601453 -0.017952774
0.012470412 0.035089348 0.043526854 -0.03401166 0.012335696 -0.02528242 0.10292685 -0.071725935
00000000: 41a0 4f3c c46b 34bd 243a d2bb 2e6c 5d3d
00000010: 8647 eb3d 02da 3e3c f636 58bc 2cfd cdbc
00000020: 3447 35bd 5b88 953d ae85 323d f7d8 2c3d
00000030: e899 f83b 4bd0 a9bc d18c 873b a704 bb3d
00000040: b8f0 c5bc 988a 5bbc 727e 1abd 8360 67bc
00000050: 98e7 10bd bcd1 e13b 021b 573b f856 f83d
00000060: 60ae 043d f645 4b3d 4949 e3bc 18f7 dd3c
00000070: 2452 aa3c c171 7b3d 402a 3c3d 4dbe 573d
00000080: 2a17 57bb c4d6 253d 6648 003d 54fa f5bc
00000090: 77ea 0f3d 0610 cabc ff99 60bc cd88 54bd
000000a0: 3b4a 97bc e465 93bd 7ffe 883c b800 b5bb
000000b0: 389a 233d e574 efbc b536 5e3c 83da 29bc
000000c0: e0c2 b4bb a046 abbd d9af 793a 1642 f3bc
000000d0: bc1e 81bc 3efa 4b3d 1362 983c b211 93bc
000000e0: b350 4c3c d9b9 0f3d 3749 323d cf4f 0bbd
000000f0: a91b 4a3c 141d cfbc 50cb d23d 0ce5 92bd

StatefulPartitionedCall/sequential_3/dense_12/MatMul/ReadVariableOp:0 f4 [11, 64]
0.014760214 -0.13589375 0.20296524 -0.22792274 -0.11833451 -0.26287642 0.10828409 0.28159347
-0.051776506 -0.08739365 0.22322956 0.08166392 -0.1632824 -0.036815714 -0.36886734 0.12107526
-0.079056576 0.33905756 -0.19141662 -0.21131402 0.1565215 0.111533344 0.14165571 0.26700115
0.07060447 0.3566657 0.009022607 -0.07478762 0.026880814 0.17113319 0.18523982 0.06540285
-0.26583555 -0.09819025 -0.2131182 0.18252671 0.24451306 0.2785065 0.18511935 0.21614301
0.073612 -0.16077332 0.17810617 0.13382764 0.03928755 -0.06458478 0.28154066 0.27821848
-0.15600492 -0.0064153364 0.20600916 0.2702568 -0.21853714 0.28391433 -0.33344 0.17608008
0.0020628436 -0.29871914 -0.17669457 0.2345377 -0.10189598 -0.010366563 0.24041429 0.17622238
-0.47989115 -0.012998271 0.19019844 -0.23696339 0.22655076 0.34407285 0.09343393 0.16703036
0.12784693 0.075644456 -0.054219704 -0.22817811 -0.25167373 -0.13026194 0.07654771 0.060594317
-0.32711533 0.12767504 0.1734405 -0.21294595 -0.21009892 -0.13023727 -0.11922202 -0.4017844
0.23702215 0.16662234 -0.40184462 -0.11400353 0.09428552 -0.15464792 0.005134942 0.11766762
-0.27445295 0.040506314 0.10777755 0.057742573 0.30812055 -0.15555291 -0.24695165 0.16216357
0.38209733 0.0015660294 0.043128677 -0.08979101 -0.022423632 0.08265228 0.11804684 0.20958196
0.16336404 0.13263024 0.04150571 0.32695475 -0.102567166 -0.44253585 -0.2765674 0.18546599
-0.26116285 0.04108127 0.17842671 -0.09448529 0.14648536 0.15782097 -0.18305428 0.15223192
-0.024109488 -0.121232145 0.05028612 0.10421868 -0.027495835 -0.14505358 0.048501387 -0.0029115186
-0.19300757 0.0031724032 -0.09859028 0.27623603 -0.22104073 -0.21174106 -0.19045942 -0.25660762
-0.28957808 -0.12476778 0.045939766 0.088442296 0.17455702 -0.040795248 -0.00031986603 0.121099815
0.1218548 -0.07263933 -0.15421075 -0.22826514 -0.119960494 -0.038636815 -0.050069604 -0.18956129
-0.21366541 -0.10646798 -0.09418337 -0.015914598 0.19332506 0.19127162 -0.17566523 -0.14904954
-0.3810722 0.043796737 0.11708949 -0.055961188 -0.041448534 0.29262957 0.10204124 -0.15052107
-0.23590538 0.039059702 0.046173215 -0.06903548 -0.10297576 -0.047525622 0.06918453 0.12580495
-0.18030462 -0.062279392 0.15808225 0.22114639 0.1573096 0.027868047 -0.07658092 0.20479728
0.18391632 0.24518897 -0.011822623 -0.17530976 -0.012821665 -0.11649227 0.026370319 -0.14379525
-0.015028898 0.24153519 -0.31348804 -0.24646269 -0.015810065 0.11354311 -0.10145284 -0.17527938
-0.23139359 0.021152738 0.05579083 0.23257613 0.1715329 -0.048453793 0.04325612 -0.047149528
-0.25574723 -0.17435735 0.2076385 -0.20345123 -0.21879269 -0.15456724 0.18540317 0.229552
0.1526214 -0.16520597 -0.2205607 0.16522354 0.009935148 -0.05120063 0.13102329 0.12069077
-0.0679708 -0.044148907 0.2603647 0.2726478 0.21451178 -0.100551605 -0.24367626 -0.09524042
0.046999 -0.15315701 0.2370888 0.17328723 -0.24123332 0.028536625 -0.07890487 0.17147623
-0.26799446 -0.3420327 -0.20698972 -0.0060411617 0.20821878 -0.18766785 -0.11158509 -0.11180737
00000000: d3d4 713c bb27 0bbe 1fd6 4f3e 9464 69be
00000010: 5d59 f2bd bd97 86be 0dc4 dd3d 052d 903e
00000020: 9a13 54bd 71fb b2bd 4a96 643e 6a3f a73d
00000030: 8033 27be 13cc 16bd 2edc bcbe 4ef6 f73d
00000040: 6ae8 a1bd f498 ad3e b802 44be b462 58be
00000050: 2c47 203e 986b e43d 320e 113e 60b4 883e
00000060: 1499 903d e39c b63e 8ed3 133c 402a 99bd
00000070: 2735 dc3c 8a3d 2f3e 82af 3d3e eef1 853d
00000080: 991b 88be f817 c9bd a83b 5abe 48e8 3a3e
00000090: a261 7a3e 6798 8e3e ed8f 3d3e 9854 5d3e
000000a0: e3c1 963d c3a1 24be 7761 363e 1d0a 093e
000000b0: fbeb 203d 0645 84bd 1926 903e a772 8e3e
000000c0: c1bf 1fbe be37 d2bb 11f4 523e 195f 8a3e
000000d0: 33c8 5fbe 385d 913e a6b8 aabe 564e 343e
000000e0: c630 073b b7f1 98be 6cef 34be a72a 703e
000000f0: d7ae d0bd 84d8 29bc 2a2f 763e a473 343e
00000100: 4bb4 f5be b3f6 54bc 61c3 423e 88a6 72be
00000110: ecfc 673e 512a b03e 4a5a bf3d 020a 2b3e
00000120: 4eea 023e 7beb 9a3d 7b15 5ebd 86a7 69be
00000130: 61db 80be 6363 05be 0cc5 9c3d bf31 783d
00000140: a97b a7be 3fbd 023e 639a 313e 810e 5abe
00000150: 2c24 57be eb5c 05be ad2a f4bd afb6 cdbe
00000160: efb5 723e 0c9f 2a3e 94be cdbe af7a e9bd
00000170: c418 c13d 065c 1ebe 0443 a83b b9fb f03d
00000180: 1985 8cbe f3e9 253d 7aba dc3d 7a83 6c3d
00000190: fac1 9d3e 4349 1fbe e5e0 7cbe 350e 263e
000001a0: 43a2 c33e 3a43 cd3a b2a7 303d 59e4 b7bd
000001b0: c4b1 b7bc 9945 a93d 8bc2 f13d a79c 563e
000001c0: e748 273e 39d0 073e e401 2a3d 9d66 a73e
000001d0: bc0e d2bd 0f94 e2be 3e9a 8dbe ccea 3d3e
000001e0: 23b7 85be d544 283d 7eb5 363e 8181 c1bd
000001f0: 4200 163e d29b 213e 9572 3bbe afe2 1b3e
00000200: 4381 c5bc 8f48 f8bd d2f8 4d3d 9a70 d53d
00000210: f23e e1bc ed88 14be 64a9 463d 2dcf 3ebb
00000220: c7a3 45be 18e8 4f3b b3e9 c9bd cf6e 8d3e
00000230: 8058 62be a6d2 58be cb07 43be 1362 83be
00000240: 9443 94be 4086 ffbd 562b 3c3d 3c21 b53d
00000250: 13bf 323e eb18 27bd b1b3 a7b9 2e03 f83d
00000260: 028f f93d eec3 94bd 6ce9 1dbe 56be 69be
00000270: d9ad f5bd a341 1ebd c915 4dbd 5b1c 42be
00000280: 1bcb 5abe e20b dabd 36e3 c0bd 555f 82bc
00000290: 01f7 453e b5dc 433e 96e1 33be 71a0 18be
000002a0: e51b c3be 3564 333d 9dcc ef3d 8f37 65bd
000002b0: f0c5 29bd 8bd3 953e fffa d03d 3222 1abe
000002c0: 2e91 71be 11fd 1f3d 2020 3d3d 7962 8dbd
000002d0: f5e4 d2bd 3aaa 42bd 9eb0 8d3d 03d3 003e
000002e0: c6a1 38be ad18 7fbd 50e0 213e 3374 623e
000002f0: c515 213e 884b e43c 75d6 9cbd 61b6 513e
00000300: 8f54 3c3e d112 7b3e adb3 41bc 6784 33be
00000310: f611 52bc 8093 eebd 9106 d83c 103f 13be
00000320: c43b 76bc 0055 773e 8181 a0be b760 7cbe
00000330: 1c84 81bc 4a89 e83d 82c6 cfbd 707c 33be
00000340: 71f2 6cbe 8248 ad3c ed84 643d 7028 6e3e
00000350: 52a6 2f3e 7c77 46bd 542d 313d dd1f 41bd
00000360: 4df1 82be bc8a 32be 309f 543e 8555 50be
00000370: 310b 60be e046 1ebe 54da 3d3e ae0f 6b3e
00000380: c948 1c3e c12b 29be aada 61be 5c30 293e
00000390: 08c7 223c c0b7 51bd f82a 063e b92c f73d
000003a0: 4634 8bbd 7cd5 34bd 864e 853e 7e98 8b3e
000003b0: faa8 5b3e 00ee cdbd 4586 79be 690d c3bd
000003c0: 0682 403d 31d5 1cbe 68c7 723e 3572 313e
000003d0: de05 77be a4c5 e93c e098 a1bd 7797 2f3e
000003e0: 9236 89be e91e afbe 1df5 53be f0f4 c5bb
000003f0: 4e37 553e 002c 40be b986 e4bd 43fb e4bd

StatefulPartitionedCall/sequential_3/dense_12/BiasAdd/ReadVariableOp:0 f4 [64]
-0.0042811767 0.011735099 0.020947907 0.0050014346 0.044939384 -0.00879822 -0.029912436 -0.03574778
-0.022466417 0.059301812 -0.04179056 -0.08308417 -0.037895147 -0.035811152 0.03621713 0.0030025153
-0.09681596 0.048198357 -0.0076989015 0.02657144 -0.028643012 0.035913136 -0.060969006 -0.09755941
-0.004868834 0.06589476 -0.01549491 -0.14172624 -0.0057744314 -0.05438782 0.008673211 -0.10915012
-0.039300732 -0.0634547 -0.020545464 -0.0037948058 -0.024154063 -0.10732292 -0.05869483 -0.013226127
0.0039550276 -0.039947376 -0.11837367 -0.05036063 0.005072013 0.04098261 -0.038456794 -0.13072988
-0.041406862 -0.056739993 0.02084269 -0.055519108 -0.14324285 -0.0255676 -0.010725049 -0.076232694
-0.102342874 0.007081198 -0.03406475 0.0032067345 0.019244093 -0.14739244 0.0075122057 -0.08832464
00000000: 1d49 8cbb 9344 403c f29a ab3c 13e3 a33b
00000010: 5c12 383d 6926 10bc ed0a f5bc 446c 12bd
00000020: 7e0b b8bc 75e6 723d 942c 2bbd 0928 aabd
00000030: f137 1bbd b7ae 12bd 6a58 143d d9c5 443b
00000040: 7247 c6bd a46b 453d 1147 fcbb 59ac d93c
00000050: c0a4 eabc a719 133d a3ba 79bd 3acd c7bd
00000060: bd8a 9fbb d5f3 863d 5dde 7dbc af20 11be
00000070: 7137 bdbb c3c5 5ebd 151a 0e3c 198a dfbd
00000080: cef9 20bd 8af4 81bd f64e a8bc 47b2 78bb
00000090: bede c5bc 1ecc dbbd fd69 70bd 66b2 58bc
000000a0: 2d99 813b dc9f 23bd e56d f2bd f346 4ebd
000000b0: 2133 a63b 62dd 273d df84 1dbd 0ede 05be
000000c0: 3e9a 29bd 3268 68bd 4abe aa3c 0168 63bd
000000d0: 41ae 12be 2573 d1bc 1eb8 2fbc e31f 9cbd
000000e0: 2499 d1bd 6509 e83b 7b87 0bbd 1428 523b
000000f0: caa5 9d3c 0bee 16be f328 f63b 8de3 b4bd

StatefulPartitionedCall/sequential_3/customer_data/batchnorm/sub:0 f4 [11]
-0.6336953 -1.7349726 -2.3053987 -3.1429033 -1.4798709 -0.971312 -2.2332394 -31.53384
-0.35439202 -4.8473105 -1.7260466
00000000: db39 22bf 9513 debf a78b 13c0 5425 49c0
00000010: 696c bdbf e7a7 78bf 65ed 0ec0 4e45 fcc1
00000020: df72 b5be 2b1d 9bc0 18ef dcbf

StatefulPartitionedCall/sequential_3/customer_data/batchnorm/mul:0 f4 [11]
1.7119771 7.0059773e-06 1.0978357 3.4651968 2.3344538 2.3786755 2.5841284 31.622776
3.1244361 0.00034290773 0.00067787594
00000000: 1122 db3f e314 eb36 e185 8c3f c9c5 5d40
00000010: b167 1540 383c 1840 5c62 2540 72fb fc41
00000020: c3f6 4740 4cc8 b339 7cb3 313a
