resources/loan_model_alpha.onnx (onnx, 42101 bytes, 9 tensors)

StatefulPartitionedCall/sequential_1/dense_7/MatMul/ReadVariableOp:0 f4 [64, 1]
0	0xbe5f787b	-0.21823303
1	0x3e85adc5	0.26109138
2	0xbc7cbc07	-0.015425689
3	0xbd50cd0a	-0.05097679
4	0x3ca71861	0.020397367
5	0xbebabcf9	-0.364723
6	0x3e839f3c	0.25707424
7	0xbe0e02ba	-0.13868228
8	0x3f163bc7	0.58684963
9	0xbef776d2	-0.4833284
10	0xbe6298e5	-0.22128637
11	0x3af8d33f	0.0018983855
12	0xbe719985	-0.2359372
13	0xbe43d46d	-0.19124003
14	0x3ef88208	0.48536706
15	0x3e85cd20	0.2613306
16	0xbe9e8fa1	-0.30968955
17	0xbd79d91d	-0.06099807
18	0xbeac8357	-0.33693954
19	0xbe129215	-0.14313538
20	0xbebf5ccf	-0.37375495
21	0x3e24c3f1	0.1609037
22	0x3ebd8959	0.3701885
23	0x3dd629bd	0.1045718
24	0xbeaf924a	-0.34291297
25	0x3e857c72	0.26071507
26	0xbee7b653	-0.4525629
27	0x3c525777	0.012838236
28	0x3dff41cc	0.12463722
29	0x3f11d322	0.5696279
30	0x3e03f356	0.12885794
31	0xbe9d59a0	-0.3073244
32	0xbe89f356	-0.26943463
33	0xbe725041	-0.23663427
34	0x3e58f594	0.2118743
35	0x3e188264	0.1489349
36	0xbe3b93de	-0.18318126
37	0x3e623841	0.22091772
38	0xbec5dcc4	-0.38644993
39	0x3e8debae	0.27718872
40	0xbe4a03d3	-0.19728021
41	0xbe745b71	-0.23863007
42	0x3ecbbef9	0.39794138
43	0x3f04b062	0.5183164
44	0x3ddbd736	0.107344076
45	0xbe75bab3	-0.23997001
46	0x3e45dd15	0.19322617
47	0xbe6c986d	-0.23105021
48	0xbdeb0462	-0.11475445
49	0xbe67ec06	-0.2264863
50	0xbeba034f	-0.3633065
51	0xbeff9366	-0.49917144
52	0xbe428614	-0.18996459
53	0x3ea1eab7	0.31624386
54	0xbe0abad7	-0.13547836
55	0x3f00c9cb	0.5030791
56	0x3e8abe2e	0.2709822
57	0x3d5e9f1b	0.054350954
58	0x3e51fc4e	0.20506403
59	0x3ece3c7e	0.40280527
60	0xbcbf7112	-0.023369346
61	0x3ed4e017	0.41577217
62	0x3ed0718b	0.40711626
63	0xbe4d7d4f	-0.20067333

StatefulPartitionedCall/sequential_1/dense_6/MatMul/ReadVariableOp:0 f4 [64, 64]
0	0x3dfcf438	0.123512685
1	0xbe744bf7	-0.23857103
2	0x3e250112	0.1611369
3	0x3e5e387f	0.21701239
4	0x3cf03aed	0.029324973
5	0xbddb0bc6	-0.10695605
6	0x3e219aa7	0.15781651
7	0xbe6ff61a	-0.23433724
8	0xbd129638	-0.03578779
9	0x3cdfa812	0.027301822
10	0x3cb3520a	0.021889705
11	0xbe7207b3	-0.2363575
12	0x3e6a5edf	0.22887753
13	0x3e3b866e	0.18313
14	0xbe18bb8f	-0.14915298
15	0xbe63a4d1	-0.22230841
16	0x3e4c6461	0.19960167
17	0x3e12e129	0.14343704
18	0xbd2bc300	-0.041934013
19	0x3e5d5150	0.2161305
20	0x3dbfa191	0.09356988
21	0xbdeff689	-0.11716945
22	0xbd1f1189	-0.038835082
23	0x3e1d3ce2	0.15355256
24	0x3dc5581b	0.096359454
25	0x3da4fc7e	0.080559716
26	0x3e118990	0.14212632
27	0x3d8930e5	0.06698779
28	0xbde793b5	-0.1130747
29	0x3e47d3ba	0.19514361
30	0xbe8ab00b	-0.27087435
31	0x3cf77c93	0.030210769
32	0x3d3b9ce9	0.045803938
33	0x3df9500c	0.12173471
34	0xbd5654c4	-0.052326933
35	0xbdefeb61	-0.11714817
36	0x3d6abffb	0.057311993
37	0x3dcd3f0b	0.1002179
38	0x3d36354e	0.04448443
39	0x3c406e38	0.011745028
40	0xbcb9c375	-0.022676209
41	0xbe7dc9ff	-0.24784087
42	0xbe69b742	-0.22823814
43	0x3da2ad64	0.07943228
44	0xbd98013c	-0.074221104
45	0xbe258f48	-0.16167939
46	0x3d70d566	0.058797263
47	0xbdc99ef6	-0.098447725
48	0xbe1f13bb	-0.1553487
49	0xbe2d4bbe	-0.16923425
50	0x3dee259d	0.11628268
51	0xbdc6d0d0	-0.097077966
52	0x3e0bbeed	0.13647051
53	0x3d401b59	0.04690108
54	0x3dd445dc	0.10364887
55	0xbd894033	-0.06701698
56	0xbde51359	-0.11185331
57	0x3d823219	0.063572116
58	0x3ddb6bfd	0.107139565
59	0xbd2173f6	-0.03941723
60	0xbe45018e	-0.19238874
61	0xbd9ab56e	-0.07554136
62	0x3cf81093	0.03028134
63	0x3e36247c	0.17787355
64	0xbd8b1860	-0.067917585
65	0xbd667642	-0.056265123
66	0x3c33a0eb	0.010963659
67	0x3e2a75a8	0.16646445
68	0x3dcf2425	0.10114316
69	0xbd5433b2	-0.051807113
70	0x3e43ece9	0.19133343
71	0x3e2eecb4	0.17082483
72	0xbd71e630	-0.059057415
73	0xbdb981f2	-0.09057988
74	0x3d8cfc05	0.068840064
75	0xbe4b69c1	-0.1986456
76	0x3cb0dda4	0.021590061
77	0x3cdef938	0.027218446
78	0x3d8b7f60	0.06811404
79	0xbd353fee	-0.04425042
80	0x3d5ed4c2	0.05440212
81	0xbe2553ae	-0.16145203
82	0x3bbbbb21	0.0057290946
83	0x3e1d5153	0.15363054
84	0xbe14bb63	-0.14524607
85	0x3dc6e8ac	0.097123474
86	0x3c1174be	0.008877931
87	0xbdc9abde	-0.09847234
88	0xbe7f671d	-0.24941678
89	0x3ce3d886	0.027813207
90	0x3e35fd78	0.17772472
91	0x3b0021f2	0.0019551483
92	0x3ddec2ff	0.10877036
93	0xbd648814	-0.055793837
94	0xbdcd113d	-0.100130536
95	0x3d739b0d	0.05947404
96	0x3d7a34c0	0.061085463
97	0xbd8c8925	-0.06862096
98	0xbd6bb351	-0.057544056
99	0xbe86742f	-0.26260516
100	0x3e1695c4	0.14705569
101	0xbd9f5cb1	-0.07781351
102	0x3e9a8c63	0.30185232
103	0xbd5cee9d	-0.053938497
104	0x3e0619de	0.13095805
105	0xbdb7f172	-0.08981599
106	0x3e15a831	0.14614941
107	0xbe632b83	-0.22184567
108	0xbd8c4c12	-0.06850447
109	0x3cc983b2	0.02459893
110	0x3d1c940c	0.038227126
111	0xbe98c846	-0.29840297
112	0xbdd9f559	-0.106424995
113	0x3d425a0a	0.04744915
114	0xbe4a29b1	-0.19742467
115	0x3e17e828	0.14834654
116	0xbe455933	-0.19272308
117	0xbe57debb	-0.21081059
118	0x3d2b0051	0.04174835
119	0xbeab0b17	-0.33406898
120	0x3da55507	0.08072858
121	0xbd74597b	-0.059655648
122	0xbe8c4535	-0.2739655
123	0xbdbbbd5e	-0.09166978
124	0xbdd11c52	-0.1021048
125	0xbc9ac970	-0.018894881
126	0xbe8c9721	-0.27459052
127	0xbe600316	-0.21876177
128	0x3da4ed21	0.08053041
129	0x3d7b6530	0.061375797
130	0xbe30bba2	-0.17259076
131	0xbb3ed8bd	-0.0029120885
132	0x3c0f02f0	0.008728728
133	0x3d3bfd1a	0.045895673
134	0xbd572780	-0.052527905
135	0x3d210d71	0.03931946
136	0x3e777cd8	0.24168718
137	0x3ea583ba	0.32327062
138	0xbe2a3a5d	-0.16623826
139	0xbe566e70	-0.20940566
140	0x3d95849b	0.07300683
141	0xbe3e353b	-0.18574993
142	0x3ebe8d70	0.37217283
143	0x3dbf30a0	0.09335446
144	0xbe354593	-0.17702322
145	0xbd9f7929	-0.07786781
146	0x3e1ea981	0.15494348
147	0xbbc6b403	-0.0060639395
148	0xbd18cc18	-0.037304014
149	0x3e8aa071	0.27075532
150	0x3e9c937a	0.30581266
151	0xbe0bd76d	-0.13656397
152	0xbd657c73	-0.056026887
153	0x3e10b981	0.14133264
154	0x3dff5c64	0.12468794
155	0x3e02986e	0.1275346
156	0x3ebe0037	0.3710954
157	0x3e9639a3	0.29340848
158	0x3e6b0f00	0.22954941
159	0xbcbc6efa	-0.023002136
160	0x3cc07b0b	0.023496171
161	0xbe85d7b2	-0.26141125
162	0x3e4f0ddd	0.20220132
163	0x3e63b0e5	0.22235449
164	0xbe717c1e	-0.23582503
165	0x3dda1722	0.106489435
166	0xbe0da535	-0.13832553
167	0x3e517362	0.20454171
168	0xbca19334	-0.019723512
169	0xbe38ee29	-0.18059601
170	0x3dda8939	0.106707044
171	0x3e6bf797	0.23043667
172	0x3e8e8ec7	0.27843305
173	0xbe43c7eb	-0.19119231
174	0x3da9fc59	0.083000846
175	0x3e9b386d	0.30316487
176	0xbe145aa7	-0.14487706
177	0xbdcec082	-0.10095312
178	0x3e046ef4	0.1293295
179	0xbe94ff06	-0.29100817
180	0xbd92a546	-0.0716043
181	0xbe0e83b2	-0.13917425
182	0xbe20ee93	-0.15716009
183	0x3edbf401	0.42959598
184	0x3e8402be	0.25783342
185	0x3df2a65e	0.11848138
186	0x3dc1394f	0.09434759
187	0xbc9368b4	-0.017994262
188	0x3d8c57d6	0.06852691
189	0xbdd387f9	-0.10328669
190	0x3eb8787e	0.36029428
191	0x3c729794	0.014806647
192	0x3e6d0a08	0.23148358
193	0xbe75050a	-0.23927703
194	0x3dc36f3a	0.09542699
195	0x3dd9c359	0.10632963
196	0xbe561109	-0.20904936
197	0x3e256c43	0.1615458
198	0x3df84ef9	0.12124438
199	0x3e1535ce	0.14571306
200	0xbe3cb025	-0.18426569
201	0xbe2e96e3	-0.17049746
202	0xbe30600c	-0.17224139
203	0xbe60e5c3	-0.21962647
204	0x3e0d2999	0.137854
205	0x3e2f221c	0.17102855
206	0xbe573304	-0.21015555
207	0x3e396c20	0.18107653
208	0xbc25361d	-0.010083702
209	0xbdd412fd	-0.10355184
210	0x3e106d11	0.14104106
211	0x3d4a75b6	0.049428664
212	0xbe0cb7bf	-0.13741969
213	0x3e3cd33a	0.18439952
214	0x3df31a0b	0.11870202
215	0x3e3f4c45	0.18681438
216	0x3dcadeff	0.099058144
217	0x3e678576	0.22609505
218	0xbe622b75	-0.2208689
219	0xbd25bccf	-0.040463265
220	0xbd3dca01	-0.046335224
221	0x3db995b1	0.090617545
222	0x3e5f680d	0.21817036
223	0xbd23d80a	-0.040000953
224	0x3e5d79e2	0.21628526
225	0xbdd7a4d1	-0.10529483
226	0xbdd37d5b	-0.10326644
227	0x3c0567e3	0.008142444
228	0x3e243e05	0.16039284
229	0xbd1b342e	-0.03789156
230	0xbe7b6e96	-0.24553904
231	0x3de91d3a	0.11382528
232	0xbd2fd668	-0.042929083
233	0x3e1fd263	0.156076
234	0x3a61bcb6	0.0008611189
235	0x3cbead6e	0.023276057
236	0xbe31a4d2	-0.1734803
237	0xbe594d85	-0.21220978
238	0xbe4aadb0	-0.19792819
239	0x3d200558	0.039067596
240	0xbe1ae027	-0.1512457
241	0xbce8e850	-0.028431088
242	0x3d8c57d6	0.06852691
243	0xbe84f279	-0.25966242
244	0x3d984ec4	0.07436898
245	0x3e475473	0.19465809
246	0x3e25af19	0.16180076
247	0x3dac2836	0.08406107
248	0xbc94ae92	-0.018149648
249	0xbd57a209	-0.052644763
250	0xbcd33c56	-0.025785606
251	0xbe06d2fc	-0.13166422
252	0xbdc59d62	-0.09649159
253	0x3e29e1d3	0.16590051
254	0xbe720f5f	-0.23638676
255	0x3e00a5b6	0.12563214

StatefulPartitionedCall/sequential_1/dense_6/BiasAdd/ReadVariableOp:0 f4 [64]
0	0x3da9945b	0.0828025
1	0xbd5a4d2b	-0.05329625
2	0x3c13c6be	0.009019552
3	0x3b06c8f1	0.0020566548
4	0xbd11b02e	-0.03556841
5	0x3d86f4fe	0.06589697
6	0x3c0a2da5	0.008433734
7	0x3d95bd1e	0.07311462
8	0xbd93020d	-0.071781255
9	0xbc929888	-0.017894998
10	0xbd26ae6f	-0.040693697
11	0xbd32d90b	-0.04366402
12	0x3d5ff36b	0.0546755
13	0x3d80de11	0.06292356
14	0x3ccde299	0.025132464
15	0x3cb46ba9	0.022023993
16	0x3d6b4950	0.057442963
17	0x3d421a08	0.047388107
18	0x3db96f9b	0.0905449
19	0x3b8af2af	0.004240356
20	0x3d9eefbd	0.0776057
21	0x3c26fe4c	0.010192465
22	0xbc5f0492	-0.0136119295
23	0xbceeac04	-0.029134758
24	0x3dab46d7	0.08363121
25	0x3c95bc3f	0.01827824
26	0x3aee8b5c	0.0018199491
27	0xbd71422e	-0.058901004
28	0xbd483e1e	-0.048887365
29	0xbc025eb0	-0.007957146
30	0xbcae57ed	-0.02128216
31	0x3d0c2956	0.03421911
32	0x3d338553	0.04382832
33	0x3cef196f	0.029186932
34	0x3da4701d	0.080291964
35	0xbba954cf	-0.0051675807
36	0xbd245f5c	-0.040130004
37	0x3c956714	0.018237628
38	0xbd2bf36d	-0.041980196
39	0x3c815a23	0.01579005
40	0x3d20db01	0.03927136
41	0xbd824f9a	-0.06362839
42	0x3cdab87e	0.0266993
43	0xb8fe489c	-0.000121251884
44	0xbcefd2dc	-0.02927535
45	0x3c9b0c58	0.018926784
46	0xbbb13efc	-0.0054091197
47	0x3d4168f4	0.04721923
48	0xbd4271eb	-0.047471922
49	0xbc16bdb5	-0.009200503
50	0x3d7dbaaf	0.061945613
51	0x3c9725a4	0.018450566
52	0x3d1496ba	0.036276557
53	0x3d0d532e	0.034503154
54	0x3d19ed1c	0.03757964
55	0x3d43d398	0.047809213
56	0x3b05c466	0.0020411252
57	0xbd3bde93	-0.04586656
58	0xbba82792	-0.0051316703
59	0x3b87a45f	0.0041394676
60	0xbca8436f	-0.020539967
61	0x3d51d0d5	0.05122455
62	0x3d532509	0.05154899
63	0x3d973537	0.07383197

StatefulPartitionedCall/sequential_1/dense_5/MatMul/ReadVariableOp:0 f4 [64, 64]
0	0x3c3c5fdc	0.011497464
1	0xbe8681e1	-0.26270965
2	0x3e40efe0	0.18841505
3	0x3da4169a	0.080121234
4	0x3c0157f8	0.007894509
5	0xbe108ed8	-0.1411699
6	0xbd7fbcca	-0.062435903
7	0xbe39209d	-0.18078847
8	0xbe3c9ee2	-0.18419984
9	0x3e0edd55	0.13951619
10	0x3eaab0db	0.33338055
11	0xbdf5e13a	-0.12005849
12	0xbe36f5dd	-0.17867227
13	0xbdb15bae	-0.08660065
14	0x3e260206	0.1621171
15	0x3e8d1f4f	0.2756295
16	0xbe1a3695	-0.15059884
17	0x3d48dd78	0.049039334
18	0xbe70cb53	-0.23515062
19	0x3d3510a5	0.044205327
20	0xbe5d280f	-0.21597312
21	0x3e5f85ef	0.21828435
22	0xbd8994a1	-0.06717802
23	0xbd84c882	-0.06483556
24	0xbda9b26a	-0.08285983
25	0xbd955af8	-0.072927415
26	0xbdb637e2	-0.088973776
27	0x3d804278	0.06262678
28	0xbe5212c8	-0.20514977
29	0x3e1c7c11	0.15281703
30	0xbd5c9853	-0.053856205
31	0x3e888af2	0.26668507
32	0x3dff2697	0.12458532
33	0xbdf58b15	-0.119894184
34	0x3d9661fc	0.07342908
35	0xbd421597	-0.04738387
36	0x3e9da030	0.30786276
37	0xbe44c071	-0.19214036
38	0xbd80afde	-0.06283544
39	0x3c85b84f	0.016323237
40	0xbe5ce4f4	-0.21571714
41	0xbe17615e	-0.14783236
42	0x3e69cedf	0.22832821
43	0xbe62f33f	-0.22163104
44	0xbc89ebad	-0.016836012
45	0xbe166f0b	-0.14690797
46	0x3c94d7d1	0.018169316
47	0xbe8f2a94	-0.27962172
48	0xbe235459	-0.15950145
49	0xbe7e8ece	-0.24859163
50	0x3e261467	0.1621872
51	0xbdf42de0	-0.119228125
52	0x3d38bca4	0.045101777
53	0x3e3af06c	0.18255776
54	0x3dd9f80e	0.10643016
55	0xbe3523db	-0.17689459
56	0x3dcbcd54	0.099512726
57	0x3e80c920	0.25153446
58	0x3d49f5c0	0.04930663
59	0xbe98c234	-0.29835665
60	0x3c804cfc	0.015661709
61	0xbe2c4ee3	-0.16826968
62	0x3da7fa60	0.08202052
63	0xbeb31462	-0.34976488
64	0xbe56dfcb	-0.20983808
65	0x3c6e5646	0.014546936
66	0x3deb538e	0.11490546
67	0x3e03c840	0.12869358
68	0xbc5a1106	-0.013309723
69	0x3e0682ec	0.1313588
70	0x3df85add	0.12126706
71	0xbe396fd1	-0.18109061
72	0xbe5d89d6	-0.21634611
73	0x3e0e3467	0.13887177
74	0x3e2503dd	0.16114755
75	0x3de468e4	0.11152819
76	0x3dbebdd7	0.09313553
77	0x3d0d2c03	0.0344658
78	0xbd97f014	-0.07418838
79	0xbdc59b35	-0.09648744
80	0xbdb32ac2	-0.0874839
81	0xbe3a1e21	-0.18175556
82	0x3ce20290	0.027589113
83	0xbe5b6b87	-0.21427737
84	0xbd3cb2ad	-0.046068836
85	0x3d84d5f9	0.064861245
86	0xbe51b70f	-0.20479988
87	0x3e5dbb4e	0.21653482
88	0xbe3938a3	-0.18088011
89	0xbcc35d62	-0.02384824
90	0xbe4059ab	-0.18784206
91	0xbe19205c	-0.1495375
92	0xbdc90579	-0.09815497
93	0x3e3a76ca	0.18209377
94	0x3e66828c	0.22510737
95	0xbd7be8b7	-0.06150123
96	0xbd5d89a3	-0.05408634
97	0x3e268cf4	0.16264707
98	0xbe5d1620	-0.21590471
99	0x3d192cf4	0.037396386
100	0xbcf84f82	-0.03031135
101	0xbd91b4ed	-0.07114587
102	0x3d6e84f0	0.058232248
103	0xbe4f6009	-0.20251478
104	0xbdf5e475	-0.12006465
105	0xbd62eed0	-0.05540353
106	0xbe554f68	-0.20831072
107	0x3da559c0	0.08073759
108	0x3d9b81b1	0.07593096
109	0x3d33f13d	0.043931235
110	0xbe3e17ab	-0.18563716
111	0xbcd885d4	-0.026431002
112	0x3cd8d698	0.026469514
113	0xbce716d7	-0.028209133
114	0x3c9e60bc	0.019333236
115	0xbc817e9b	-0.01580744
116	0xbe77901d	-0.24176069
117	0xbde578cf	-0.11204683
118	0xbd015358	-0.031573623
119	0x3e2dc462	0.16969445
120	0xbe6e9665	-0.23299558
121	0x3a9c6c75	0.0011934178
122	0xbe77f78d	-0.24215527
123	0xbe2bfd63	-0.16795878
124	0xbcd881a0	-0.026428998
125	0x3e65a803	0.22427373
126	0x3dd7553a	0.105143026
127	0xbe3a907a	-0.18219176
128	0xbe126a42	-0.14298347
129	0x3d598292	0.053103037
130	0x3dbb6369	0.0914982
131	0x3e1e1878	0.15439022
132	0xbc8775b3	-0.016535616
133	0x3e6ed0b8	0.23321807
134	0xbd561bf0	-0.052272737
135	0xbdb55502	-0.088541046
136	0xbe28cc0d	-0.16484089
137	0x3abce24a	0.0014410701
138	0x3e7caf71	0.246763
139	0x3db351f8	0.08755869
140	0x3e4ff669	0.20308842
141	0x3c1e2b08	0.009653814
142	0xbe2fd42c	-0.17170781
143	0x3d2c7558	0.042104095
144	0x3cd17e28	0.025572851
145	0xbe96d8d2	-0.29462296
146	0x3df38097	0.11889761
147	0x3e18e778	0.14932048
148	0xbea7ff25	-0.32811847
149	0xbce44332	-0.027864072
150	0x3e110235	0.14160998
151	0xbd4b2338	-0.049594134
152	0xbdc1d21e	-0.09463905
153	0x3e08e861	0.13369896
154	0xbe447f04	-0.19189078
155	0xbe0254fc	-0.12727731
156	0x3e4274d0	0.18989873
157	0xbd8877c1	-0.06663466
158	0xbb172dfd	-0.0023068183
159	0xbe155ef1	-0.14586999
160	0xbdc735f5	-0.09727088
161	0xbce46e66	-0.027884673
162	0xbdc8a351	-0.09796775
163	0xbdf2a430	-0.118477225
164	0xbdd194b4	-0.10233441
165	0xbe96ab57	-0.29427597
166	0xbd91b44f	-0.07114469
167	0xbdb063f4	-0.086128145
168	0x3dd46225	0.10370282
169	0x3e08072e	0.13283989
170	0xbcf36271	-0.029710026
171	0xbd904c79	-0.07045836
172	0x3e86a333	0.26296386
173	0xbe15987f	-0.14608954
174	0xbed13093	-0.40857372
175	0xbd208688	-0.0391908
176	0xbeced30b	-0.40395388
177	0x3deedef2	0.11663617
178	0x3d68d617	0.056844797
179	0xbe9f7871	-0.31146577
180	0xbbec204b	-0.007205998
181	0xbe5ad7b3	-0.21371345
182	0x3e79228b	0.24329583
183	0xbe2ac53f	-0.16676806
184	0x3e7dca77	0.24784265
185	0xbe5a8e48	-0.21343338
186	0x3e5c94c7	0.21541129
187	0xbe678bd9	-0.22611941
188	0x3e1120a7	0.14172612
189	0xbce23feb	-0.02761837
190	0x3e12026b	0.14258735
191	0xbe09ec03	-0.13468938
192	0x3df0b342	0.11752941
193	0xbe707c6b	-0.23484962
194	0x3e854abb	0.26033577
195	0x3e2c814e	0.16846201
196	0xbb10b5d6	-0.002208104
197	0xbe449c97	-0.1920036
198	0xbdec6d89	-0.1154433
199	0x3d9a1f8f	0.075255506
200	0xbc9dfeef	-0.0192866
201	0xbd082a47	-0.033243444
202	0x3d0a6319	0.033785913
203	0xbd7054e9	-0.058674727
204	0xbe42f39c	-0.19038242
205	0x3e2a7dcc	0.1664955
206	0x3dcfae4c	0.10140666
207	0xbde84c2f	-0.11342656
208	0x3bcb0d97	0.0061966884
209	0xbd804bc6	-0.06264453
210	0x3df81e86	0.12115197
211	0xbd03621c	-0.032075986
212	0xbb1878a6	-0.0023265271
213	0x3dfe6d20	0.12423158
214	0x3d68eb59	0.05686507
215	0x3e607d4d	0.21922798
216	0xbe1f5889	-0.15561117
217	0xbe044b68	-0.1291939
218	0x3e022cf6	0.12712464
219	0xbe14fba0	-0.14549112
220	0x3d6a2d63	0.05717219
221	0x3e43933e	0.19099137
222	0xbddd04ab	-0.10791906
223	0x3e6ee666	0.23330078
224	0xbe171de3	-0.14757495
225	0x3e2e61bb	0.17029469
226	0x3e120c6f	0.14262556
227	0x3e64cfe9	0.22344936
228	0x3e4fdf90	0.20300126
229	0xbda82de9	-0.08211882
230	0x3e028877	0.1274737
231	0x3c48932a	0.012242118
232	0xbd8c764b	-0.068585
233	0x3e3f945e	0.18708941
234	0xbd4ca23a	-0.0499594
235	0xbcef23ab	-0.029191813
236	0xbe585d7b	-0.2112941
237	0xbc36ad82	-0.011149766
238	0xbd8c8b11	-0.06862462
239	0x3e0fdb8d	0.14048596
240	0x3e4e94d7	0.20173965
241	0xbd9620c3	-0.073304676
242	0x3d041b4b	0.03225259
243	0xbe10d475	-0.14143546
244	0xbc707b2b	-0.014677803
245	0x3d3ca14a	0.046052255
246	0x3d51d06a	0.05122415
247	0xbe874407	-0.26419088
248	0x3d179ecb	0.03701667
249	0xbdb577a1	-0.08860708
250	0xbda468d0	-0.08027804
251	0xbd89284b	-0.066971384
252	0xbd155e11	-0.03646666
253	0xbe2b09ae	-0.16702911
254	0x3e5b50cd	0.21417542
255	0xbd71f2e8	-0.059069544

StatefulPartitionedCall/sequential_1/dense_5/BiasAdd/ReadVariableOp:0 f4 [64]
0	0x3c8dc8a3	0.017307585
1	0xbd828cec	-0.06374535
2	0x3ce8890c	0.028385662
3	0x3d9d2d9d	0.07674716
4	0x3c6be235	0.014397194
5	0x3d12faf3	0.035883855
6	0x3c8ec284	0.017426737
7	0xbd350341	-0.044192556
8	0x3d149c8f	0.03628212
9	0x3da2f872	0.079575434
10	0x3c755e59	0.0149761075
11	0x3d91093a	0.07081838
12	0x3cc5ca2a	0.02414425
13	0xba89216b	-0.001046223
14	0x3ca90689	0.020632999
15	0x3d86bf07	0.06579404
16	0x3d04b148	0.03239563
17	0x3a1a6ccd	0.00058908464
18	0xbda3cf42	-0.07998516
19	0xbcec1887	-0.02882029
20	0xbd6a4580	-0.057195187
21	0xbca10c78	-0.019659266
22	0x3cac24a0	0.021013558
23	0x3dd935e6	0.106059834
24	0xbcc1760c	-0.02361586
25	0x3d5856e3	0.052817237
26	0xbcf73afb	-0.030179491
27	0x3d22be88	0.039732486
28	0x3ccbf9f0	0.024899453
29	0x3d855051	0.0650946
30	0x3cfcc1d3	0.030854141
31	0x3d640914	0.05567272
32	0xbc6f5543	-0.01460773
33	0x3d09eaf6	0.03367134
34	0x3cd6942c	0.0261937
35	0x3cc049e9	0.023472743
36	0x3c90cd11	0.017675908
37	0xbc6d9705	-0.014501338
38	0xbb93ada8	-0.0045067854
39	0xbcb64db6	-0.022253852
40	0xbd517c10	-0.051143706
41	0x3c2af0ac	0.010433357
42	0x3c49cc27	0.01231674
43	0xbd3d7581	-0.04625464
44	0x3c126fc2	0.008937778
45	0xbd25e9d8	-0.040506214
46	0xbd11f648	-0.035635263
47	0x3d170c07	0.036876705
48	0xbc9216d9	-0.01783316
49	0xbdaf0f1b	-0.08547803
50	0x3c737d0b	0.014861356
51	0xbd50f1dd	-0.05101191
52	0xbcbd61cb	-0.02311792
53	0x3d32f624	0.04369177
54	0x3d0bd969	0.034142885
55	0xbcde817a	-0.027161349
56	0x3d14b486	0.036304973
57	0xb904ccc7	-0.00012664786
58	0x3d2bca4c	0.041940972
59	0xbc8652a8	-0.016396835
60	0xbb630911	-0.0034642855
61	0x3c9e2b41	0.019307734
62	0x3daa7b37	0.083242826
63	0xbdaf93b6	-0.085730955

StatefulPartitionedCall/sequential_1/dense_4/MatMul/ReadVariableOp:0 f4 [11, 64]
0	0x3d5d8733	0.054084014
1	0xbdb8a9b5	-0.09016744
2	0x3e46ea2f	0.19425271
3	0xbe7d15b9	-0.24715318
4	0xbde3dfe6	-0.111266896
5	0xbe447d19	-0.19188346
6	0x3dc9a75b	0.09846374
7	0x3eafe6e4	0.34355843
8	0x3d32e554	0.043675736
9	0xbd8bb14a	-0.068209246
10	0x3e5fd0b9	0.21856965
11	0x3dbc4aa2	0.091939226
12	0xbdfcda72	-0.12346353
13	0xbd39c68c	-0.045355365
14	0xbebba210	-0.3664708
15	0x3dd7011f	0.10498261
16	0xbdb1fca5	-0.08690766
17	0x3e6c73b8	0.23091018
18	0xbe25aa66	-0.16178283
19	0xbe64c53a	-0.22340861
20	0x3e4f0881	0.20218088
21	0x3db990df	0.09060835
22	0x3e4cbb87	0.19993411
23	0x3e80dbfe	0.2516784
24	0x3d78d1fe	0.06074714
25	0x3ec55af1	0.38545945
26	0xbdc056d4	-0.09391561
27	0xbd9b404e	-0.075806245
28	0xbd023382	-0.031787403
29	0x3e3c150b	0.18367402
30	0x3e441d2a	0.1915175
31	0x3c314195	0.010818859
32	0xbe968f3b	-0.2940615
33	0xbd7794cc	-0.060444638
34	0xbe6dd308	-0.23225033
35	0x3e55317f	0.20819663
36	0x3e7a6fc5	0.24456699
37	0x3e70cb37	0.2351502
38	0x3e367e07	0.17821513
39	0x3e82b610	0.25529528
40	0x3d7a88a2	0.06116546
41	0xbe82929d	-0.25502482
42	0x3e56497d	0.20926471
43	0x3e50d0dc	0.20392174
44	0x3d80c00d	0.06286631
45	0xbd7c9bff	-0.061672207
46	0x3e8dedb1	0.27720407
47	0x3e83a4be	0.25711626
48	0xbe1cc903	-0.15311055
49	0x3daeefee	0.08541857
50	0x3e5f413f	0.21802233
51	0x3e993743	0.29924974
52	0xbe552315	-0.20814164
53	0x3e9e6065	0.30932918
54	0xbe9b593b	-0.30341515
55	0x3e4baa9f	0.19889306
56	0x3d534cba	0.051586844
57	0xbe90a643	-0.28251848
58	0xbdf2d231	-0.11856497
59	0x3e47111c	0.1944012
60	0xbe8369ce	-0.2566666
61	0x3cb06ab9	0.021535264
62	0x3e96be0d	0.29441872
63	0x3e2a1cc1	0.16612531
64	0xbefbd78a	-0.4918788
65	0x3dcc84bb	0.09986254
66	0x3e4fe0b2	0.20300558
67	0xbe375cc7	-0.17906485
68	0x3e5ec5f4	0.217552
69	0x3eab83ae	0.334989
70	0xbd537af2	-0.05163092
71	0x3e8ee446	0.27908534
72	0x3dec8cc4	0.115502864
73	0x3d82bca8	0.063836396
74	0xbd8657da	-0.06559725
75	0xbe5e8e24	-0.2173391
76	0xbea4317c	-0.32069004
77	0xbe362277	-0.17786585
78	0x3e090fe5	0.1338497
79	0x3dcdc5a0	0.100474596
80	0xbeab9e79	-0.33519343
81	0xbc88a231	-0.016678901
82	0x3e11f77b	0.14254563
83	0xbe45b92f	-0.19308923
84	0xbe89273e	-0.26787752
85	0xbdb3085c	-0.08741829
86	0xbe3c9fd2	-0.18420342
87	0xbebfa369	-0.3742936
88	0x3e573a98	0.21018445
89	0x3e33a92c	0.17545003
90	0xbea8a1c9	-0.32935932
91	0xbdee228d	-0.11627684
92	0x3e001765	0.12508924
93	0xbe3adebc	-0.18249029
94	0xbc4f6e0d	-0.0126605155
95	0x3cd132cb	0.025536915
96	0xbe6686bb	-0.22512333
97	0xbc65a42a	-0.014016191
98	0x3dd80893	0.105485104
99	0x3cf21728	0.029552057
100	0x3e8904bd	0.26761428
101	0xbe28f8c1	-0.16501142
102	0xbe607142	-0.21918204
103	0x3e6801ec	0.22656983
104	0x3ec70563	0.38871297
105	0xbd333d68	-0.043759733
106	0x3d93d498	0.072182834
107	0xbea8dea8	-0.32982373
108	0xbe0360a2	-0.12829831
109	0x3ddc866c	0.107678264
110	0x3e233d1b	0.15941279
111	0x3db0ecb5	0.08638898
112	0x3e56f600	0.20992279
113	0x3ddece48	0.10879189
114	0x3d6f45f4	0.058416322
115	0x3eb1ebd5	0.34750238
116	0xbdcab315	-0.098974384
117	0xbef20334	-0.4726807
118	0xbe93ae2a	-0.28843814
119	0x3e180891	0.14847018
120	0xbe8670c9	-0.26257923
121	0x3d3ccda2	0.046094544
122	0x3e277557	0.16353355
123	0xbde24b8f	-0.11049568
124	0x3d8967c1	0.067092426
125	0x3d966d10	0.07345021
126	0xbe57a77c	-0.21059984
127	0x3e161a06	0.14658365
128	0x3bca563c	0.0061748307
129	0xbde705bf	-0.11280393
130	0x3d4aec62	0.04954184
131	0x3dc81d6c	0.09771237
132	0xbc221ba0	-0.009894282
133	0xbdbe215f	-0.09283709
134	0xbcd968cd	-0.02653923
135	0x3d4cf64e	0.050039582
136	0xbdeaf97b	-0.11473366
137	0x3d3ccd27	0.046094086
138	0xbdd663ff	-0.104682915
139	0x3e9c35be	0.30509752
140	0xbe49cd24	-0.19707161
141	0xbe548357	-0.20753227
142	0xbe2078c1	-0.15671064
143	0xbe804e2b	-0.25059637
144	0xbe97ffdd	-0.29687396
145	0xbe885a76	-0.26631516
146	0x3da79c7e	0.081841454
147	0x3d12a2c4	0.035799757
148	0x3e3dcd5f	0.18535374
149	0xbd8e6144	-0.06952146
150	0x3d272796	0.040809236
151	0x3de42390	0.111395955
152	0x3dd8f2ce	0.10593186
153	0xbd292136	-0.041291438
154	0xbe318806	-0.17337045
155	0xbe6f7cd9	-0.2338747
156	0xbe1cc02b	-0.15307681
157	0xbcf8fa86	-0.030392896
158	0xbd14cfc1	-0.036330942
159	0xbe31f9f2	-0.17380503
160	0xbe86c7b5	-0.2632424
161	0xbdf6d4a0	-0.12052274
162	0xbdc47e7c	-0.095944375
163	0x3bb0f652	0.0054004574
164	0x3e364e2d	0.17803259
165	0x3e238b0f	0.15971015
166	0xbe360d63	-0.17778544
167	0xbdd5b490	-0.1043483
168	0xbeb98599	-0.3623474
169	0x3cf4abb4	0.02986703
170	0x3e0aa3d2	0.13539055
171	0xbd511d71	-0.05105347
172	0xbcb7c877	-0.022434456
173	0x3e9421cd	0.28932038
174	0x3daee479	0.085396715
175	0xbe3e8e57	-0.18608986
176	0xbe82cda9	-0.2554753
177	0x3deebee4	0.11657503
178	0x3d150985	0.03638603
179	0xbd1bdf51	-0.038054768
180	0xbdcc3f51	-0.09973014
181	0xbd01c2bf	-0.031679865
182	0x3d69bc63	0.057064425
183	0x3dca504e	0.09878598
184	0xbe153659	-0.14571513
185	0xbd38f9a7	-0.045159962
186	0x3e563d5c	0.20921844
187	0x3e54320b	0.20722215
188	0x3d5d9cc5	0.054104585
189	0x3de421b1	0.111392386
190	0xbd77ff80	-0.0605464
191	0x3e44340c	0.1916048
192	0x3e1719eb	0.1475598
193	0x3e78178b	0.24227731
194	0x3a38a565	0.00070436887
195	0xbe42a070	-0.19006515
196	0xba558be2	-0.00081461493
197	0xbdd56f51	-0.104216225
198	0x3de2f6c3	0.11082222
199	0xbdecc317	-0.11560648
200	0xbc253518	-0.010083459
201	0x3e5f3738	0.21798408
202	0xbeb20c5f	-0.34775063
203	0xbe6221e0	-0.22083235
204	0xbd9e8509	-0.07740218
205	0x3d72ab1f	0.059245225
206	0xbdf33d7f	-0.11876964
207	0xbe22e6ed	-0.15908404
208	0xbe5e2f2a	-0.21697679
209	0xbcdf7bb1	-0.02728066
210	0xbbd85fa3	-0.0066031977
211	0x3ea70dbc	0.32627666
212	0x3dd4c460	0.10389018
213	0xbc1c1482	-0.009526374
214	0x3d434b47	0.047679212
215	0xbd688a87	-0.056772735
216	0xbe9331f9	-0.28749064
217	0xbe83d401	-0.25747684
218	0x3ea37710	0.31926775
219	0xbe44f181	-0.19232751
220	0xbe518649	-0.20461382
221	0xbe2b0a29	-0.16703095
222	0x3e145dc3	0.14488892
223	0x3e45c70b	0.1931421
224	0x3e18ad5e	0.14909884
225	0xbe176e5b	-0.14788191
226	0xbe66eccd	-0.2255127
227	0x3e28414a	0.16431156
228	0x3c51b0dd	0.012798515
229	0xbd2eb49c	-0.04265271
230	0x3d67fd61	0.056638125
231	0x3e1e427b	0.15455048
232	0xbd8a044e	-0.06739102
233	0xbdc94a0c	-0.098285764
234	0x3e867b79	0.26266077
235	0x3e036e69	0.12835087
236	0x3e5f2de1	0.21794845
237	0xbda81752	-0.08207573
238	0xbe87702d	-0.2645277
239	0x3c81e734	0.015857317
240	0x3c9a55eb	0.018839797
241	0xbe026d3e	-0.12736985
242	0x3e6be79d	0.23037572
243	0x3e5be981	0.21475793
244	0xbe4c93e7	-0.19978295
245	0x3d260068	0.04052773
246	0xbdcb8098	-0.09936637
247	0x3dfc2d58	0.12313336
248	0xbe8443d0	-0.25832987
249	0xbe93cc90	-0.28867006
250	0xbe574d94	-0.21025687
251	0x3c527697	0.012845657
252	0x3e77ee61	0.24212028
253	0xbe708593	-0.23488455
254	0xbd9417ca	-0.072311
255	0xbdd7c211	-0.10535062

StatefulPartitionedCall/sequential_1/dense_4/BiasAdd/ReadVariableOp:0 f4 [64]
0	0xbd13a3f1	-0.03604502
1	0xbd372681	-0.044714455
2	0x3cd5de3f	0.026106952
3	0x3d0c393c	0.03423427
4	0x3d5ffcf6	0.0546846
5	0xbb14a67b	-0.0022682238
6	0xbdb65f23	-0.08904865
7	0xbd906d85	-0.07052139
8	0x3b4c0eb5	0.0031136696
9	0x3d09fde1	0.033689383
10	0x3d6bef3d	0.057601202
11	0xbd8f5c19	-0.06999988
12	0xbd2a48a0	-0.041573167
13	0xbd2ee06b	-0.04269449
14	0x3d7c35fc	0.06157492
15	0x3d212d31	0.03934974
16	0xbda580b3	-0.08081188
17	0x3aa6c4c3	0.0012723434
18	0x3b9e8fa7	0.004838902
19	0x3b870f99	0.0041217324
20	0xbd236978	-0.039895505
21	0x3dd69046	0.10476737
22	0xbda12a75	-0.07869426
23	0xbdd206de	-0.10255216
24	0x3d8174e4	0.06321123
25	0x3dbeede8	0.09322721
26	0x3ba67d21	0.0050808345
27	0xbe05e287	-0.13074695
28	0xbcbbbbec	-0.022916757
29	0xbdc499c8	-0.09599644
30	0xbbb763ff	-0.0055966373
31	0xbd19c076	-0.03753706
32	0xbdbd20b4	-0.09234753
33	0xbd7bd7f5	-0.06148525
34	0xbd8684a0	-0.06568265
35	0xbd0aebbd	-0.033916224
36	0xbd9281a5	-0.07153634
37	0xbdf64b99	-0.12026138
38	0xbe15cff3	-0.14630108
39	0xbd221417	-0.03956994
40	0x3b75cd68	0.0037506465
41	0x3afbe2e6	0.0019217401
42	0xbd9f2e3c	-0.077724904
43	0xbe4903a1	-0.1963029
44	0xbbf52791	-0.0074815233
45	0x3d3793c3	0.04481865
46	0xbc6e4d75	-0.014544834
47	0xbd52c606	-0.05145838
48	0xbcdd9bb2	-0.02705178
49	0xbddb6a88	-0.107136786
50	0x3d731227	0.059343483
51	0xbca1f639	-0.019770728
52	0xbdd86534	-0.10566178
53	0xbcf2af81	-0.029624702
54	0xbce2da88	-0.027692094
55	0xbdd1e7c9	-0.10249288
56	0xbdba9b3b	-0.09111639
57	0x3c99e492	0.018785749
58	0x3b1d111c	0.0023966497
59	0xbb05bc32	-0.0020406363
60	0x3ccbe3fe	0.024888989
61	0xbde16d07	-0.110071234
62	0xbcec274c	-0.028827332
63	0xbd9aea4c	-0.0756422

StatefulPartitionedCall/sequential_1/customer_data/batchnorm/sub:0 f4 [11]
0	0xbf2e59f4	-0.6810601
1	0xbfdefc33	-1.7420715
2	0xc0150d0a	-2.3289208
3	0xc05159d7	-3.2711084
4	0xbfba6db2	-1.4564726
5	0xbf75d37f	-0.9602584
6	0xc00b6d0f	-2.1785314
7	0xc1fc0e64	-31.507027
8	0xbeae573c	-0.3405093
9	0xc09aefe0	-4.8417816
10	0xbfdaf200	-1.7105103

StatefulPartitionedCall/sequential_1/customer_data/batchnorm/mul:0 f4 [11]
0	0x3fdf3984	1.7439427
1	0x36ee2ae5	7.0979463e-06
2	0x3f8cccb9	1.0999976
3	0x4062afa9	3.5419714
4	0x401626aa	2.3461099
5	0x401b31d9	2.4249175
6	0x40212d43	2.5183876
7	0x41fcfb72	31.622776
8	0x4040f3f0	3.0148888
9	0x39b5d403	0.0003468097
10	0x3a33c6c7	0.0006857928
