resources/loan_model_alpha.onnx (onnx, 41013 bytes, 9 tensors)

StatefulPartitionedCall/sequential_5/model_input/batchnorm/sub:0 f4 [11]
000000 8c e2 2d bf 5d a6 e3 bf 9d bb 14 c0 5b f4 4f c0
       -0.6792381 -1.7785145 -2.323951 -3.2492893
000010 ea b2 be bf aa 22 7d bf a8 90 09 c0 eb 7a fc c1
       -1.489835 -0.9888102 -2.149454 -31.560019
000020 1f 6c a7 be 48 e8 96 c0 a0 04 d8 bf
       -0.32699677 -4.7158546 -1.6876411

StatefulPartitionedCall/sequential_5/model_input/batchnorm/mul:0 f4 [11]
000000 77 41 d9 3f 3b c0 f2 36 65 b6 8a 3f 08 9d 62 40
       1.6973103 7.2345406e-06 1.0836912 3.5408344
000010 ae fb 17 40 cc 58 1a 40 d3 a0 1f 40 72 fb fc 41
       2.3747363 2.4116697 2.494191 31.622776
000020 38 49 43 40 3b c1 af 39 14 49 31 3a
       3.051344 0.0003352257 0.00067629036

StatefulPartitionedCall/sequential_5/dense_23/MatMul/ReadVariableOp:0 f4 [64, 1]
000000 bc cf 38 be ca 80 5a 3e 4d a1 cf bc 93 f9 52 bd
       -0.18047994 0.21338192 -0.025345469 -0.051507544
000010 6e 28 04 3d 9c a8 c4 be 09 14 90 3e ee f8 23 be
       0.03226512 -0.3840989 0.28140286 -0.16012928
000020 4d 42 04 3f 2f 17 5f be 06 01 5d be 67 ef 7a bc
       0.51663667 -0.21786188 -0.21582422 -0.015315867
000030 07 9e 61 be 99 81 37 be f2 98 b5 3e 9d b4 8e 3e
       -0.22032939 -0.17920531 0.3546825 0.27872172
000040 f3 89 91 be da a5 b4 bd 74 45 a1 be 3d 0d 12 be
       -0.2842556 -0.08820696 -0.314983 -0.14262863
000050 bc b5 da be 27 a3 39 3e 7c 53 c3 3e d9 ff cc 3d
       -0.42716777 0.18128644 0.3814963 0.100097366
000060 b2 2e aa be 73 dc 74 3e 97 f3 e2 be a5 db 03 3d
       -0.3323875 0.2391222 -0.4432647 0.03219189
000070 16 d2 cc 3d ad 48 e5 3e 6d e4 cd 3d 43 da 90 be
       0.10001008 0.4478201 0.100533344 -0.2829152
000080 9b 0e 6e be a6 07 63 be ad 07 1e bc f3 b5 20 3e
       -0.23247759 -0.22170886 -0.009645385 0.15694408
000090 13 bb 5e be 2f 18 51 3e 66 4c d3 be 53 84 a3 3e
       -0.2175105 0.20419382 -0.41269225 0.31936893
0000a0 3b 67 4f be b4 63 8e be b3 8a fa 3e 2e 68 21 3f
       -0.20254223 -0.27810442 0.48933944 0.6304959
0000b0 2d 62 1a 3e 1a 86 78 be f2 83 55 3e 71 96 23 be
       0.15076514 -0.24269906 0.20851114 -0.15975358
0000c0 be f7 a1 bd 27 4d 52 bd dc 3a b9 be 8f 80 10 bf
       -0.07908581 -0.05134311 -0.3617772 -0.56446165
0000d0 fa 70 3b be 20 52 9c 3e f3 55 1b be b4 3a 08 3f
       -0.18304816 0.30531406 -0.15169506 0.53214574
0000e0 04 ee 89 3e 20 81 96 3d f8 70 34 3e 44 19 d4 3e
       0.26939404 0.073488474 0.17621219 0.41425526
0000f0 7e 77 7f bd 6c 14 b8 3e 40 44 86 3e 10 47 1d be
       -0.062369816 0.3595308 0.26223946 -0.1535914

StatefulPartitionedCall/sequential_5/dense_22/MatMul/ReadVariableOp:0 f4 [64, 64]
000000 6f 62 bc 3d 2e 80 82 be 92 dd 34 3e 17 02 63 3e
       0.09198462 -0.25488418 0.17662647 0.22168766
000010 96 77 1b 3d bb 43 ec bd 12 ee d2 3d 8e cc 8b be
       0.037955843 -0.11536356 0.102993146 -0.273045
000020 89 7b 41 bd c0 f2 e8 bc 75 17 e9 3c bc 7d 69 be
       -0.047236953 -0.028436065 0.028453568 -0.2280187
000030 e7 6e 50 3e 9e 57 3d 3e f3 7c ba bd 9a 32 54 be
       0.20354806 0.18490455 -0.091058634 -0.20722428
000040 1e 4b 7e 3e 3c f5 32 3e d2 94 81 bd 9a 47 6c 3e
       0.24833342 0.17476362 -0.06327213 0.23074189
000050 f3 36 16 3e a9 c7 e4 bd c8 ec 02 bb ed 87 22 3e
       0.14669399 -0.11170895 -0.0019977558 0.15872164
000060 9a 70 3d 3d ef 4e ac 3d 0a b3 60 3d 9b ef 91 3d
       0.046249963 0.08413493 0.054858245 0.07125779
000070 33 79 09 bd 12 fc 1e 3e ad d3 67 be 57 8d 81 3d
       -0.03356285 0.15525845 -0.22639342 0.063257866
000080 c6 ff a7 3d 96 08 d1 3d 80 d7 81 bd 81 73 48 bd
       0.08203082 0.10206716 -0.063399315 -0.048938278
000090 be 56 11 3e a4 f2 c8 3d 14 0d 6a 3d 04 9d 0e 3c
       0.14193246 0.09811905 0.05714138 0.008704428
0000a0 b9 42 80 bd 31 da 5d be 31 8c 58 be d2 02 96 3d
       -0.06262726 -0.21665265 -0.21147229 0.07324757
0000b0 85 30 f6 bd 03 22 fe bd 1c 2d aa 3d d1 4b dd bd
       -0.12020973 -0.12408831 0.08309385 -0.108054765
0000c0 95 89 c4 bd 3f 0a e1 bd 5b 71 d0 3d ab f2 0e 3c
       -0.09596554 -0.109882824 0.10177871 0.008724849
0000d0 4b b9 01 3e 90 5b 4d 3d 61 96 82 3d d1 6b 65 bd
       0.1266834 0.05013615 0.06376339 -0.056011025
0000e0 6a d4 a1 bd f2 67 a4 3d 54 93 54 3e dc 5c f6 bc
       -0.07901843 0.080276385 0.20759326 -0.030073576
0000f0 4d 04 34 be bf a5 33 be 2a 2e 2a 3d f8 7c 09 3e
       -0.17579766 -0.17543696 0.04154793 0.13426578
000100 a4 cf 59 bc e3 93 0b be 1e 2a 04 3d f5 13 2a 3e
       -0.013294134 -0.13630633 0.03226673 0.16609176
000110 26 24 d0 3d e7 ac 46 bc ab 4c 16 3e 87 33 43 3e
       0.10163145 -0.012126184 0.14677684 0.19062625
000120 91 93 ef 3b a1 12 e8 bd 05 ed 7d 3d fb b5 3e be
       0.0073112925 -0.11331678 0.061993618 -0.18624108
000130 15 07 b6 3c 08 b0 cf 3d 2f 8b 5c 3d a9 cd 81 bd
       0.022220174 0.10140997 0.053843673 -0.06338055
000140 eb bc e5 3d 62 21 17 be a6 c2 32 3c 48 82 2a 3e
       0.11217674 -0.14758828 0.010910666 0.16651261
000150 03 0b 9d bd 9c f1 ba 3d ca de 23 3d e9 fc b2 bd
       -0.07668116 0.091281146 0.04000739 -0.08739645
000160 1c 32 2d be e9 cb 07 3d 5d 8f 75 3d 04 65 05 3b
       -0.16913646 0.03315345 0.059951175 0.00203544
000170 49 99 f6 3d aa 47 49 bd f9 1b fa bb 67 07 85 3d
       0.120409556 -0.04914061 -0.007632729 0.064955525
000180 ca d8 36 3e 12 75 7d bd ad 32 d1 3c ee 59 7f be
       0.17856136 -0.061879225 0.02553686 -0.24936649
000190 ab 66 5c 3e 9c 05 82 bd 2f e7 8c 3e 35 6e dc bd
       0.2152354 -0.06348726 0.2752013 -0.10763208
0001a0 f0 19 b1 3d cc 7f c5 bd 92 9e b1 3d c5 b0 6c be
       0.08647525 -0.09643516 0.08672823 -0.23114307
0001b0 12 ba 01 be 2c 7c 97 3c 79 40 65 3d 7d d2 40 be
       -0.12668636 0.018491827 0.05596969 -0.18830295
0001c0 da 32 a7 bd 6f ca ed 3c 6d be 4f be 68 c3 d6 3d
       -0.08163996 0.029027192 -0.20287485 0.104864895
0001d0 4a 8a 3d be a3 b8 98 be 80 cb 39 3d a4 4b b8 be
       -0.18509784 -0.29828367 0.04536009 -0.3599521
0001e0 c7 5f 90 3d 3c e7 7e bd 5c 03 2f be b5 5b 81 be
       0.07049518 -0.06223224 -0.17091125 -0.2526528
0001f0 a8 d4 41 bd 94 f7 04 bd 08 5f 7c be 6c be 12 be
       -0.047321945 -0.03246267 -0.24645627 -0.14330453
000200 13 ad 78 ba c4 87 a6 3e df d8 4b be 55 69 cd bc
       -0.0009486239 0.32525456 -0.19906949 -0.02507464
000210 2b 5a 7b 3d 73 ea 11 bd c7 89 ce bd 91 44 13 3d
       0.061365288 -0.03562398 -0.10084873 0.035954062
000220 6a 33 39 3e 9b d5 d5 3d ba e6 f6 bd 53 86 44 be
       0.18086019 0.10441133 -0.12055726 -0.19191866
000230 e3 7c 1d bd c6 68 81 be 26 f8 9d 3e 7f a2 f9 3d
       -0.03844918 -0.25275248 0.30853385 0.12189197
000240 96 b7 2d be 88 f7 77 bd ff fc 00 3e 80 fa 73 bd
       -0.16964564 -0.0605388 0.1259651 -0.059565067
000250 1a 70 90 bd 1c 1f 99 3e 14 9a b7 3e d0 bf cc bd
       -0.07052632 0.29906547 0.3585974 -0.09997523
000260 0b 1f a2 bd 20 53 ec 3d fb e9 50 bd d6 f2 3d 3e
       -0.07916077 0.11539292 -0.05100439 0.18549666
000270 f5 5e a6 3e 04 4c bd 3e 1b 80 89 3e 8b 26 18 bd
       0.3249432 0.36972058 0.2685555 -0.037146132
000280 18 5f db 3c de 15 8d be 82 f4 2f 3b 3a f3 c4 3e
       0.026778743 -0.27555746 0.002684862 0.38466817
000290 72 69 40 be fe a6 08 3e 4d 05 6c be a1 09 77 3e
       -0.18790224 0.13344952 -0.23048897 0.24124767
0002a0 f4 48 44 bd 55 1f 23 be 1f 5c b4 3e 14 ef 96 3e
       -0.047921136 -0.15929921 0.35226533 0.29479277
0002b0 60 b7 d1 3e f4 56 72 be 8a 84 b8 3d 15 29 aa 3d
       0.40960217 -0.23665982 0.09009655 0.08308617
0002c0 05 cd 92 bd 8f f5 16 3d 27 70 b5 3d 6a 2a a8 be
       -0.071680106 0.036855277 0.08859282 -0.3284486
0002d0 6a 29 ab bd f0 2d 6e 3e b4 c5 fa bd 7b 50 f0 3e
       -0.083575085 0.23259711 -0.1224474 0.46936402
0002e0 d3 fa 89 3e 77 5e e4 3d 2c 69 d5 3c 63 c2 3a 3d
       0.26949176 0.1115083 0.026051126 0.045595538
0002f0 14 e2 58 3d a6 46 9c 3b 21 a8 aa 3e 3f b4 47 3c
       0.05294998 0.004769164 0.33331397 0.01218897
000300 9f 8a 60 3e 20 18 52 be 7a d6 d5 3d 29 cc e9 3d
       0.2192788 -0.20517015 0.10441299 0.114158936
000310 28 43 50 be 6c 43 0f 3e 82 b1 8b 3d 54 39 02 3e
       -0.20338118 0.13990563 0.06820966 0.12717181
000320 7f 4b 84 be 86 33 22 be ed 7b e6 bd ca b1 5d be
       -0.2583885 -0.15839967 -0.11254106 -0.21649852
000330 4c 19 0f 3e 40 06 df 3d 9b c8 20 be d6 8e 30 3e
       0.13974494 0.10889864 -0.15701525 0.17241988
000340 5c e6 3a 3d b0 ce 25 be d9 c9 0b 3e f0 2e a6 3c
       0.045629844 -0.16192126 0.13651218 0.020286053
000350 53 de 0a be 67 d9 27 3e 45 b2 f1 3d 4f ba 2f 3e
       -0.13561372 0.16391526 0.1180158 0.17160915
000360 6b 63 5d 3d e0 3e 66 3e 10 59 74 be f8 6f 7f bd
       0.05404989 0.22484922 -0.238621 -0.06236264
000370 e3 55 c1 bd e2 26 c2 3d 62 c0 62 3e 41 2d a5 bc
       -0.0944021 0.094800726 0.221437 -0.02016318
000380 1c b8 69 3e 1d 1f ce bd f2 94 18 be b7 02 d1 bb
       0.22824138 -0.10064528 -0.14900568 -0.0063784975
000390 03 5e 76 3e 7c aa ab bc 50 99 36 be 44 d3 9f 3d
       0.240593 -0.020955317 -0.17831922 0.078039676
0003a0 44 b8 9b bd ca 46 3e 3e a3 34 95 bd 2f 67 75 ba
       -0.07603505 0.18581691 -0.0728543 -0.0009361384
0003b0 f5 70 71 be 05 ea 3b be a0 5e 58 be 7d 78 4e 3d
       -0.23578246 -0.1835099 -0.21129847 0.050407875
0003c0 f3 24 51 bd 62 d4 16 3d b8 2e c1 3d 06 53 b1 bd
       -0.05106063 0.036823638 0.09432739 -0.086584136
0003d0 ec 54 6a 3d a9 94 39 3e de 04 3b 3e e2 e4 a7 3a
       0.057209894 0.18123116 0.18263575 0.0012809301
0003e0 14 ac 07 bd 0e 91 67 bd c5 f6 3f bd 3a cb 39 be
       -0.03312309 -0.05653482 -0.046866197 -0.18143931
0003f0 44 f1 b3 bd ac f5 10 3e 5c d9 73 be ae 58 f0 3d
       -0.08786252 0.14156216 -0.23813385 0.11735664

StatefulPartitionedCall/sequential_5/dense_22/BiasAdd/ReadVariableOp:0 f4 [64]
000000 b3 d7 98 3d 48 a1 b4 bc a0 7d 5c 3b 5c a1 8f bb
       0.07463016 -0.022049561 0.0033644214 -0.004383249
000010 9b f8 11 bd cc 27 a4 3d 83 fb de bc ca ef 70 3d
       -0.03563748 0.08015403 -0.02721954 0.05882243
000020 53 05 aa bd 98 24 53 bd 51 99 c0 bc e7 6e de bc
       -0.08301797 -0.05154857 -0.023510607 -0.027152492
000030 f8 ef 43 3d eb d6 e2 3c 3e e6 3d 3d db af 65 3c
       0.047836274 0.027690371 0.046362154 0.014018978
000040 c2 7b 8c 3d e1 24 5a 3d 3e 4e 89 3d e2 c1 5b 3b
       0.068595424 0.053257827 0.06704377 0.0033532311
000050 de 8e aa 3d a4 93 f4 3a 78 15 7a 3c e5 c0 f6 b9
       0.08328031 0.0018659723 0.015263908 -0.00047064494
000060 bc fa b5 3d 25 65 b9 3c 82 f9 b5 3d 3b eb b4 bc
       0.088857144 0.022631237 0.088854805 -0.022084823
000070 6b 59 12 bd 26 e8 ae 3c 5f d9 21 bc ee b0 1c 3d
       -0.035729807 0.021350931 -0.009878485 0.03825467
000080 9a da 04 3d 4b 5e 4e 3b 13 8d d5 bc ae 0a f6 3b
       0.032435037 0.0031489308 -0.026068246 0.0075085973
000090 87 ae 98 3d 89 ba da 3c 3a e5 25 bc aa 79 92 3c
       0.074551634 0.026700275 -0.010125453 0.01788028
0000a0 20 35 1c 3d d2 3b e2 bc 99 67 22 3d 17 08 b4 3c
       0.0381366 -0.027616415 0.03964958 0.021976514
0000b0 70 24 04 bc 25 f1 20 3d f1 f8 9a 3b 39 b7 47 3c
       -0.008065328 0.039292473 0.004729383 0.01218968
0000c0 b8 82 26 bd da 8e 15 bd 4f 84 16 3d 5e 56 ba 3d
       -0.040652007 -0.036513187 0.036747273 0.090985045
0000d0 52 0c bb 3c b2 21 95 3c d4 1e df 3c 30 e9 84 3d
       0.022833023 0.018204544 0.02723638 0.064897895
0000e0 ed 6f 55 bb 8c a7 da bc 9b 11 c9 bb 69 3c ee bb
       -0.0032567934 -0.02669122 -0.006136132 -0.007270385
0000f0 71 40 1a bd fc 20 8e 3d 14 e1 a4 bc 6b 52 b6 3d
       -0.037659112 0.06939885 -0.020126857 0.08902439

StatefulPartitionedCall/sequential_5/dense_21/MatMul/ReadVariableOp:0 f4 [64, 64]
000000 80 e1 01 3c 2d 2a 77 be f2 91 25 3e fe fd 10 3d
       0.007927299 -0.24137183 0.16168955 0.035398476
000010 ff 8e d9 3d e9 88 ce bd 16 58 95 bd 45 23 e5 bd
       0.106229775 -0.10084707 -0.07292192 -0.11188368
000020 aa 4b d1 bd 69 16 ef 3d 51 f7 89 3e d5 c9 fc bd
       -0.1021951 0.11674196 0.269465 -0.12343184
000030 e3 af 44 be 94 e5 b7 bd da ba 7a 3d f4 a1 6c 3e
       -0.1920772 -0.089793354 0.06121335 0.23108655
000040 3e a6 56 be 6c e1 6b 3d de ab 56 be 2c 9f 4b 3d
       -0.20961854 0.057588026 -0.20964 0.049712345
000050 2f 9f bb be 47 e4 a7 3d 51 ce 02 bd bf 7d 1c be
       -0.36644885 0.08197837 -0.03193504 -0.15282343
000060 94 24 8a bd 72 29 8b bd b9 1b e8 bd 21 10 73 3d
       -0.06745258 -0.067950144 -0.11333413 0.059341554
000070 c4 0f 33 be 47 8e 30 3e 32 1d 24 3d 93 0a 85 3e
       -0.17486483 0.17241774 0.040066905 0.2598463
000080 0b 68 83 3e 1d 67 3c be b7 ae aa 3d 67 3e 3b be
       0.25665316 -0.1839871 0.083341055 -0.18285523
000090 07 0a 66 3e 52 6c 72 be 03 1e ae bd 84 68 9c bc
       0.22464763 -0.23674133 -0.08501818 -0.019092806
0000a0 86 1b 83 be 83 b9 0c bd b5 33 25 3e 8b 78 2d be
       -0.25606936 -0.034356605 0.16133006 -0.16940515
0000b0 fb 76 c6 bc e7 54 29 be a5 f8 4f 3d ca 69 cc be
       -0.024226656 -0.16536294 0.050774235 -0.3992446
0000c0 03 c1 93 be c9 93 88 be 89 10 3a 3e 2b 13 fe bd
       -0.28858194 -0.2667525 0.1817037 -0.12406
0000d0 a7 77 b7 3c a9 6e 43 3e e3 f2 f0 3d 14 f4 5a be
       0.022395922 0.19085182 0.11765077 -0.21382171
0000e0 4c af f7 3d d7 81 03 3a 20 ec 29 3c 61 92 4e be
       0.12093982 0.0005016601 0.010371238 -0.20173027
0000f0 50 ac 4b be 8a cd 02 bd 22 e3 48 3c 4a 72 52 be
       -0.19889951 -0.0319343 0.012261184 -0.2055141
000100 47 0f 86 be 17 bc 3c bc 9b b8 85 3d 0f 71 38 3e
       -0.2618353 -0.0115194535 0.06529351 0.18011878
000110 62 6f 42 3d 75 ea 18 3e 83 12 08 3e 1b 0b 36 be
       0.047469504 0.14933188 0.13288312 -0.17777674
000120 ce 49 dc bd 48 d1 19 3e fb fa a6 3d 5e cb d7 bc
       -0.107562646 0.1502124 0.081533395 -0.02634209
000130 f9 8c a3 3d 32 2a 20 3c dd e0 03 bd 91 45 b9 bd
       0.07985873 0.009775685 -0.03219687 -0.09046472
000140 27 88 9b bd e4 ca 38 be 97 af 9d 3d b6 ad 2a be
       -0.075943284 -0.18046147 0.07699507 -0.16667828
000150 e7 b5 14 bc d8 a1 1b 3e 6b 46 84 be d4 41 26 3e
       -0.009076572 0.15198457 -0.25834975 0.16236049
000160 45 64 66 be cd 48 03 bd 88 95 18 be e0 76 0c be
       -0.22499187 -0.03205185 -0.14900792 -0.13717222
000170 31 d1 9c bd e2 bb bf 3d 30 58 6e 3e 9c 88 a0 bd
       -0.076570876 0.09362008 0.23275828 -0.07838556
000180 35 4e bf bc 9d 1f 03 3e 28 07 82 be 65 a9 38 3d
       -0.023352722 0.12805028 -0.25396085 0.045083422
000190 7c 89 29 bd 76 00 fc bd 04 0f 4f 3d 92 36 4e be
       -0.04139088 -0.123047754 0.05055143 -0.20138004
0001a0 80 ca 21 be 03 c9 78 bc 06 9f 16 be db 0f 64 3d
       -0.15799904 -0.015184644 -0.147091 0.055679183
0001b0 8d f2 8a 3d c7 fc c1 3d 48 72 47 be a6 ca 54 be
       0.06784544 0.094720416 -0.19477189 -0.20780429
0001c0 2b 72 c6 3d fe 9d 4c bd 42 d7 2f 3d 9d 30 52 3d
       0.096897446 -0.04995536 0.042929895 0.051315892
0001d0 71 32 a7 be a5 8e e1 bd b8 7b ff 3c 90 b2 36 3e
       -0.3265567 -0.110135354 0.031186923 0.17841554
0001e0 8e dd 41 be 02 ae c2 3d 3c b8 83 be 8e e3 13 be
       -0.18932173 0.095058456 -0.25726497 -0.14442274
0001f0 61 d4 b3 bc 19 3c 59 3e b5 fc cc 3d 25 5f 5e be
       -0.021951856 0.21214332 0.100091375 -0.21715982
000200 77 41 0f be a6 c1 12 3d 96 9e b2 3d a9 1a 84 3e
       -0.13989817 0.03582921 0.08721654 0.2580159
000210 45 39 30 3c 49 17 8d 3e 8f 4e bb bc 9b 18 db bd
       0.010755842 0.27556828 -0.022864608 -0.106980525
000220 85 9a 49 be 33 00 24 3c 97 22 65 3e 09 7f a5 bd
       -0.19687851 0.010009813 0.22376476 -0.08080871
000230 34 24 48 3e 0e ac a0 ba 8d 3f 44 be 70 ab 5a bd
       0.1954506 -0.0012258308 -0.19164868 -0.05338615
000240 e6 e4 b4 3d 19 1d b2 be 5d 18 55 3e d3 bb 38 3e
       0.088327214 -0.34787825 0.20810075 0.18040399
000250 01 6d 82 be dd e4 93 3d 83 95 56 3e 46 5d 8a bc
       -0.25473788 0.072213866 0.20955472 -0.01689018
000260 e7 21 56 be 69 4d fd 3d a4 45 dd bd 15 86 09 be
       -0.2091137 0.123682804 -0.108042985 -0.13430054
000270 63 f4 76 3e 6b 49 36 be ba 94 1d 3c 9a 23 2c be
       0.24116664 -0.17801444 0.009617979 -0.16810456
000280 32 5d 27 be 23 61 5a bd 92 6b 9b bd 08 7e 2a bd
       -0.16344145 -0.053315293 -0.07588877 -0.0416241
000290 e2 5e 13 be a2 fb 52 be 69 6a 22 bd 75 33 d2 bd
       -0.14391664 -0.20603803 -0.039652262 -0.10263721
0002a0 09 c8 eb 3d 37 cc 16 3e 29 c6 9f bd c1 54 76 bd
       0.11512763 0.1472634 -0.07801468 -0.06013942
0002b0 e6 43 81 3e 5b 3f f3 bd 96 03 a6 be 1f 83 1a be
       0.25247115 -0.118773185 -0.3242461 -0.15089081
0002c0 89 75 4b be 9d b2 6b 3c 64 6f 0d 3e 82 6d ba be
       -0.19869055 0.014385846 0.13812023 -0.36411673
0002d0 1a ef a5 3b d6 de 6e bd 27 4e 5c 3e d7 47 18 be
       0.0050639035 -0.05831798 0.21514188 -0.14871155
0002e0 06 56 81 3e 0f 26 8e bd f3 0a 83 3e 0b 72 52 be
       0.25260943 -0.06940853 0.2559429 -0.20551316
0002f0 dd c5 96 3d 14 e8 23 be 2c 98 f4 3d e4 d3 0e be
       0.07361958 -0.160065 0.11943087 -0.13948017
000300 b8 57 ed 3d fa 6b 62 be b0 a6 74 3e 55 6d 32 3e
       0.11588997 -0.22111502 0.23891711 0.1742452
000310 6a e4 11 3d 26 9b 63 be 67 0a ba bd 8c 3d e1 3c
       0.035618223 -0.22227153 -0.09084015 0.027495168
000320 ad 8e 93 bc 29 dc ea bd e7 39 4d 3d 3a fb 2f be
       -0.018012369 -0.114677735 0.050104048 -0.17185679
000330 51 db 1e be 03 ae fe 3d 19 71 85 3d 76 09 f3 bd
       -0.1551335 0.12435534 0.06515712 -0.11867039
000340 75 e3 77 bd 43 81 6d bd fc d7 06 3e 39 7a 87 bd
       -0.060519654 -0.0579846 0.13168329 -0.06615109
000350 bb 61 96 bd 72 ad 0f 3d 1c 56 8c 3d 9c 34 27 3e
       -0.07342859 0.03507752 0.068523616 0.16328663
000360 74 06 89 be 16 f6 2b be ed 6f 09 3e 09 58 e2 bd
       -0.26762736 -0.16793093 0.13421603 -0.110519476
000370 89 70 80 3d 30 47 43 3e 41 ef ec bd d5 17 6b 3e
       0.062714644 0.19070125 -0.115690716 0.2295831
000380 44 12 d6 bd 4f 3d 24 3e 55 0c 39 3e 7d 23 e9 3d
       -0.10452703 0.16039012 0.1807111 0.11383722
000390 dc 96 d6 3d ca 7f 04 bd 00 5b bf 3d 72 51 e7 3c
       0.10477993 -0.03234843 0.09343529 0.028237078
0003a0 62 4e c6 bd bb e9 87 3e 35 fc 30 bd ca 51 cd bc
       -0.09682919 0.2654551 -0.043209273 -0.025063414
0003b0 2d dd 8b be ff 95 4e bd 89 76 81 be 2b d7 c2 bc
       -0.2731718 -0.050436016 -0.25285748 -0.02378424
0003c0 4f f2 2a 3e f5 c4 3a bd 58 4f 9d 3c 9a ba 34 be
       0.16693996 -0.04559799 0.019202873 -0.17649308
0003d0 b3 3f 72 bd 8a 6b 8b 3d 5d 7d b6 3d 4d df 95 be
       -0.05914278 0.06807621 0.0891063 -0.29271927
0003e0 f5 bc d1 3c 3f f2 d5 bd 49 ac a8 bd 76 3e 97 bd
       0.025602797 -0.104465954 -0.08235986 -0.0738496
0003f0 f3 f6 07 be e7 80 00 be 20 97 52 3e e2 80 55 3c
       -0.13277797 -0.12549172 0.20565462 0.013031216

StatefulPartitionedCall/sequential_5/dense_21/BiasAdd/ReadVariableOp:0 f4 [64]
000000 2d af f4 3b ea 2b 6f bd c4 5e 48 3c 29 84 30 3d
       0.0074671716 -0.05839149 0.012229625 0.043094788
000010 5b e3 ee 3d fb d1 c5 bc 41 9b 15 3c 21 be 64 bd
       0.11664458 -0.024147978 0.009131254 -0.055845384
000020 16 96 c5 3a ef 0e 91 3d fb af f0 3c 82 0d 7c 3b
       0.0015074636 0.070829265 0.029380789 0.00384602
000030 8f ca 88 3b f5 2a 1b bd a3 20 0e 3d 18 a8 8e 3d
       0.0041745375 -0.037882764 0.034699094 0.06965655
000040 b3 15 96 bc c3 71 a1 bc de 79 fa bc ce d3 19 bc
       -0.018320894 -0.019707566 -0.030575689 -0.009388877
000050 c9 6f 18 bd f8 13 7f 3d cd 13 25 3d 64 5e a7 3d
       -0.03721598 0.062274903 0.040302087 0.081723005
000060 9e 94 35 bc 4c aa 97 3c 00 8a 03 bd d7 ff b4 bb
       -0.011082796 0.018513821 -0.03211403 -0.0055236625
000070 08 18 5a 3c bd a9 8d 3d 58 e2 61 3d db b3 56 3d
       0.013311394 0.06917141 0.0551475 0.052417617
000080 02 d2 f8 3c 4c bb 01 3d e5 e5 c1 3c 65 91 8a bc
       0.030373577 0.03167276 0.023669193 -0.016915033
000090 8c 81 3d 3d 23 be 08 bd 43 d2 37 bc 54 e0 57 bc
       0.046266124 -0.033384454 -0.011219564 -0.013176043
0000a0 fd c0 86 bd 9d 11 74 bc 52 75 fa 3c e5 97 02 bd
       -0.06579778 -0.014896777 0.03057352 -0.03188314
0000b0 a9 e8 ed 3c a0 f6 a3 bc bf c8 0d bc 1a ec 88 bb
       0.029041605 -0.02001506 -0.008653819 -0.004178536
0000c0 9c 09 57 bd 45 87 a4 bd 79 09 98 3c e8 3c aa bc
       -0.0524994 -0.08033613 0.018559204 -0.020780995
0000d0 3a 60 9c bc 8b 32 90 3d b1 c7 c9 3c 67 33 e1 3c
       -0.019088853 0.0704089 0.024631353 0.02749033
0000e0 95 63 3b 3d fe 50 44 3d bf bd 62 3d 10 3b 96 b8
       0.045749266 0.047928803 0.055356737 -7.1635586e-05
0000f0 d1 df 9a bc e3 0e 89 3c 6f 24 ca 3d a7 2d a4 bd
       -0.018905552 0.016730731 0.098702304 -0.0801652

StatefulPartitionedCall/sequential_5/dense_20/MatMul/ReadVariableOp:0 f4 [11, 64]
000000 d1 6c 95 3d a8 78 80 3d b5 05 34 3e b0 57 85 be
       0.07296146 0.06273013 0.17580302 -0.26043463
000010 6e 14 cd bd d0 98 9e be ea 9b e5 3d 77 8c af 3e
       -0.10013662 -0.30975962 0.11211379 0.34286854
000020 63 92 f0 bc 00 7e 16 be 82 54 48 3e 0e 41 b8 3d
       -0.029366678 -0.14696503 0.19563487 0.08996783
000030 fb 27 37 be 57 d0 40 bd 6f 53 bb be e5 3c 20 3e
       -0.17886345 -0.04707369 -0.36587092 0.1564823
000040 02 30 0c bd 07 25 af 3e 50 2a 38 be d0 e6 31 be
       -0.03422547 0.34207937 -0.17984891 -0.17373204
000050 74 02 11 3e c8 10 c4 3d 1f 7e 03 3e 00 4c 96 3e
       0.14161092 0.09573513 0.1284108 0.29354858
000060 0b f0 55 3d 4d 2c 8d 3e 6f 55 0b bd 84 63 e9 bd
       0.052230876 0.2757286 -0.034017023 -0.11395934
000070 c5 48 32 bd 97 ad 28 3e 8c 09 44 3e e7 0e b9 bb
       -0.04352643 0.1647247 0.19144267 -0.0056475285
000080 bb 91 7a be c6 b4 1e bd 1b 82 80 be 68 16 4d 3e
       -0.24469654 -0.038746618 -0.25099263 0.20028079
000090 39 36 72 3e a4 84 6e 3e 31 f2 44 3e ed 18 35 3e
       0.23653497 0.23292786 0.19233014 0.1768529
0000a0 b1 02 f2 3c 56 20 43 be f9 c5 46 3e 42 a5 38 3e
       0.029542299 -0.19055304 0.19411458 0.18031791
0000b0 d4 bc aa 3d 3e 12 a9 bd 4b cb 92 3e a1 e0 82 3e
       0.08336797 -0.082554325 0.28670725 0.25562003
0000c0 b4 f0 28 be b2 4b 51 3d 37 53 82 3e 06 23 85 3e
       -0.16498071 0.05109758 0.25454113 0.26003283
0000d0 d0 60 1f be c8 19 8b 3e 20 72 ac be 39 cc 56 3e
       -0.15564275 0.27168107 -0.3368082 0.20976342
0000e0 20 16 9f 3a 86 ac 9d be 57 19 39 be c6 7f 56 3e
       0.0012137331 -0.30795687 -0.18076073 0.20947179
0000f0 22 dc 13 be a8 9f 1b 3d 81 c3 90 3e ef b7 4f 3e
       -0.14439443 0.037994057 0.28274158 0.20285009
000100 e8 2f c8 be 25 ca c4 3d dc 69 4a 3e 9c 2b 9b be
       -0.3909905 0.096088685 0.19766945 -0.3030671
000110 dd d5 0f 3e 75 4d 1f 3e bb 7a 05 3e ac 26 63 3e
       0.14046426 0.15556891 0.13035099 0.22182721
000120 be 04 f4 3c 2e 16 c7 3a 24 02 d9 3c d3 ac 55 be
       0.029787418 0.0015189105 0.026490279 -0.20866708
000130 6c f9 6f be f0 be 9e bd ae 47 50 3d 51 01 75 3d
       -0.2343499 -0.07751262 0.05084961 0.05981571
000140 a8 41 94 be f1 43 0d 3e d3 c5 37 3e 01 4f 8e be
       -0.28956342 0.13795449 0.17946558 -0.2779465
000150 99 cd 9d be 24 7b ed bd 15 90 09 be 16 ea bf be
       -0.3082092 -0.11595753 -0.13433869 -0.3748328
000160 1b 1d 32 3e 76 d6 ab 3d cb 92 aa be f5 ac e1 bd
       0.17393915 0.083905146 -0.3331512 -0.11019317
000170 ee d2 6c 3d 9e 8b 53 be 6a df 23 bd c3 fe 04 3d
       0.057818346 -0.20658728 -0.040007986 0.032469522
000180 b3 24 9c be 31 be 98 bd 81 aa 5c 3e 08 89 78 bc
       -0.3049675 -0.07458151 0.21549417 -0.01516939
000190 ad 5f bf 3e 4b e8 f3 bd 4b 04 66 be a7 8b 20 3e
       0.37377682 -0.11909541 -0.22462575 0.15678273
0001a0 89 c8 e1 3e c9 3a 68 bc 4b f2 28 3e 39 f7 19 be
       0.4409831 -0.014174172 0.16498677 -0.15035714
0001b0 7e c2 4e bd 0a 2c f1 3d 35 4a 0b 3e e8 47 ab 3d
       -0.05047845 0.11775978 0.13602526 0.083633244
0001c0 e3 ed 49 3e 08 b9 15 3e f7 56 43 3d d5 92 bb 3e
       0.19719653 0.14621365 0.047690358 0.3663546
0001d0 ff cc 68 bd 6f 7a 06 bf 90 9d 80 be 02 94 68 3e
       -0.056836125 -0.5253057 -0.2512021 0.2271271
0001e0 54 e1 85 be 33 35 2a 3d fe 33 1b 3e 2c b8 83 bc
       -0.26148474 0.04155464 0.15156552 -0.01607903
0001f0 b7 fe c8 3d a5 23 af 3d 0c 11 11 be a7 5a 04 3e
       0.09814208 0.085517205 -0.14166659 0.12925206
000200 09 50 d1 3c a2 f6 84 bd 43 9e 15 3d 07 2d e7 3c
       0.025550859 -0.06492354 0.036527883 0.028219713
000210 49 fd 47 bb 87 01 9f bd 57 76 1b bc 8a 7f 0e 3d
       -0.003051596 -0.07763963 -0.009488664 0.0347896
000220 2f 91 17 be 72 36 c6 bb 18 69 d6 bd f7 60 9a 3e
       -0.14801477 -0.006048971 -0.10469264 0.30152103
000230 68 13 59 be 81 6a 3f be 37 7a 3f be 3a ae 6f be
       -0.21198809 -0.18692972 -0.18698965 -0.23406306
000240 3b 35 83 be d0 b4 06 be 04 19 53 3d 44 7d 67 3d
       -0.2562655 -0.13154912 0.05153753 0.056515947
000250 a1 a7 10 3e e5 6c 9b bd be 0d 30 3b df 98 1c 3e
       0.14126445 -0.07589129 0.002686366 0.1529269
000260 53 3e f9 3d 99 67 09 be 9c e3 fe bd 62 4a 88 be
       0.121700905 -0.13418426 -0.12445757 -0.2661925
000270 de fa 04 be 8c e7 1b bd 9c 82 46 bd 89 22 57 be
       -0.12986323 -0.038062617 -0.048464403 -0.21009268
000280 9d 84 66 be 85 10 c9 bd 3d 4d b1 bd 13 83 d1 bb
       -0.22511525 -0.09817604 -0.0865731 -0.006393799
000290 b4 b2 49 3e 5d ed 2b 3e 14 eb 38 be 5d 23 43 be
       0.19697076 0.16789766 -0.18058425 -0.19056459
0002a0 1c ce c2 be 9d cb 54 3d 95 6a 17 3e ea 92 90 bd
       -0.38047874 0.051951993 0.14786752 -0.07059272
0002b0 cf 2b ae bc 14 ea 8d 3e 81 1c 86 3d b9 f6 2e be
       -0.021261124 0.2771765 0.065484054 -0.17086305
0002c0 25 5c 68 be 62 aa cb 3d 4e 04 87 3d e2 1e ac bd
       -0.226914 0.09944607 0.06592618 -0.08404328
0002d0 e2 db 02 bd a5 4d 1b bd fe 73 e5 3c f5 48 09 3e
       -0.031947978 -0.037915844 0.028009411 0.13406737
0002e0 bd 83 27 be 36 dd b4 bd 72 b5 fd 3d cb aa 60 3e
       -0.16358848 -0.08831255 0.123881236 0.21940152
0002f0 c0 a6 05 3e e6 a9 ee 3d 11 3c 1d bd e5 cd 4d 3e
       0.13051891 0.11653499 -0.038387362 0.20098074
000300 38 c1 00 3e 02 ac 64 3e 1e 2b 38 bc 31 56 db bd
       0.12573707 0.22331241 -0.011240749 -0.10709799
000310 99 82 bd bc 3a 2b f4 bd f6 ad df 3c a6 5d a1 bd
       -0.023133563 -0.11922307 0.02730463 -0.0787919
000320 4d fc 09 ba 77 5b 45 3e f1 88 a8 be 4a 7a 9a be
       -0.0005263731 0.19273172 -0.32916978 -0.30171424
000330 86 91 eb 3c e8 cd 78 3d e0 16 c2 bd 1f c9 33 be
       0.028755914 0.060743243 -0.09477019 -0.1755719
000340 58 01 8e be ff ad 19 3c 18 1d b3 bd e1 18 86 3e
       -0.277354 0.009379863 -0.087457836 0.26190856
000350 21 6c 11 3e c7 ea fd bc 5c fb 11 3c 18 ae 52 bd
       0.14201404 -0.03099574 0.008910026 -0.05143556
000360 15 67 6a be ce 3e 92 be dc 7f 88 3e fc dd 1e be
       -0.22890885 -0.2856354 0.2666005 -0.15514368
000370 50 ad 84 be 2a 17 05 be 60 8f 1a 3e 74 a0 41 3e
       -0.25913477 -0.12997118 0.15093756 0.18908864
000380 a2 4d 0f 3e 18 51 31 be 75 32 5a be 13 28 08 3e
       0.13994458 -0.17316091 -0.2130831 0.13296537
000390 fe 0f 49 bb 76 75 33 bd bb f1 01 3e b7 97 70 3e
       -0.0030679698 -0.04381319 0.12689869 0.23495375
0003a0 0e 70 c0 bd 74 48 98 bd 8a 39 5a 3e 9a 9d b6 3d
       -0.09396373 -0.07435694 0.21311012 0.08916779
0003b0 a0 f9 14 3e 50 c5 fc bc 6f 44 66 be 0a 95 3a 3d
       0.1454835 -0.030855805 -0.22487043 0.04555229
0003c0 42 26 c9 bc 6a 7b 1f be aa 43 57 3e 3b 5a 6a 3e
       -0.024554376 -0.15574422 0.21021906 0.22885983
0003d0 46 d7 81 be 0a c9 ff bc 4e 86 b4 bc 54 f1 9f 3d
       -0.25359553 -0.031223793 -0.022036698 0.078097016
0003e0 09 b3 89 be 2e 41 9a be 92 d7 6a be 7a 4b bd bb
       -0.26894405 -0.30127853 -0.22933796 -0.00577682
0003f0 41 74 4e 3e 0d c7 43 be 2a 80 76 bd 44 80 be bd
       0.20161535 -0.191189 -0.06018082 -0.093018085

StatefulPartitionedCall/sequential_5/dense_20/BiasAdd/ReadVariableOp:0 f4 [64]
000000 e3 e6 b8 3c 61 23 82 bc c1 87 df 3c 94 4e 84 3d
       0.022571033 -0.01588601 0.027286412 0.064603
000010 7e a3 ee 3c 1c 34 04 3d 53 d2 87 bd 82 9f 0f bd
       0.029130694 0.032276258 -0.06631913 -0.035064228
000020 7d 4f 89 bd da c5 e6 3c 87 16 6b bd c6 6b 9f bd
       -0.06704614 0.028170515 -0.05739453 -0.07784228
000030 f7 97 35 bd 24 ef 76 38 de 70 a2 3c 9d 90 4e bd
       -0.044334378 5.8873688e-05 0.01982921 -0.050430883
000040 21 51 76 bd 7c e4 93 3d 27 35 06 3c 9f e5 7e 3c
       -0.060135964 0.07221314 0.008191383 0.015557676
000050 1a c9 59 bd 53 38 2d 3d cd 9b 17 bd 5a ad b9 bd
       -0.0531703 0.042290043 -0.037013818 -0.09066267
000060 a1 f3 5f 3c 82 7a 56 bd 05 63 29 bd 16 2f bf bd
       0.0136689255 -0.052362926 -0.041354198 -0.09335153
000070 9e 88 a1 3c 95 05 5f bd f3 d2 73 bb 89 b2 29 bd
       0.019718464 -0.054448683 -0.0037204593 -0.04143003
000080 43 f6 4b bd 2c 38 44 bc c4 51 3e 3d 5c 06 c8 bc
       -0.0497954 -0.011976283 0.046464697 -0.024417095
000090 bd 72 53 bb 9d 7d ba bd 39 32 ac bd fd dc ae bb
       -0.0032264434 -0.0910599 -0.08408017 -0.0053364024
0000a0 56 65 ff 3c d4 d1 33 bd 80 37 cc bd 0d 6a 36 be
       0.03117625 -0.04390128 -0.09971523 -0.17813893
0000b0 8a 5b 35 3c 44 62 a6 3c a7 d3 a0 bd 02 a1 76 bd
       0.011069188 0.020310529 -0.078528695 -0.060212143
0000c0 4c 84 0a bc 4d 11 24 bd 7a 52 de 3c 94 cc 2a bd
       -0.008454394 -0.04005556 0.027138937 -0.041699007
0000d0 64 ca ed bd 04 b6 ed bc fd f3 a5 bc e3 d4 d5 bd
       -0.116108686 -0.029017456 -0.020257944 -0.104409955
0000e0 dc a7 da bd 05 36 9d bb 41 53 8f bc e1 92 43 bd
       -0.10676548 -0.0047976994 -0.017495753 -0.047747497
0000f0 85 f3 37 3d 5f 8b 71 bd 11 4f 43 3c e4 f8 b9 bd
       0.044909973 -0.058970805 0.011920706 -0.09080675
