resources/loan_model_beta.onnx (onnx, 40927 bytes, 9 tensors)

StatefulPartitionedCall/sequential/dense_3/MatMul/ReadVariableOp:0 f4 [64, 1]
000000 73 3c 06 3f d5 b0 c6 3e a2 94 a6 bd 1c 61 cf be
       0.5243599 0.38806787 -0.08133818 -0.40503776
000010 e8 02 9f be 36 dd 7e be 24 da 93 3d 0e 7e 94 3d
       -0.31056905 -0.24889073 0.072193414 0.072506055
000020 a0 37 ad be f1 be 81 be fb 2f 1d 3f 02 9e ba be
       -0.338315 -0.2534099 0.6140134 -0.36448675
000030 c0 34 89 3e d5 22 98 bd e4 0a 90 be 5e 92 a7 3d
       0.26798058 -0.07428519 -0.2813331 0.08182214
000040 5b a5 a7 3e ca 0e 2d 3e ad 1b bf 3e f3 fc af be
       0.32743344 0.16900173 0.37325802 -0.34372672
000050 5c 0d f4 bd fe 2d 90 3e dd 79 4e 3e 9b 88 00 3f
       -0.119166106 0.2816009 0.20163675 0.50208443
000060 44 7e e5 bd 64 04 08 bf b1 65 f8 be f4 6c 11 3e
       -0.11205724 -0.531317 -0.48515084 0.14201719
000070 6a 34 74 3e 1a 33 18 3f 5c a4 30 be ae 9c b9 3e
       0.2384812 0.59452975 -0.17250198 0.3625235
000080 2a 4d 00 be 0b 56 be 3e bf 52 d0 bd cf d5 52 3e
       -0.12529436 0.3717502 -0.101720326 0.20589374
000090 82 9d 46 be db e8 ac be 09 03 29 be 09 12 00 3e
       -0.19396022 -0.33771405 -0.16505064 0.1250688
0000a0 91 a7 dd 3e f6 47 53 bb 18 4e b5 3e 46 6f 25 be
       0.43291906 -0.0032238937 0.35411143 -0.16155729
0000b0 69 b0 a6 3e e8 6b 8c 3e 93 d8 0e 3f 79 90 aa 3e
       0.32556465 0.27426076 0.55799216 0.3331335
0000c0 92 66 8e be 62 01 b2 3e 93 99 88 be 1e a9 a4 be
       -0.2781263 0.3476668 -0.26679668 -0.32160276
0000d0 fd b1 ca bd 6d 3b e8 bd bb 11 db 3e 6d 55 93 be
       -0.0989723 -0.113394596 0.42786965 -0.28776112
0000e0 77 18 19 be 94 ee 9a 3c 85 27 a5 be 37 b9 a2 bd
       -0.14950739 0.018912591 -0.32256714 -0.07945483
0000f0 e6 20 9f bd b7 a9 91 3e d1 c8 1a bd b6 a2 84 3e
       -0.07769947 0.28449795 -0.03778917 0.2590539

StatefulPartitionedCall/sequential/dense_2/MatMul/ReadVariableOp:0 f4 [64, 64]
000000 16 7b ab 3c 61 74 27 be 64 7d 15 bc 7b bf 6d 3e
       0.020932715 -0.16352989 -0.009124134 0.23217575
000010 e8 cf 1a be 58 83 6e 3e b5 8b 2c be 6b c3 d5 be
       -0.15118372 0.23292291 -0.16850169 -0.41750655
000020 c1 b5 2f bd 13 be 01 be f4 02 64 be bd 57 7e 3e
       -0.042897943 -0.12670164 -0.22266752 0.24838157
000030 9c db 14 be 04 7f a3 3d 34 91 2d be 4c 3d 33 be
       -0.145369 0.07983211 -0.16949922 -0.17503852
000040 64 75 77 be b7 60 87 be 06 13 90 3e e1 0f 9a 3e
       -0.24165875 -0.26440975 0.28139514 0.3009024
000050 1d 69 b8 bb 77 3e cd be d3 29 43 bd 3b 06 9e bd
       -0.005627765 -0.4008672 -0.04764731 -0.07716032
000060 d3 d8 02 be 94 23 8b bd 90 bb 38 bd 28 06 ca be
       -0.12778024 -0.06793895 -0.04510075 -0.39457822
000070 f6 30 5e be b8 90 13 be 0d fb 21 3d 6e 3d 29 3e
       -0.21698365 -0.14410675 0.03954606 0.1652734
000080 c6 26 2a 3e 62 5c 3f be 0c 21 ba bd 24 6b 87 bd
       0.16616353 -0.18687585 -0.090883344 -0.06612232
000090 7f 5f 8f 3e 44 12 0e be d3 af 80 3e 48 58 b4 3d
       0.28002545 -0.13874155 0.25134143 0.08805901
0000a0 36 04 38 3c 43 f9 e9 bc 38 67 40 3d b1 32 52 be
       0.011231473 -0.02856124 0.046973437 -0.2052715
0000b0 36 fb 45 be 35 31 a2 ba 05 cf 63 be 1f 25 c5 bd
       -0.1933411 -0.0012374284 -0.2224694 -0.09626221
0000c0 0f 73 44 3e a5 87 16 3e f6 54 a8 3d 6b 55 62 3e
       0.19184516 0.14700182 0.0821933 0.22102897
0000d0 27 22 61 3e fd cd 86 3d dd 75 7d bd 85 10 42 bc
       0.21985684 0.06582258 -0.06187998 -0.011844759
0000e0 ef 19 07 bd ca 54 7b bd 4a 84 32 3e e3 0e 1f 3e
       -0.032983717 -0.061360158 0.17433277 0.15533023
0000f0 5b 13 bf 3d 86 7e 7b 3e 91 06 20 be 5e 18 73 3e
       0.09329864 0.24559984 -0.15627505 0.23739764
000100 3d fe 50 be 91 07 c5 bd 71 d3 37 be d8 07 e7 bd
       -0.20409484 -0.09620584 -0.17951752 -0.11280793
000110 ac 3d 64 be 42 5d bf bd 00 34 f3 3d 8a 0e 92 bd
       -0.22289151 -0.093439594 0.118751526 -0.07131679
000120 1d a4 1c 3e 1b 11 96 3d a6 16 9e be 77 4b 3a bd
       0.15296979 0.07327481 -0.30876654 -0.045482125
000130 5d 64 2c bd 94 74 df bd 66 0a c0 bc fe d5 f7 3d
       -0.0420879 -0.109109074 -0.023442458 0.12101363
000140 3d 7a 1c be 54 46 81 bd 02 84 71 3d 0e 83 2f 3d
       -0.15281005 -0.06312242 0.058963783 0.042849593
000150 07 d0 5e 3e d2 5b a4 bd bf e5 f7 3d 96 e7 93 be
       0.21759044 -0.08025326 0.121043675 -0.28887624
000160 ac 60 72 be 8a 94 16 3d 44 02 02 be 25 44 bc 3c
       -0.2366969 0.03676275 -0.12696177 0.022981713
000170 38 4a 1f bd ea cf af 3c fe cc de bc fe ac bb bd
       -0.03888914 0.021461446 -0.027197357 -0.09163855
000180 8f a7 f2 3c 73 9e 0e 3e f1 d9 aa bd 1c c2 e7 3d
       0.029620914 0.13927631 -0.0834235 0.1131632
000190 7e d2 a3 3d ac 2f af bd 12 7b e4 3d bb 8e fb 3d
       0.079991326 -0.085540146 0.11156286 0.12283083
0001a0 3a d7 4e 3c 47 22 b4 bd 22 3f db bc fe 8f 62 be
       0.012624556 -0.087956004 -0.026763503 -0.22125241
0001b0 a2 2a a4 bc 7a d6 61 3e 9b 7e 71 be 73 e1 27 be
       -0.02003986 0.22054473 -0.23583452 -0.16394596
0001c0 b3 3f c0 bd 90 fd 01 be 3c 57 56 be a1 aa 81 bd
       -0.0938715 -0.12694383 -0.20931715 -0.06331373
0001d0 04 86 24 3e b5 a7 89 3c fd 4c 89 be e9 0b 08 3e
       0.16066748 0.016803602 -0.2681655 0.13285793
0001e0 2d 29 31 be d4 34 49 bd 94 42 aa 3d 07 70 c7 3c
       -0.17300864 -0.049122646 0.0831348 0.024345411
0001f0 3f 2c ae bd e3 ba 35 be f8 8d 1b be 0c 47 ad 3d
       -0.08504533 -0.17747073 -0.15190876 0.08460817
000200 90 b1 d9 3e e3 b2 a9 3e da fb 4b be 22 3e 13 bc
       0.42518282 0.33144292 -0.19920292 -0.008986982
000210 9e 97 06 be 9b 93 0a bd 29 b9 d9 bd 51 94 67 3c
       -0.13143775 -0.033832174 -0.106310196 0.0141344825
000220 3f b9 a4 3d 0c 36 65 bd a0 c9 0b 3c 86 07 22 3e
       0.080431454 -0.055959746 0.008531958 0.15823182
000230 08 4c d2 3c 2e e7 ee 3d cc f8 c5 be 41 32 03 bd
       0.02567102 0.11665188 -0.3866638 -0.032030348
000240 44 37 97 3e aa 66 83 3d 06 08 9e bd ae cf 93 bd
       0.29534352 0.06416066 -0.07716374 -0.07217346
000250 f0 9d 21 3e ad fd 8b 3e 50 1f 84 3e da f6 e1 3d
       0.15782905 0.27341977 0.2580514 0.11033411
000260 aa 38 f0 3c b6 a0 dc be 3d 4e 9e 3e 7f 27 f6 bd
       0.029323895 -0.43091363 0.30919066 -0.12019252
000270 d1 0f 12 bc 88 11 42 3e 94 29 7f bd 2a d0 9e 3d
       -0.008914904 0.18952 -0.06229551 0.07754548
000280 fe 5c 00 bd 05 c0 31 bd ba f4 64 be a3 db 67 3e
       -0.031338684 -0.043396015 -0.22358981 0.22642379
000290 dd f6 d1 bc 75 91 df b9 61 92 63 be 70 c9 b3 bd
       -0.025630409 -0.00042642248 -0.22223808 -0.087786555
0002a0 d0 ec 49 3e dc e3 90 bd 93 d2 4f 3e 1b c1 63 3e
       0.19719243 -0.07074711 0.20295171 0.22241633
0002b0 17 c0 22 3e 60 b4 a1 bd bc fb 14 3e 35 5b e7 3d
       0.15893589 -0.07895732 0.14549154 0.11296693
0002c0 61 d8 35 bd 66 b3 65 3e cd 8c f4 bd 5c d5 5a 3e
       -0.044395808 0.22431716 -0.11940918 0.21370453
0002d0 70 63 46 be 89 17 ca bc 6f cc 2b 3e d4 d5 ee bd
       -0.1937387 -0.024669426 0.16777204 -0.11661878
0002e0 ca 0d ec 3d 21 be f4 3c ad 87 22 be 87 30 31 bc
       0.115260676 0.029875817 -0.15872069 -0.0108147925
0002f0 05 88 e0 bd 89 ed 96 3e aa a2 b2 be c0 be 11 3e
       -0.10963444 0.294781 -0.34889728 0.14232922
000300 48 d6 81 be 37 07 56 3e 40 21 31 3e 0d c2 1a 3d
       -0.25358796 0.2090119 0.1729784 0.037782717
000310 af ff b4 bd 46 6d 16 bd f0 34 5f 3e 96 bf 84 be
       -0.0883783 -0.036725305 0.21797538 -0.25927418
000320 38 a7 26 3e 97 a8 08 be 9a 0c ab be ee be 83 3d
       0.16274726 -0.13345562 -0.33408052 0.06432901
000330 a1 8a 04 be 55 f9 df 3d 12 1f bf 3d b4 3e 68 3e
       -0.12943508 0.10936228 0.09332098 0.2268017
000340 9f 20 04 3e 97 16 80 3e 00 aa 61 3e 52 c9 7f 3d
       0.12903069 0.25017235 0.22037506 0.062447853
000350 12 a6 e0 bd b3 1b 13 3e dd 76 25 3e 9c 54 b4 be
       -0.109691754 0.14366035 0.16158624 -0.35220802
000360 90 87 41 be 7e 9f d4 3d 78 55 07 be a1 e2 41 3e
       -0.18899369 0.10381983 -0.13216197 0.18934108
000370 26 5b 85 3e 6f a3 b3 3d 87 45 56 3d 4b 83 ae 3d
       0.26046103 0.08771407 0.0523124 0.08521136
000380 1d bf b4 bd 5b 70 5f 3e 5e 2f 0f be 56 fa 8a bd
       -0.088255145 0.21820204 -0.13982913 -0.06786029
000390 8a 20 68 3e dc 25 ff bd 55 fa b6 3d cb 51 09 3e
       0.22668663 -0.12458393 0.08934466 0.13410108
0003a0 a5 14 34 be 5b 9e 31 3d 0e 79 1e be 3e 7a 3f 3e
       -0.17586 0.04336391 -0.15475866 0.18698975
0003b0 b6 6d c8 3d 2a f5 5d 3e 8c 65 27 be 81 61 38 be
       0.09786551 0.21675554 -0.16347331 -0.18005945
0003c0 f9 64 04 3d 04 2b 29 3e 91 40 2f 3e fa 79 d4 bd
       0.032322858 0.16520315 0.17114474 -0.10374828
0003d0 a0 30 b4 3d 37 d8 a2 3c c3 86 13 bc 92 6f 51 3d
       0.08798337 0.01987849 -0.009004298 0.051131792
0003e0 19 76 23 3e 0a 85 47 3e 91 90 f6 bd 2b bc c6 3d
       0.1596302 0.19484344 -0.120392926 0.09703859
0003f0 ba e4 5e 3d be 18 14 3e 2a 7b 2a be 59 1a b0 bd
       0.05441735 0.14462563 -0.16648546 -0.085987754

StatefulPartitionedCall/sequential/dense_2/BiasAdd/ReadVariableOp:0 f4 [64]
000000 a2 eb 2f bc 44 62 c4 3a 9a 01 1b bb a8 e5 21 3d
       -0.010737332 0.0014982899 -0.0023652078 0.039525658
000010 ed 70 0d 3d 61 ea 47 3d a7 3a 5a 3c d0 e2 f9 3b
       0.034531523 0.048807506 0.013319648 0.007625915
000020 14 9f 0e 3d 5b 23 ef 3c 71 3c 76 ba 49 48 13 3d
       0.034819677 0.029191663 -0.0009393162 0.03595761
000030 22 6a 75 3a 3f d5 73 bb df a2 8b bd 40 fa 9a 39
       0.00093618233 -0.0037205962 -0.068181746 0.0002955962
000040 54 4e 23 3c fd cc 7d bd 30 e4 67 bd 3c 61 6a 3d
       0.009967405 -0.06196307 -0.0566141 0.057221636
000050 64 cb 2f 3d 19 12 a6 3b 8f f1 a9 bc c0 52 03 bd
       0.042918578 0.0050680754 -0.020745067 -0.03206134
000060 5d ea 50 bd 91 4d e5 3c 6a ff a7 bd 40 aa bc 3c
       -0.051004756 0.027991088 -0.08203013 0.0230304
000070 20 03 09 bd f1 f6 1f 3c 0c 74 93 3c 0f ad 17 bd
       -0.033450246 0.009763465 0.017999671 -0.037030276
000080 a3 ba 87 3c dc 3f 52 3d 04 04 3d bb 6b 42 54 bc
       0.016568488 0.051330432 -0.0028841505 -0.012955288
000090 d4 35 ff 3c c2 5d fc 3c c5 99 e8 3b 3c c2 c4 bc
       0.031153597 0.030806426 0.007098409 -0.0240184
0000a0 e3 e6 ca bc 2e 88 a9 bd 35 42 58 bd 1c f6 15 bd
       -0.024768298 -0.08277927 -0.052797515 -0.03661166
0000b0 5b 16 d6 3a d4 78 25 3d 39 4f 93 bc 2a 5b 80 3d
       0.0016333567 0.040398434 -0.017982112 0.06267388
0000c0 ed 93 cb 3c 95 6d 17 3d 31 d6 45 3d 94 7e 4b bd
       0.02485081 0.03696974 0.048299972 -0.04968126
0000d0 eb 3a bf 3c 90 53 6d 3d 09 26 81 ba 87 cf df bc
       0.023343524 0.05794102 -0.0009853254 -0.027320636
0000e0 8d fc a4 3d 56 b5 65 bd 7a 96 5f 3c 30 e4 2c 3d
       0.08055983 -0.05608114 0.013646716 0.042209804
0000f0 76 22 94 3c 2c fb 82 bd cb bd 96 3c 6b f8 a4 bd
       0.018082839 -0.063955635 0.018401047 -0.080551945

StatefulPartitionedCall/sequential/dense_1/MatMul/ReadVariableOp:0 f4 [64, 64]
000000 94 cb ff 3d f1 40 cf 3d 48 57 23 be bb 8d 0d be
       0.12490001 0.101198085 -0.15951264 -0.13823597
000010 ac d7 8e bd c2 9e eb 3d f0 ce b6 3d 0b a5 0e 3e
       -0.0697473 0.1150489 0.08926189 0.13930146
000020 39 f0 55 be 40 98 3f be 38 58 88 be 54 5c ce bc
       -0.20892419 -0.18710423 -0.26629806 -0.02519051
000030 eb 6e 91 be 11 ae 17 bd 24 9b 12 3e f5 9f 4e 3e
       -0.28404936 -0.037031237 0.14316994 0.20178206
000040 f9 2c 4f 3e af a8 16 be bf 2e 08 bd 44 b8 8c 3e
       0.20232 -0.14712785 -0.033247706 0.27484334
000050 07 4a 4f be 4f aa 30 3e 77 6c 11 3e 86 4e 64 3d
       -0.20243083 0.17252468 0.14201532 0.05573895
000060 6b 56 92 bd 98 0f 11 bd 73 fc 25 3e 41 68 b6 be
       -0.07145389 -0.035415262 0.16209583 -0.35626414
000070 12 1a 5a 3e c9 89 aa bd dd 16 f3 3d 20 ab 6c 3e
       0.21299008 -0.08327062 0.11869595 0.23112154
000080 6f d4 c5 3c 25 c6 63 be 05 e0 87 be 37 6b 07 3e
       0.024149148 -0.22243555 -0.265381 0.13224493
000090 f5 2f 4b 3e 5e e3 2c be 2e 54 b5 3d 43 b5 67 be
       0.19842513 -0.16883609 0.088539466 -0.2262774
0000a0 ec 71 9c be d3 60 9c 3d 9c 4a af 3d 17 5c 94 bd
       -0.30555665 0.07635655 0.085591525 -0.07244127
0000b0 56 da 3e bd 11 c3 8b 3c 83 f0 59 bd a7 86 49 3e
       -0.04659494 0.017060788 -0.053207885 0.19680272
0000c0 4c 52 01 3e cd e7 09 3e 4d 69 9e bd 35 a2 3e be
       0.1262905 0.13467331 -0.07734928 -0.18616565
0000d0 e4 80 33 3e 1c f0 58 3e fa 9e 50 be a5 24 0f 3e
       0.17529637 0.21185344 -0.20373145 0.13978823
0000e0 d8 bf 69 3e e5 55 5c bd dc 6e c2 bb 9b bb 8f bd
       0.22827089 -0.053792853 -0.0059336256 -0.07018205
0000f0 63 97 b1 bd 1e 13 3e 3c eb 8f 95 bc 6b b7 47 3c
       -0.08671453 0.011601238 -0.018257102 0.012189726
000100 16 e7 43 bd 24 8e 14 bd b8 2b 92 be e9 25 91 bc
       -0.047827803 -0.03626837 -0.2854898 -0.017718272
000110 d5 fd 3a bd fe a6 e8 3d d2 bd be 3d da 8b 89 3d
       -0.04565223 0.11359976 0.09313549 0.06716128
000120 2b ed 20 3e 36 39 90 bd df 02 2c 3d 25 23 37 3e
       0.15715472 -0.07042162 0.041994926 0.178845
000130 17 7f 8e 3e f2 42 6e 3e 63 63 2f 3e 33 df 02 be
       0.27831337 0.23267725 0.17127757 -0.12780456
000140 c4 db 2f be 00 c0 82 bc 9d 7e ae be 7e c2 1c 3e
       -0.17173678 -0.015960693 -0.34080973 0.15308568
000150 44 1c 7a 3e 8a fb ed 3d 12 65 da bc 56 cf 0f be
       0.24424845 0.11620243 -0.026659522 -0.14043936
000160 d3 bd 97 bd 68 a5 69 3e 39 9d 69 3e cb e8 07 3d
       -0.07409253 0.22817004 0.22813882 0.033180993
000170 7a 08 96 3d f9 de 1a 3e f8 4b e8 bd 46 07 7a be
       0.073258355 0.1512412 -0.11342615 -0.24416837
000180 76 2b 4e 3e ff bd 32 bd 48 82 35 bd be 24 19 bd
       0.20133767 -0.043638226 -0.0443137 -0.037388556
000190 f4 c2 24 3d ed 84 d1 3d 0f dc a4 be cc ed 95 bc
       0.040224984 0.10230432 -0.3219914 -0.018301867
0001a0 57 bc cf 3d 36 19 35 3e 8e b7 9d be 53 e0 22 3e
       0.10143345 0.17685398 -0.30804104 0.15905885
0001b0 a0 e6 8b 3d 3e c7 ce 3d d1 92 9c be 39 7c 10 3e
       0.068310976 0.10096596 -0.30580762 0.14109887
0001c0 98 45 96 3e 59 67 ea 3d e5 69 79 bd d4 31 eb bd
       0.2934997 0.11445493 -0.060892005 -0.11484113
0001d0 7d 93 bc 3d 6b 6d a6 bd a8 ac 32 be c4 1b d1 bd
       0.09207819 -0.081263386 -0.17448676 -0.10210374
0001e0 d3 58 99 be f4 cb 1e be ba ba d1 bd 5a a4 47 be
       -0.2995058 -0.1550749 -0.102406934 -0.19496289
0001f0 a3 f5 97 3d 6a 85 53 3e 66 f0 01 be da d1 0d be
       0.07419898 0.20656362 -0.12689361 -0.13849583
000200 12 6d be bb 76 01 ae 3d f0 04 9d 3e 54 f8 e4 bd
       -0.005811342 0.084963724 0.3066783 -0.11180177
000210 83 bf c3 bd 48 e7 b9 3e 19 29 c3 3d f7 dd fd bd
       -0.09558012 0.36309266 0.09529323 -0.12395852
000220 e2 9d 0c bf 40 7a 7d 3b 26 69 11 be ec e0 32 be
       -0.5492841 0.0038677603 -0.14200267 -0.17468613
000230 01 ce 97 bd dd e1 dc bd c2 1d f8 bb d1 6a 6b 3e
       -0.07412339 -0.107852675 -0.007571907 0.22989966
000240 82 77 2d 3e fa 72 38 be 22 48 9d bc 7d 85 1c be
       0.1694012 -0.1801261 -0.019199435 -0.15285297
000250 09 62 9f 3e 58 6b 5f 3e 4b 3c 82 bd 20 2b 01 bc
       0.31129482 0.21818292 -0.06359156 -0.007883817
000260 ca 5e 53 3d 52 d1 ee 3d e8 c4 f3 bd 0b 56 a4 bd
       0.05160407 0.116610184 -0.11902791 -0.08024224
000270 5f c0 86 3e 42 cc 89 3e da 33 76 be de d2 b5 3a
       0.26318642 0.2691365 -0.24043217 0.0013872047
000280 32 6e 17 be b3 91 55 3e 96 68 9b 3d 88 9f 47 3e
       -0.1478813 0.20856361 0.075883076 0.1949445
000290 24 14 93 3d ec a7 fc bc 51 4e 45 3e 3a 41 dc 3d
       0.07181576 -0.03084179 0.19268157 0.107546285
0002a0 85 f3 f8 bc a7 e3 29 be 7f 2b 58 3e 1b cf 9d 3e
       -0.030389557 -0.16590749 0.21110342 0.3082207
0002b0 fb 23 05 bd 68 9e d2 3a 08 9f 08 3e 5f ba 8d be
       -0.032505017 0.0016068937 0.13341916 -0.27681252
0002c0 b0 99 a7 bd cb 0d 84 be 9c 75 8a be 84 f5 2b 3e
       -0.081836104 -0.25791773 -0.27042854 0.16792876
0002d0 4c a1 b3 bc 34 10 2b 3d fe 95 63 3d bf 2c d2 3e
       -0.021927498 0.0417635 0.055562966 0.41049764
0002e0 a4 99 94 3e 29 a9 76 3e 3d 50 69 be f3 fd 14 3e
       0.29023468 0.24087967 -0.22784515 0.14549999
0002f0 7c a9 68 ba c5 8f cd bd da 7d 18 bd 77 10 34 3e
       -0.0008875353 -0.100371875 -0.037229396 0.17584406
000300 7e 25 95 bd dc 41 f4 bd 1b ac 5c 3d 61 c5 18 3e
       -0.07282542 -0.11926624 0.05387507 0.14919044
000310 c5 04 4b be c4 78 da 3d f7 bd 42 3e 5e f3 9a 3d
       -0.19826038 0.106675655 0.19017778 0.0756595
000320 74 0f 02 be fd f5 b2 3d 79 80 39 3d 07 bc 0d be
       -0.12701207 0.08738325 0.045288537 -0.13841258
000330 60 77 c9 3d 13 cd bc 3c 55 86 52 3e 83 f8 ab 3d
       0.09837222 0.023047006 0.20559056 0.08397009
000340 3c 72 07 3e 18 da ad bd 13 6c 86 3d 62 a0 e3 3c
       0.1322717 -0.08488864 0.06563582 0.027786437
000350 1c 68 9b 3c 45 5e 4d 3e 6a 6d 52 be 14 b4 95 3d
       0.018970542 0.20055492 -0.2054955 0.07309738
000360 6b 05 33 3e 35 31 05 bc 34 65 66 3e ff c5 8a be
       0.17482536 -0.008129408 0.22499543 -0.27104184
000370 b3 ec fe 3d f9 99 40 be d4 75 5b bd dc b5 f2 3d
       0.124474905 -0.18808736 -0.053579167 0.11851093
000380 7b 21 00 be 4b 4b 7d 3d 52 e2 6e be 97 e8 44 be
       -0.12512772 0.061839383 -0.23328522 -0.19229351
000390 ae 6d 51 bd e9 61 96 bd 01 82 31 be 14 6e 3b be
       -0.05112999 -0.07342894 -0.17334749 -0.1830371
0003a0 37 74 af be e8 ac 63 3e 30 b8 34 3e 70 32 6b 3e
       -0.34268352 0.22233927 0.17648387 0.22968459
0003b0 80 e7 21 3e fe c3 27 bd 04 80 6e 3e 2a c7 0a 3e
       0.15810966 -0.040958397 0.23291022 0.13552538
0003c0 44 d7 98 3d a5 5a 4e be b9 a7 78 bc f3 ef e2 bd
       0.07462934 -0.20151766 -0.015176707 -0.11080923
0003d0 01 09 81 be fa 28 92 3d 83 76 c0 bd 1b f8 38 3e
       -0.25202182 0.07136722 -0.09397604 0.18063395
0003e0 13 1f cb 3c f8 b7 24 3e 3a 3c 6e 3c 50 e9 95 bd
       0.02479509 0.16085804 0.014540726 -0.073198915
0003f0 be 7d 3e be 3b ea df bd a4 b2 17 3e 70 44 36 bd
       -0.18602654 -0.10933348 0.1481424 -0.04449886

StatefulPartitionedCall/sequential/dense_1/BiasAdd/ReadVariableOp:0 f4 [64]
000000 83 0d 11 3e cf f0 d6 bc f6 88 07 bc ea ea c4 bb
       0.1416531 -0.026237873 -0.0082724 -0.0060094493
000010 35 54 68 3d 97 67 1b 3d 3c af 8f bb ae 54 0e 3d
       0.05672093 0.037940588 -0.0043849032 0.034748726
000020 8a 03 0b 3d 57 b2 84 3d 3e 34 75 bd 40 ef 33 3c
       0.033938922 0.06479328 -0.059864275 0.010982335
000030 95 4a 25 3d e4 66 56 bb 5d ee ca 3c 37 d4 ff bc
       0.04035433 -0.0032715136 0.024771864 -0.031229122
000040 06 c2 c5 3a d8 93 d0 bc 35 3c b0 bc 36 d8 1a bd
       0.0015087731 -0.025461122 -0.021513084 -0.03780385
000050 0b 5d be bb 34 07 26 bc 43 80 0a bc 38 de 4e bd
       -0.0058094314 -0.010133553 -0.008453432 -0.050504893
000060 0c 81 5d ba 75 9e 26 3c 16 b7 ca bc 34 db 90 3d
       -0.00084497104 0.010169615 -0.024745505 0.0707306
000070 f3 20 31 bd 5e 64 50 bb 4f 90 ce 3c 19 8a d8 3c
       -0.043244313 -0.0031798105 0.025215296 0.026433038
000080 59 ac 2d bd c7 96 8d 3d 38 38 6b bd 8c 92 48 bd
       -0.04240069 0.06913524 -0.05742666 -0.048967883
000090 ea 88 f1 ba 43 0b 47 3d b0 b5 a5 bd f2 2b 80 bc
       -0.0018427644 0.048594724 -0.08091295 -0.015645955
0000a0 9c ab 8b 3d 18 1d c9 3d 6e 93 52 bc 10 e5 6e bd
       0.06819841 0.09820002 -0.012852533 -0.05832392
0000b0 e0 7d 1c bd 32 35 8c bc e7 ba aa bc b5 d7 7e 3c
       -0.03820598 -0.01711521 -0.020841075 0.015554358
0000c0 e6 00 92 bc cf fb 10 3c 30 d3 83 bc 77 01 6e 3d
       -0.017822694 0.008849098 -0.016091913 0.058106866
0000d0 43 c4 3b 3c 70 a4 c1 3c 9e 03 33 3d 89 cb f7 bc
       0.011460367 0.02363798 0.04370462 -0.03024842
0000e0 ac 42 3f bc ef 4e 26 bc 9b f1 84 bd 48 c3 53 3d
       -0.011673611 -0.010150655 -0.06491395 0.051699907
0000f0 0a 8f c6 3b 99 e5 3c bd 6a a6 39 bd b2 e4 ac bb
       0.006059532 -0.0461174 -0.04532472 -0.005276286

StatefulPartitionedCall/sequential/dense/MatMul/ReadVariableOp:0 f4 [11, 64]
000000 ce 25 3a be 3c e2 2a 3d ad fe ba bd 4c 4d af bd
       -0.18178484 0.04171966 -0.09130607 -0.08559665
000010 e7 23 92 be 22 c4 2a be 49 f3 9a 3c 1c 32 97 be
       -0.28543016 -0.16676381 0.018914836 -0.29530418
000020 fa 5a b9 be a2 1f 33 be 98 ac 04 bd 12 02 0d 3e
       -0.36202222 -0.17492536 -0.03239116 0.13770321
000030 1f 45 9c be 7a 52 5c 3d f2 59 21 3e b7 31 a8 3d
       -0.30521485 0.053789593 0.15756968 0.08212607
000040 f0 c4 85 bc 01 93 16 3e 62 ca 48 3e c2 65 68 be
       -0.016329259 0.14704515 0.19608453 -0.22695068
000050 2d 5f b4 3e 34 79 92 3e ec cc 99 3e 6e a9 02 3e
       0.35228863 0.28608096 0.30039155 0.12759945
000060 f3 33 ec 3c 0c 6b 31 3a 0d e7 23 be 4a cb 71 be
       0.028833365 0.00067679654 -0.16006108 -0.23612705
000070 b9 87 8c be ce 45 a6 3d 93 a2 63 be de 7d 6d be
       -0.27447298 0.08118783 -0.22229986 -0.23192546
000080 ba 87 3a 3e 13 de c3 bd 55 23 3b 3e b5 ae 98 bd
       0.18215838 -0.09563842 0.18275197 -0.07455198
000090 a2 5f 75 be 3b 88 7a 3e 2a 52 5b 3e 3b 9e 32 3e
       -0.23962262 0.2446603 0.21418062 0.17443173
0000a0 71 3f f8 3d bd 70 48 be 47 86 89 bd 58 54 80 3e
       0.121214755 -0.19574256 -0.067150645 0.2506435
0000b0 81 33 1d be e5 65 65 3e 15 23 9a 3e 8e c3 41 3e
       -0.15351678 0.22402151 0.3010489 0.18922254
0000c0 26 a5 28 be eb 1e 13 be ce 97 6a bc 79 30 bb bc
       -0.16469249 -0.14367263 -0.01431842 -0.022850262
0000d0 5a e2 02 3e c0 f3 d5 bc 46 cb 6c 3e 64 ad 70 be
       0.12781659 -0.026117206 0.23124418 -0.23503643
0000e0 20 75 24 be ce a4 ad 3d e8 cf f3 3d b0 9d ab 3e
       -0.16060305 0.084786996 0.11904889 0.33518744
0000f0 d9 ee 3f bd 52 9f 6b 3e 37 19 a4 3e 8a 6b 12 be
       -0.046858642 0.23009995 0.32050487 -0.14298835
000100 58 6f 26 3e 93 ea 61 3e c8 db 7a be 84 aa a7 bd
       0.16253412 0.22062139 -0.24497902 -0.0818682
000110 05 99 13 3e 73 d6 04 3e 56 c2 7f be a1 80 d8 bd
       0.14413841 0.12972431 -0.24976477 -0.10571409
000120 b3 ae 09 bd e7 b3 81 be 49 31 a3 be c8 21 98 be
       -0.03361387 -0.25332567 -0.3187354 -0.29713273
000130 c1 bf 6e 3e 15 c0 7a 3e c7 17 93 be 35 99 24 be
       0.23315336 0.24487336 -0.28729078 -0.16074069
000140 25 1b 4e 3d bd b5 2b 3e 4e dc 44 be 7a e6 4e 3d
       0.050318856 0.16768546 -0.19224665 0.05051277
000150 95 d8 44 3e 52 d1 5a be 21 ce 81 3e 8e 6f 15 be
       0.19223244 -0.21368912 0.25352576 -0.14593336
000160 0e 45 00 bf 36 38 23 bd d2 70 99 3e 89 da 98 3e
       -0.5010537 -0.03984853 0.29968888 0.2985423
000170 23 6c 2c be 65 48 a1 bc d3 a5 70 be 8d b4 64 3d
       -0.16838126 -0.01968784 -0.23500757 0.05583625
000180 d5 c5 45 bd 19 84 43 3e 55 10 85 3e 5a 68 b3 be
       -0.04828437 0.1909336 0.25989023 -0.3504055
000190 6d 0e b3 3d 4f c5 94 3e 80 38 86 3e 8e 37 52 3e
       0.08742986 0.29056785 0.2621498 0.20529005
0001a0 f6 4a e9 3e 77 13 9f be 06 48 83 be ea b3 04 be
       0.45565003 -0.31069538 -0.25640887 -0.12959257
0001b0 89 b7 e0 bd 09 93 00 bd c1 e6 a7 3e 23 fc 03 be
       -0.109725066 -0.031390224 0.3279324 -0.12889151
0001c0 34 02 89 bd 09 39 66 3e c8 47 d8 be cd 78 5a be
       -0.06689873 0.22482695 -0.42242265 -0.21335144
0001d0 8d 05 a0 3e 06 d1 a0 bc df c0 82 3c ee c8 b3 bc
       0.31254235 -0.01963092 0.015961109 -0.021946397
0001e0 f8 ed f6 3d 85 f7 51 3e f5 08 17 bd 8e f4 72 3e
       0.12057108 0.20504577 -0.036873776 0.23726103
0001f0 0a 3e b5 3e 7b 0b b0 bd da 75 78 3e ae 61 5d 3e
       0.35398895 -0.0859594 0.24263707 0.21619293
000200 91 ff 2f 3e 73 e4 ff bd 35 b8 a6 3d 06 16 df bb
       0.17187335 -0.12494745 0.081406035 -0.0068080453
000210 98 87 81 be 5e a3 99 3c 65 b5 9e be ab aa 8f 3e
       -0.25298762 0.018754657 -0.30997768 0.28059897
000220 c5 e6 81 3d 64 f3 22 be 9b 98 43 bd f4 ad 82 3e
       0.06342844 -0.15913159 -0.047752958 0.2552334
000230 e4 82 25 be 0c 5c 32 3e c6 55 0b be f8 98 9e 3d
       -0.16163212 0.17417926 -0.13606939 0.0774402
000240 5b 68 04 be 4b 80 0b 3e e6 6f aa be 47 15 8f 3d
       -0.12930433 0.13623159 -0.33288497 0.0698648
000250 75 4f 2d be 56 ee 1c 3e 7a 73 4d 3e fb 9e bc bd
       -0.16924842 0.15325293 0.20063582 -0.092100106
000260 35 e3 a0 3e 50 42 69 bd 0b f7 e3 bd 7f 75 a4 3c
       0.31423345 -0.056948006 -0.11131104 0.020075558
000270 28 39 40 be 05 a3 49 be 72 7f 51 bd 08 67 07 bc
       -0.18771803 -0.19691093 -0.051146932 -0.008264311
000280 23 df 8e be 05 d3 8e bd 26 14 1c 3e 4e c0 a6 3d
       -0.27904615 -0.069738425 0.15242061 0.08142148
000290 4b 7a 96 3d df fe 49 3d ee e8 58 3e d3 e0 bc 3d
       0.07347544 0.04931533 0.21182606 0.09222569
0002a0 82 f5 73 be 31 b6 81 3e ef 74 f5 bd d0 2a 43 3e
       -0.23824123 0.25334314 -0.11985194 0.190593
0002b0 5c c5 6e 3c 27 2f 05 3e 3a 18 63 3e b9 6f 94 be
       0.014573421 0.13006268 0.2217721 -0.28991488
0002c0 5f 01 3c be e0 49 17 3a 66 cd 38 be 3b c1 45 3e
       -0.18359898 0.0005771201 -0.18047103 0.19311993
0002d0 57 fe 39 3e 61 a7 70 3e a3 de 3b be e5 3f 74 3d
       0.18163429 0.2350135 -0.18346648 0.059631247
0002e0 7d 70 7b bd 3e 9a bc 3d c3 1f 2e be 92 8c 33 bd
       -0.061386574 0.09209107 -0.17004304 -0.04383523
0002f0 49 3b b9 3e c4 2f 31 be 15 15 7f bd cd 25 bd 3e
       0.36178043 -0.17303377 -0.062275965 0.36942902
000300 7e f4 57 3e 58 cc a4 bd e1 2d a2 3e 86 19 24 3e
       0.2108936 -0.08046788 0.31675628 0.16025361
000310 3b e4 80 3e ee 3d 25 be 4e 96 c9 3d ef da a0 3e
       0.25174126 -0.16136906 0.098431215 0.31417033
000320 f6 a5 08 3e 83 32 e2 bc a2 c3 19 3e 88 15 26 bc
       0.13344559 -0.027611976 0.15016034 -0.010136969
000330 02 7a 99 3e d7 b4 8d 3e 0f 42 02 be 12 ad b2 bd
       0.29975897 0.27677032 -0.12720512 -0.08724417
000340 46 4e 31 be 7e 50 1d 3e 00 96 9a bc ab f6 02 3e
       -0.17315015 0.15362737 -0.018870354 0.12789409
000350 02 96 cc bc e1 46 ad be 26 ba 78 3e 3d ec 45 be
       -0.024973873 -0.3384314 0.2428976 -0.19328399
000360 92 9f 59 3e b8 d3 a8 be de 35 13 3e fc 0e 2b 3e
       0.21252277 -0.3297403 0.14376017 0.16704935
000370 09 15 86 be 36 b4 56 3c 9f e9 25 be 71 d9 15 3d
       -0.26187924 0.013104489 -0.162024 0.03658432
000380 a0 cb 1f 3b f4 ee 34 3e 96 fa 58 3e 5f ff 35 be
       0.0024382845 0.17669278 0.21189341 -0.17773198
000390 2c 05 01 3e 7a e5 af 3d 33 b9 85 3e 8b 90 5b be
       0.12599629 0.08588691 0.26117858 -0.21441858
0003a0 6b f6 9a 3e ae 4d c0 3c da da 72 be de fb c0 bd
       0.30266127 0.02347454 -0.23716298 -0.0942304
0003b0 29 ae e7 3d cf 7f b3 3d 80 9e 3b 3d 48 9f a3 3e
       0.11312515 0.08764612 0.045805454 0.3195746
0003c0 6b a2 58 3d 8e b6 77 be 2d 32 ca bc 7f a4 c2 3d
       0.05288927 -0.24190733 -0.024682129 0.095040314
0003d0 05 dc 04 be 79 50 71 3e 7d ec 31 be 22 83 96 3e
       -0.12974556 0.23565854 -0.1737537 0.2939692
0003e0 54 53 49 3e f0 1e 67 3e 62 41 bd 3c 86 f7 8f be
       0.19660693 0.22570395 0.023102466 -0.28118533
0003f0 d1 98 90 3e 49 e4 53 3e 03 b3 41 be 59 ef a3 be
       0.2824159 0.20692553 -0.18915944 -0.32018545

StatefulPartitionedCall/sequential/dense/BiasAdd/ReadVariableOp:0 f4 [64]
000000 3b e8 ad 3c e2 5e a9 bd 57 49 ae bd 3e 23 f1 bd
       0.0212289 -0.082700506 -0.08510082 -0.117743
000010 a4 b1 b5 3b 30 fb 3d bb 47 6a 27 bd 44 eb c0 3c
       0.005544858 -0.002898883 -0.04087284 0.023549683
000020 43 39 df bc a4 99 ec bd e7 c0 d8 ba 8e 30 94 bd
       -0.027248984 -0.11552742 -0.0016536982 -0.072358236
000030 91 d4 86 3d 3b a2 c0 bb 10 8d e9 ba 3b b3 88 bd
       0.065835126 -0.0058787144 -0.0017818529 -0.066748105
000040 f1 cf 2c 3e 22 32 2c bd 1f 3f dc bd 3f 5b 8e bd
       0.16876198 -0.042039998 -0.10754227 -0.069509976
000050 39 5c 58 3d c2 ec 2f bd fd bf 6c bd ce b9 d8 bd
       0.052822325 -0.0429504 -0.05780028 -0.105823144
000060 8a 57 04 3d fc 08 d4 bc db 60 0f be cf 8f 58 bd
       0.032310046 -0.02588319 -0.14001791 -0.05287152
000070 0e 7f 9b 3c 4e 03 85 bd ce df 22 be da c3 87 bc
       0.018981483 -0.06494771 -0.15905687 -0.016572881
000080 3a 8a a0 bd 83 ba 89 bd 12 54 a6 bd 07 ce 7c bd
       -0.078388646 -0.067250274 -0.08121504 -0.06171992
000090 cc 5c 1e bd 23 86 20 3c 35 11 be 3c 0a 77 fa bc
       -0.038662717 0.009797606 0.023201564 -0.03057434
0000a0 40 59 1d 3b 32 ec ab 3d 2d 5a 89 bb 43 c6 40 bd
       0.0024009496 0.0839466 -0.004191658 -0.047064077
0000b0 5e 49 20 be 94 38 12 be 95 29 9b bd 7a f4 be bd
       -0.15652987 -0.14279395 -0.075762905 -0.09323974
0000c0 42 f1 92 bd d4 b5 e3 bc 2e c6 92 bd a3 c1 80 bd
       -0.071749225 -0.027796663 -0.07166706 -0.06286933
0000d0 a1 0c 2c bd c7 22 82 3c e6 b2 2f bd e0 a6 3e be
       -0.04200423 0.015885724 -0.04289522 -0.18618345
0000e0 66 7c 3a 3c 43 8b 02 3d e6 bd 79 bd bf 5b 0d be
       0.011382198 0.03187109 -0.060972117 -0.1380453
0000f0 69 0e 20 bd a3 e6 2d be d2 6c 81 bd 62 f6 cc bd
       -0.039076243 -0.16982512 -0.06319584 -0.10007931

StatefulPartitionedCall/sequential/batch_normalization/batchnorm/sub:0 f4 [11]
000000 46 69 06 bf 1e 07 e7 bf 01 b8 0e c0 df a6 e2 bf
       -0.52504385 -1.8049047 -2.2299807 -1.7707175
000010 38 9a a8 bf 56 0b 9b bf eb ed e8 bf 50 fd fc c1
       -1.3172064 -1.2112834 -1.8197607 -31.623688
000020 d6 6e 53 be e2 4e a0 c0 58 a3 de bf
       -0.2064775 -5.0096292 -1.7393599

StatefulPartitionedCall/sequential/batch_normalization/batchnorm/mul:0 f4 [11]
000000 5f 66 b6 3f f5 01 f8 36 fb 17 88 3f 2e 42 1f 40
       1.4249991 7.391204e-06 1.0632318 2.4884143
000010 00 76 18 40 cb 42 14 40 49 6f 18 40 72 fb fc 41
       2.3822021 2.3165767 2.3817923 31.622776
000020 00 28 49 40 48 8f b5 39 12 a9 31 3a
       3.1430664 0.00034629763 0.00067772076
