resources/loan_model_beta.onnx (onnx, 42278 bytes, 9 tensors)

StatefulPartitionedCall/sequential_5/dense_23/MatMul/ReadVariableOp:0 f4 [64, 1]
00000000: 770b 5cbe 720e c83e 1ff2 df3a 1514 58bc
00000010: 686e 233f 9320 b9be 2eb8 563e ecf1 45be
00000020: 1db6 053f c770 0cbf 6242 31be a39a 50be
00000030: eba7 71be 0341 25be 753c 833e e096 8d3e
00000040: 2c7b 7fbe e09a 7ebe 82e4 9fbe 9127 e6bd
00000050: 2d84 efbe c188 1b3e fecc c03e 5c91 083e
00000060: 06ec a7be 8e40 623e 66a3 06bf 9823 a63c
00000070: b465 c43d b680 3c3f 552e 053e 6c0a 82be
00000080: d399 9cbe 65e9 37be f2d5 e8bd df68 ae3d
00000090: d9cf c9be 29cf 843e 7d7f d7be 8e7d 953e
000000a0: cb35 37be b7be dcbe ecac a83e 49a0 ce3e
000000b0: 23a2 3b3e 3eec 29be 39c8 333e 41eb 4dbe
000000c0: 003d 98bd 63d6 d4bd 751a 99be bed4 1abf
000000d0: 609a f1bd d6ee 843e 5053 13be 38ab b43e
000000e0: ece9 ad3e 8381 093d 4a53 bc3e 106e 0a3f
000000f0: 4f1f 7fbe c452 d83e e6dd e33e f50b d4bc
-0.21488748 0.3907352 0.0017085708 -0.013188382 0.6384034 -0.36157665 0.20968696 -0.19330567
0.5223101 -0.54859585 -0.1731048 -0.20371489 -0.23599212 -0.16138081 0.25632063 0.2765417
-0.2494933 -0.24863768 -0.31229025 -0.112380154 -0.4678053 0.15188886 0.37656397 0.133367
-0.3279726 0.22094938 -0.52593076 0.020280644 0.09589711 0.736339 0.13005956 -0.25398576
-0.3058611 -0.17960127 -0.11368932 0.08516096 -0.39416388 0.259393 -0.42089453 0.29197353
-0.17891614 -0.43114254 0.3294443 0.40356663 0.18323569 -0.16594025 0.17556848 -0.20109273
-0.0743351 -0.103924535 -0.29902998 -0.6048087 -0.11797023 0.25963467 -0.1438725 0.3528688
0.3396753 0.033570778 0.36782295 0.5407419 -0.24914287 0.42250645 0.44505233 -0.025884608

StatefulPartitionedCall/sequential_5/dense_22/MatMul/ReadVariableOp:0 f4 [64, 64]
00000000: 6777 513c 6058 60be 78fd 153e 2cbc 293e
00000010: 1634 29be baa7 c0bd f34d 113e 9741 a3be
00000020: 302d e5bd fe66 cbb9 6061 603c dd2c 57be
00000030: 7983 3e3e 825e 223e eea4 dabc 3afe 3bbe
00000040: 0535 833e c7ec c83d 411e 63bc 0638 4b3e
00000050: 4b89 af3d 0d22 dbbd 61fb 9dbd cdbb ae3d
00000060: df8b 743d 9059 973d 10fb 993d b2aa 623d
00000070: 70e3 c0bd 6eef 003e 3d52 a2be cc5e 553d
00000080: 95d2 373d 974d df3d 099e 6dbe 1af3 1cbd
00000090: 4e6c aa3d 1273 ad3d d981 3d3d 1c7c 953c
000000a0: ceb0 b1bd 66ee 00be 7af5 3bbe c1a4 4f3e
000000b0: c644 07bd 2779 20be 25f4 9a3d 86ce f8bd
000000c0: b46f 0abe 0c98 08be 3dca 8d3d 9a6f 92bd
000000d0: 1114 d33d 8eae 883d f584 c33d 0c32 123d
000000e0: f7c3 3abe dadf 8f3d e7ef fd3d fedf 07be
000000f0: 7d2e dabe a75d 3dbe f1fe 183d 3c12 d43d
00000100: 5acc 903b 4149 6fbe 653e 7439 d4dc 173e
00000110: 349c af3c 0a51 df3c b01a 493e b90e 1a3e
00000120: 3e7c 57be 5bac a63c ff59 123d 0c2b 1abe
00000130: b544 4c3d 6209 6d3e 026f 923e 096d 0dbd
00000140: 3362 fe3d 2552 b1bd 5bc8 063e 71bb 573e
00000150: 40a8 a13d e17e db3d dcf8 fabc 7cba 27be
00000160: 67af c2bd f782 ae3d bc5a 463e e78c 1cbd
00000170: 19c1 fa3d b8ee 11be 4675 f0bc 28ed b13d
00000180: 87fc 173e 9e17 33bd 508a 7d3d 0845 29be
00000190: b063 513e bbff 09be 57a8 993e bf3d b3bd
000001a0: 8181 d13d 6060 a3bd a86a 2e3e 7583 6bbe
000001b0: 33df 93bc d1a0 3b3d 162e 7c3d 7e72 02be
000001c0: ed24 d0bd 1630 be3d 1712 05be 95bc 5a3d
000001d0: 5af2 2fbe 2796 dfbd 3ef2 723d 32f2 a4be
000001e0: 18de 803d 87ed 20bd 4185 a4be 7183 0ebe
000001f0: 150c e1bd f57f 2bbc e241 b7bd 0231 03bd
00000200: f938 85bd d0ee c53d 87c4 6ebe 69da 85bd
00000210: 6f01 dc3e fa90 12bd b9b9 3c3d 3ba2 8ebd
00000220: 6e57 c03e d489 203e cae4 45be 2539 6bbe
00000230: 9c14 55bd 519a 55be 189d f7bd 77a5 7b3e
00000240: c9f1 0dbe cab6 05be 97c3 f83c fba2 19be
00000250: 13a4 cb3d 9921 a33e c646 c03e 8687 a4bb
00000260: e546 b4bd 8979 e23d 38a8 14bd 3204 1c3e
00000270: e9db b83e 00ce 023f 14b7 8d3e f8a7 17be
00000280: 7257 58be d334 68be 4b7b bc3d 385e a13e
00000290: 5893 d1bd 8311 2a3e 76e0 72bd 9883 833e
000002a0: f4c1 c0bd 6de5 b8be 677e c13c e8e7 403e
000002b0: 3371 b13e 4bda 96be 6e35 923d 35da b73d
000002c0: 0c9a 6ebe c685 a2bd dce4 8f3d befe b7be
000002d0: 7f52 14be 2b64 153e 1719 1cbe ee4b 6d3e
000002e0: 577c a13e bbb2 163e dec9 843e c507 52bd
000002f0: 0d0f 3bbe 1160 db3d d0a4 bb3e d48a 87bd
00000300: 252f 503e 63a6 7abe 7a15 c93d d2ab b43d
00000310: 4dc1 33be 034f 173e a70b df3d a5be 083e
00000320: d6bb 12be 3e63 23be 49f9 16be c02c 4ebe
00000330: 6ad3 e33d 9946 f63d ed03 6ebe bc64 513e
00000340: 2e2b 9b3c 26e8 10be b857 063e 2d75 943c
00000350: 40ac 28be c943 2b3e bceb c73d f4cc 533e
00000360: c1f7 d03d ec2e 3e3e b28c 21be c32b a9bd
00000370: 2fd2 2ebd f1b8 d73d aa73 513e 6cca 49bd
00000380: 6a57 4f3e 62a4 c3bd a460 12be 3db7 583b
00000390: 8501 3a3e c9e6 13bd be68 4abe 3d7d 1a3e
000003a0: 4bfb 68bc b311 793e 971c c4bb 5a0c 2b3c
000003b0: 46a9 5bbe 6e4e 30be d0a8 4abe 2c81 29bb
000003c0: 7c0d a7bd 53ad e6bb bd77 b03d 2d34 46bd
000003d0: 8a1a a83d 1789 3c3e bbe4 1f3e b723 b63b
000003e0: c347 b6bd 59b6 69bd df3d f8bc f447 00be
000003f0: 5b1e 96bc f026 0e3e 5a4c 56be 1b52 8f3d
0.012784815 -0.21908712 0.14647472 0.16575688 -0.16523775 -0.09406991 0.14189892 -0.3188598
-0.111902595 -0.00038795912 0.013695091 -0.21013208 0.1860484 0.15856364 -0.026689973 -0.18358698
0.25626388 0.09810787 -0.013862194 0.1984559 0.085711084 -0.10699854 -0.07713962 0.08531914
0.059703704 0.073901296 0.075185895 0.05533857 -0.0941838 0.12591335 -0.31703368 0.05209236
0.04487856 0.10903471 -0.23204817 -0.038317777 0.08321439 0.084692135 0.04626641 0.018247657
-0.08676301 -0.12590942 -0.1835536 0.20277692 -0.03302457 -0.15671216 0.07566098 -0.12148766
-0.13519174 -0.13339251 0.069233395 -0.071501926 0.10306562 0.06673919 0.09546844 0.03569226
-0.18238817 0.07025118 0.12399273 -0.1326904 -0.42613593 -0.18492757 0.037352506 0.103550404
0.004418892 -0.23367788 0.00023292897 0.14830333 0.021436788 0.027260322 0.19639087 0.15044679
-0.21043488 0.020345857 0.03573036 -0.15055484 0.04987021 0.2314811 0.28600317 -0.034527812
0.12421074 -0.08658246 0.13162367 0.21067597 0.07893419 0.107175596 -0.030636244 -0.16379732
-0.095061116 0.08521073 0.1937055 -0.038220312 0.12243862 -0.1425122 -0.029352795 0.08687812
0.14842425 -0.043723695 0.061899483 -0.1653024 0.20448184 -0.1347646 0.30011246 -0.087520115
0.10229779 -0.079773664 0.17032874 -0.22999366 -0.018050766 0.045807663 0.06156739 -0.12738988
-0.10163293 0.092865154 -0.12995182 0.053402502 -0.17182294 -0.10917311 0.05931305 -0.3221603
0.06292361 -0.039289024 -0.32132915 -0.13917328 -0.109886326 -0.010467519 -0.08948113 -0.03202916
-0.06505007 0.096646905 -0.23317157 -0.06535799 0.42969844 -0.03578279 0.046075556 -0.06964537
0.37566704 0.15677577 -0.19325557 -0.22971018 -0.052021608 -0.20859648 -0.1209051 0.24574839
-0.13861765 -0.1305801 0.030366702 -0.15003578 0.09943404 0.3186157 0.37553996 -0.0050210385
-0.088025846 0.11058337 -0.03629324 0.15235975 0.36105278 0.5109558 0.2767874 -0.14810169
-0.21127108 -0.22676401 0.09203204 0.31517196 -0.10233182 0.16608243 -0.059296094 0.25686336
-0.094119936 -0.36112538 0.023619844 0.18838465 0.34656677 -0.2946342 0.07139097 0.089771666
-0.23300952 -0.079356715 0.07026073 -0.3593654 -0.14484595 0.14588992 -0.15243946 0.23173496
0.31540176 0.14716618 0.25935262 -0.05127694 -0.1826746 0.107116826 0.3664918 -0.06618276
0.20330484 -0.24477534 0.098185495 0.088218346 -0.17554207 0.14776234 0.108908944 0.13353975
-0.14329466 -0.15955827 -0.14743532 -0.20134258 0.111243084 0.12025184 -0.23243685 0.20448583
0.018941488 -0.14151058 0.131194 0.01812228 -0.16471958 0.16725077 0.0976176 0.20683652
0.10203505 0.18572587 -0.15776327 -0.082603 -0.042680915 0.10533322 0.20454279 -0.04926531
0.2024819 -0.09552838 -0.14294678 0.0033068203 0.18164642 -0.036108766 -0.19766518 0.15086837
-0.014220069 0.24323158 -0.0059848535 0.010439957 -0.21451291 -0.17217419 -0.1979096 -0.0025864346
-0.08156869 -0.007039705 0.08616588 -0.048389602 0.08208187 0.1841167 0.15614597 0.0055584568
-0.08900406 -0.057058666 -0.03030294 -0.12527448 -0.018325021 0.13882041 -0.20927563 0.06998082

StatefulPartitionedCall/sequential_5/dense_22/BiasAdd/ReadVariableOp:0 f4 [64]
00000000: 45f5 b73d 9d88 47bd c0c5 11bd d429 25bd
00000010: b0fd a03d 5b4b ae3d 3668 6ebc 81ec af3d
00000020: a955 40bd cab6 b8bd 2418 2dbd 1954 2abd
00000030: d0dd 5e3d ee22 473d 7a79 d1bc 175f c7b9
00000040: d2f7 7d3d bafe b93d 6429 9d3d 1b1e 3d3c
00000050: 2a92 0e3d ea07 9abc cebc 2bbd f0cb 10bd
00000060: 2eac a83d 494c 33bd 1677 c33c b142 90bd
00000070: 905c 9cbc ee23 7a3c 609a a8bc 0002 db3c
00000080: 57a4 9b3d a049 e73c 738e 933d 5694 eabc
00000090: 03de 69bd f686 a23c 9056 6bbc 0b83 24bd
000000a0: 0d14 7b3d 3cab 493d dde4 2cbd 8330 89bc
000000b0: 2a22 19bd ac45 4c3d b350 84bb dc4b af3b
000000c0: d39c 03bd b222 16bc fa95 8d3d de7c f93d
000000d0: ca47 2a3d 64fd 813d 3920 9d3d 16c0 18bc
000000e0: f77e 47bd 746b 29bd 8fc4 56bd f1c7 2cbc
000000f0: 0f4f 8cbd ffee 053d bac7 19bd c9cf 543c
0.08982328 -0.04871427 -0.03558898 -0.040323094 0.07860887 0.08510467 -0.014551213 0.085900314
-0.046956692 -0.09019239 -0.04225935 -0.041584108 0.054410756 0.048617296 -0.02557062 -0.00038027085
0.062003918 0.09081788 0.0767391 0.011542822 0.03480736 -0.018802602 -0.041928105 -0.03535074
0.08235966 -0.043773923 0.023860496 -0.070439704 -0.019087106 0.015267355 -0.020581424 0.026734352
0.07599705 0.02823335 0.072049044 -0.028635185 -0.057096492 0.019839745 -0.0143639 -0.040164035
0.06129842 0.049235567 -0.04221045 -0.016746765 -0.037386097 0.04987113 -0.0040379404 0.0053496193
-0.03213198 -0.009163545 0.069133714 0.1218202 0.04157237 0.063471586 0.076721616 -0.009323141
-0.048705067 -0.04136224 -0.052433547 -0.010545717 -0.06851017 0.032698628 -0.03754399 0.012988993

StatefulPartitionedCall/sequential_5/dense_21/MatMul/ReadVariableOp:0 f4 [64, 64]
00000000: f1cb 88bc 8246 36be 24b5 5e3d 090b 1a3e
00000010: d976 3a3e f17b 3cbc c3d8 9dbc b1c7 7d3c
00000020: 4ee7 36be 71d8 a53d f2c7 3a3e e3f8 76be
00000030: b67c 51be 4d99 07be 4b54 68be c0ba 733e
00000040: 1cac 9dbe dd0c 5b3e e66d 51be 3b70 fe3d
00000050: 4dac 70bd c5d1 573e 484a 00be 33eb cbbd
00000060: 21f5 80be 3c2d 04bd f869 89bd f524 9a3c
00000070: 54c5 5fbe 0c3f 523e 4ef6 1ebe da95 703e
00000080: da08 943e cfcf 26be 0748 a23d 61dc 3f3c
00000090: d8a0 f63d 4b15 23be 1d3f 12be 8f23 98bd
000000a0: fd5d 1dbe 46a7 edbc 06ed 243e a012 8bbe
000000b0: 76b1 cebc 2acf 0cbe cc58 833e f9a9 56be
000000c0: bcce 5fbe 2255 62be 06c3 283e 2de3 53bc
000000d0: 651d 74bc f461 fb3d 008a 953d 97d4 83be
000000e0: 2d93 063e 2f9f e9bd bca9 c63d dd99 0dbe
000000f0: ad0f 6bbe a662 81bc 88d5 5c3d cadd 63be
00000100: 176c 4cbe c779 543b 1309 413e 50b7 e93d
00000110: 8505 5abd d728 353e e795 a73d 9b38 b1bd
00000120: 7de7 1fbe caf7 3b3e 6559 b13d 3721 023e
00000130: 6a6e 993d 6f5c 43bd a015 20bd a64a 0abd
00000140: 5442 3bbe 050b 6cbe 0b44 08bd 7434 75be
00000150: 7bd2 60bd 4ebe ba3d db4a 81be ffc0 5d3e
00000160: 92c0 cabd 130e cbbd 54bb 0dbe a8be 79bd
00000170: 3b74 febd cbd5 563e 759d 633e 3e81 7ebc
00000180: 033c 81bd 989c 273e 146b 48be 2492 213d
00000190: 0571 4b3d e120 6abd b8a3 943d b933 1fbe
000001a0: 220d 6cbe 10e8 b5bd f6bd 07be 99db 343d
000001b0: d649 d13b eeb5 923d 8fef d1bd c4ae babd
000001c0: 3cf8 f33c 13ac 64bd 0aba 283d ed7e 853d
000001d0: 9972 a6be cb96 3cbd d78c 263d 8e1f f73d
000001e0: b672 66be 56c5 acbc 80bb 88be 1dc5 15be
000001f0: a011 3c3d 11f5 403e d18c 173e 5f44 67be
00000200: 7067 1bbe f809 053d 09b7 3bbd 42f0 233e
00000210: 6ffb 8f3d 7632 563e 2219 2ebe 5194 83be
00000220: ebc5 2bbe e490 25bd 8a5c 253e 03e9 7b3d
00000230: 8b54 423e fd52 2bbe c635 dabd 3926 4cbd
00000240: 2c39 6c3c a35f 00be 7985 723e 4ace 813e
00000250: 3135 95be 1afd b6bd fb5a 4b3e 1dc2 bbbd
00000260: adef abbe ecb2 443e fd58 c7bd 6774 3cbe
00000270: c164 573e 45b7 53be fad1 b63d f1bd efbd
00000280: 2528 5bbe 573a 12be 8065 6bbe dabe 70be
00000290: 47f3 10be b9e9 6bbe 77ee 64bd f1c1 45be
000002a0: b0b5 003e 6440 863e 91a5 3abc 5f33 5cbd
000002b0: 6731 a53e 0f8c 3bbe 7c46 8dbe 0426 543e
000002c0: c7bc 8abe 0b73 923d 845e 0e3e ecf5 f4be
000002d0: a002 013d 6771 60be cd64 423e df45 e1bd
000002e0: d313 923e 5031 ccbd fd50 843e 0cd6 a3be
000002f0: e78d a43d 477d 11be ad63 1c3e 832c 26be
00000300: 8878 073e 50a6 9ebe db22 9e3e 5421 2a3e
00000310: 8c0c c8bd 42cd 76be a7c3 39be 3382 04b9
00000320: 380c c23c 198c 41be ff70 d43d a9ff 2bbd
00000330: 4841 70be 0c60 fb3d aa89 f23d be82 c3bc
00000340: 4365 803d b8f4 c4be da85 943d 709a c43d
00000350: 3cf9 25bd 17ab 29be ecab d13d a5b9 723e
00000360: 6622 72bd 3aff 4cbe 6b7b 3d3e 4cb1 dbbd
00000370: d220 803d 8c7d 5b3e 38ea 9bbd 404a 643e
00000380: 4432 86be c972 243e 887e 483e 630f 99ba
00000390: 14b3 4c3e 29d8 aebd 28e6 303e a2d5 2d3e
000003a0: 1821 47bd 753c 873e 2092 5bbd 3f12 733d
000003b0: d211 84be 25d5 853d cd2d 0bbf bf38 7f3e
000003c0: 5090 513e 22fe 163c caea 473d b569 43be
000003d0: 507d 85bd 9bdb 383d fd0b 813d 52e7 9abe
000003e0: 1e7b aebc ac0b b73d 83ef 83be 5970 453d
000003f0: 13dc a4bd 22cf 4dbe effd 133e d2b0 9abd
-0.01669881 -0.17800334 0.054371968 0.15043272 0.182094 -0.011504159 -0.0192684 0.015489505
-0.17861673 0.080979235 0.18240336 -0.2411838 -0.2045773 -0.13242073 -0.22688405 0.23801708
-0.30795372 0.21391626 -0.20452079 0.1242375 -0.05875807 0.21076114 -0.12528336 -0.0995697
-0.2518702 -0.0322697 -0.06709665 0.01881645 -0.21852618 0.20531863 -0.15523645 0.23494664
0.28913003 -0.1629021 0.079238944 0.011710257 0.12042397 -0.15926091 -0.14281888 -0.07428657
-0.15367885 -0.029010426 0.16106042 -0.27162647 -0.025231104 -0.13750902 0.25653684 -0.20963277
-0.21856207 -0.22102788 0.16480646 -0.012932581 -0.014899586 0.122745425 0.07301712 -0.2574813
0.1314208 -0.11407315 0.09700343 -0.13828225 -0.22955199 -0.01579411 0.053914577 -0.22252575
-0.19963108 0.0032421218 0.18851118 0.11411917 -0.05322792 0.1769136 0.081828885 -0.08653375
-0.1561565 0.18356243 0.08659629 0.12707983 0.07491763 -0.047695573 -0.039083123 -0.033762597
-0.18287021 -0.23051079 -0.033268016 -0.2394579 -0.05488823 0.09118329 -0.25252423 0.21655653
-0.09900011 -0.09914794 -0.13840991 -0.06097284 -0.12424513 0.20979993 0.22228034 -0.015533743
-0.063102745 0.1636833 -0.19572097 0.03944601 0.04966833 -0.057160262 0.072577894 -0.15547074
-0.23051885 -0.08882153 -0.13256058 0.044154737 0.0063869758 0.071636066 -0.1025077 -0.09115365
0.029781453 -0.055828165 0.041193046 0.0651835 -0.32509306 -0.046042245 0.04066166 0.120665655
-0.22504696 -0.02109019 -0.2670555 -0.14625974 0.045915246 0.18843485 0.14799811 -0.22584675
-0.15176177 0.03248021 -0.045828853 0.1600962 0.07030379 0.20917687 -0.17001775 -0.25699094
-0.16774718 -0.04042138 0.16148582 0.061501514 0.18977563 -0.16730876 -0.10654788 -0.04984114
0.014417928 -0.12536483 0.23683728 0.253527 -0.29142144 -0.08934994 0.19858925 -0.091678835
-0.33581296 0.19208878 -0.0973377 -0.18403779 0.21034528 -0.2067538 0.089267686 -0.1170615
-0.21402033 -0.14280067 -0.22987938 -0.23510304 -0.14155303 -0.23038377 -0.05589148 -0.19312264
0.12569308 0.26221 -0.011392013 -0.05375993 0.32264253 -0.18315147 -0.27592838 0.20717627
-0.2709715 0.07150849 0.13903242 -0.47843874 0.031496644 -0.2191826 0.18983765 -0.10999655
0.2853075 -0.09970343 0.2584304 -0.31999242 0.08034878 -0.14207946 0.15272398 -0.16227917
0.13229573 -0.3098626 0.30885968 0.16614276 -0.09768018 -0.24101737 -0.18141042 -0.00012637004
0.023687467 -0.189011 0.10373115 -0.041991863 -0.23462403 0.12274179 0.118426636 -0.023866054
0.06269314 -0.38467956 0.07252093 0.09599769 -0.04052089 -0.16569172 0.102378696 0.2370363
-0.059114836 -0.20019236 0.18504111 -0.10727176 0.0625626 0.21434611 -0.07613033 0.22293949
-0.26210225 0.16059412 0.19579518 -0.0011677559 0.19990188 -0.08537323 0.17275298 0.16976026
-0.048615545 0.26413313 -0.053606153 0.059343573 -0.25794846 0.06534795 -0.5436676 0.2492399
0.20465207 0.009215863 0.048807897 -0.19083293 -0.06518042 0.045131307 0.06301115 -0.30254608
-0.021298941 0.08937773 -0.2576867 0.048202846 -0.08049788 -0.20098546 0.14452337 -0.07553257

StatefulPartitionedCall/sequential_5/dense_21/BiasAdd/ReadVariableOp:0 f4 [64]
00000000: 0968 233d 860f 9a3c e819 e1bc ebf1 1d3d
00000010: 4c20 f63c c649 373d 9e79 afbc c754 5c3c
00000020: dcde 68bc 6b60 533c cf77 5fbd 4064 0c3d
00000030: 03b9 c13b c62c 39bd b218 46bd 4f49 8f3d
00000040: d8e3 8abd 1b2f dc3c 3c51 88bd fd59 94bc
00000050: 5676 afbc 4ab9 2c3c ef55 11bc 4600 853d
00000060: f3b9 be3c 5da9 c1bc 84e2 e23c da99 b4bb
00000070: 5d2f 953a 938a 8b3d cd3b b3ba 1b83 903d
00000080: c80e 253d 64e1 f93c be78 923c 8c7d 9cbc
00000090: 81ea 933c d54b c33c 2357 5fbd f8f2 d73c
000000a0: a3f7 76bd a134 dbbc d46c 063d 15ea a9bd
000000b0: 7e8e f33c 60b4 19bd 1d41 64bd e286 643c
000000c0: 5bac a1bc 7d3f 8dbd e350 3b3c 0c30 b8bd
000000d0: c4a1 3fbd 620d 9b3d 7944 95bb d759 92bb
000000e0: 28b9 5e3d e0b9 1b3b 6949 acbb 2b89 6e3d
000000f0: a525 b6bc 6349 233d f75c cd3d 5d4e 93bd
0.039894138 0.01880623 -0.027478173 0.03856079 0.030044697 0.04474809 -0.021420296 0.013447947
-0.01421329 0.012901406 -0.054557618 0.034275293 0.0059119477 -0.045208715 -0.048363395 0.069964044
-0.06781739 0.02687793 -0.06656119 -0.018109316 -0.021418732 0.010542223 -0.008870586 0.06494193
0.023282027 -0.023640329 0.027695902 -0.0055115046 0.0011381913 0.0681354 -0.0013674438 0.070562564
0.0402973 0.030502982 0.01787984 -0.019102834 0.018056156 0.02383987 -0.05452646 0.026360974
-0.06029476 -0.026758494 0.03281863 -0.08296601 0.029731032 -0.037525535 -0.05572616 0.013948174
-0.019735506 -0.06896875 0.011432859 -0.08993539 -0.04678513 0.07570912 -0.0045552817 -0.004466276
0.054375798 0.0023761913 -0.0052577746 0.058236282 -0.022234747 0.03986491 0.10027497 -0.07192681

StatefulPartitionedCall/sequential_5/dense_20/MatMul/ReadVariableOp:0 f4 [11, 64]
00000000: 7e57 40ba afd6 2bbe 1abe 783e 2324 0abe
00000010: 8d86 eebd ddd7 57be cf0a 6a3d 344c 6f3e
00000020: f5e8 f23c ee4e acbd 0573 433e d3b9 a43d
00000030: 1273 fabd 3078 02bd 7892 aebe a25b 973d
00000040: acd4 9cbd cf32 c73e 48e9 58be 6470 68be
00000050: 631d 263e 6034 183e 4270 083e 7a30 643e
00000060: c243 f13d c52d 9e3e 0061 24bd e6a8 83bd
00000070: 4c33 6a3c efb5 6b3e 49a3 f73d ef3c 36bd
00000080: fee1 a0be e508 19be 43db 87be b963 563e
00000090: 4a6c 813e 4358 7a3e af12 453e 1b47 383e
000000a0: 1772 c33d f7fa 5cbe af6b 113e 965c f23d
000000b0: 1a21 533a dfeb 40bd ccaf a83e d55e 8f3e
000000c0: a575 5abe 011b 7b3d f5e8 553e 51f2 503e
000000d0: 5392 3cbe 8cc7 8b3e 0aac 8ebe e59c 623d
000000e0: 3b3a 953d 9c78 92be 34dc 44be c9a0 403e
000000f0: 03dd 0ebe a0f9 d63d 06be bd3e dc25 433e
00000100: 4b87 cdbe d230 4ebc 2309 8e3e 57b1 43be
00000110: f984 653e 9aad 433e d96d cabd fbc9 7a3e
00000120: 3de2 fcbd 95b2 5c3c 2019 d63c 9c05 36be
00000130: f041 2bbf 33b3 02be 7792 823e 7431 303e
00000140: b3df 9ebd 8bca e0bd 4dae 483e 2dc9 93bd
00000150: e76b bcbe d07c dbbd caeb 9cbd 7196 bcbe
00000160: 2058 993e a836 9f3d 04a7 38be f701 c7bd
00000170: 9153 003e dfc2 2bbe 723f c2bd 92b2 ae3c
00000180: 34f0 b2be cf05 683c 291f 5e3c 61c5 443d
00000190: 460f a03e 6ff0 04be e418 11be 4dea 693e
000001a0: 8417 873e 0b84 f1bd ce40 0a3e e334 91be
000001b0: c7ac 9a3c 8402 c03d 7b39 4e3d f73a cc3d
000001c0: 01db f03d 67db 943d c862 073d 7180 9c3e
000001d0: 45a5 01bd 90cd eebe 9683 54be 0bd1 a23e
000001e0: c0f7 b5be 000d da3c 23e4 2d3e 3fff c7bd
000001f0: a22d f53d cd71 163e 60bf b8bd 7cdb cc3d
00000200: f6cf a4bd 69c2 07be a298 873d a0e2 943d
00000210: 9015 74bc 2eac 27bd d27a f6bc 9acd a5bc
00000220: 2838 ebbd a5c2 9bbb 9bb1 cbbd df8b a43e
00000230: 5341 1cbe ca95 17be 5dd9 07be dd62 40be
00000240: dfcd 74be e139 dbbd 0b78 223d 8d9a 103d
00000250: 3461 233e 65a7 ecbc 0fc2 283c 6f47 d03d
00000260: d806 1f3e c999 22bd 88d4 08be 2afa 72be
00000270: 74a3 01be 7cfc 2fba 28b4 19be ac48 1fbe
00000280: 5702 81be 158d b2bd 8c0f 25be 448c c2b8
00000290: 62ce 803e 6be7 433e 620e 35be e0bf 3bbe
000002a0: b5a8 babe 48a0 a43d 6a38 c93d bb44 73bd
000002b0: c616 51bd e503 9b3e 5e1e dc3d 6aec 1cbe
000002c0: 2d46 5fbe c5cf 053e b06a c23c 4410 05be
000002d0: 265e 90bc 3a8d 5dbd 7d9f 9b3d de7c e13c
000002e0: a660 31be c2c6 843d da4b 643e 51ed 813e
000002f0: 4dbf f73d 8102 2f3e 57f8 893b 5cfe 643e
00000300: 9e7b 1f3c ab64 3e3e 37f0 4a3c c2c6 87be
00000310: 86bb 03bd dbe0 5dbd afb1 9fba 5343 64be
00000320: e451 3b3d 3b5e ff3d 3850 b7bd 781b a6be
00000330: b3f9 1b3e 95a4 da3d 33c6 efbd 47f2 53be
00000340: 1eac 91be e659 88bd 7fe7 053e 3a74 013e
00000350: 3613 0c3e 6e40 923d 8987 463e 440b c0bd
00000360: 0f51 58be 572c 57be 708d 873e 5d5b 91be
00000370: 9afd 86be 4e4c 5ebe 8cfc 3f3e 855f 353e
00000380: dfe0 203e 5430 4ebe 56b4 23be a2d0 0c3e
00000390: 8ad5 183d 03a5 8bbd 83a7 293e 2fe4 493e
000003a0: d55a e53d 084c 07be 0fd4 923e 7759 5d3e
000003b0: c6ee 953e 6ae1 5abd 5f7d 1abe 50b4 0ebe
000003c0: 46b0 143e f954 5dbe 9db3 a83e 4d31 893e
000003d0: 4e43 6dbe 15ea d3bc 8269 bdbd 5093 f73d
000003e0: bdad 34be e224 b3be 797d bbbd 09c2 5e3d
000003f0: b8ba d73e 8f4b d6be f5f7 6ebe 1114 26be
-0.0007337256 -0.16781114 0.24291268 -0.13490348 -0.11646757 -0.21078439 0.057139214 0.23368913
0.029652098 -0.08413492 0.19086845 0.08043256 -0.12228979 -0.0318529 -0.34096122 0.073905244
-0.076577514 0.3890595 -0.2118274 -0.22699124 0.16222148 0.1486373 0.13324073 0.22284117
0.11780502 0.30894294 -0.04013157 -0.06428699 0.014294457 0.23018621 0.12091691 -0.044491705
-0.31422418 -0.14944799 -0.2653447 0.20936479 0.2527793 0.24447732 0.19245408 0.17995875
0.09543245 -0.2158011 0.14201234 0.118340656 0.0008053944 -0.047099944 0.32946622 0.2800204
-0.2133394 0.06130505 0.20889647 0.20404936 -0.18415193 0.2730068 -0.2786563 0.055325408
0.07286497 -0.28607643 -0.19224626 0.18811335 -0.13951497 0.10496831 0.3705904 0.19057411
-0.40142283 -0.012584882 0.27741346 -0.19110619 0.22414006 0.19109192 -0.09884233 0.24491112
-0.12347839 0.013470312 0.026135027 -0.17775577 -0.6689749 -0.12763672 0.2550237 0.17206365
-0.07757511 -0.10976132 0.1959774 -0.072161056 -0.36801073 -0.107171655 -0.07662161 -0.36833528
0.29950047 0.07774097 -0.18032461 -0.09717172 0.12531878 -0.16773556 -0.094847575 0.021325383
-0.34948885 0.014161541 0.013557234 0.048039798 0.31261653 -0.12982343 -0.14169651 0.22843285
0.26385128 -0.11792763 0.13501284 -0.28360662 0.018881215 0.0937548 0.050347786 0.09972184
0.11760522 0.0726841 0.03305319 0.30566743 -0.031651754 -0.46641207 -0.20753321 0.31800112
-0.3554058 0.026617527 0.16981559 -0.09765481 0.119715944 0.14691849 -0.09020877 0.10002801
-0.08047478 -0.13257755 0.06620909 0.07269788 -0.014897719 -0.040935688 -0.030087862 -0.02023964
-0.1148532 -0.004753428 -0.09945985 0.32137963 -0.15259294 -0.14803234 -0.13266511 -0.18787713
-0.23906659 -0.10704399 0.039665263 0.03530364 0.15955049 -0.028888414 0.010300173 0.10169875
0.15529954 -0.039697442 -0.13362324 -0.23728243 -0.12660009 -0.00067133433 -0.1501013 -0.15555066
-0.25197098 -0.087183155 -0.16119212 -9.2767674e-05 0.25157458 0.19131248 -0.17681268 -0.18334913
-0.36456838 0.08038384 0.09825213 -0.05939172 -0.05104711 0.3027641 0.107479796 -0.1532456
-0.21804114 0.13067539 0.023732513 -0.12994486 -0.017623018 -0.054089762 0.07598779 0.027525362
-0.17322025 0.064832225 0.2229456 0.2537637 0.120970346 0.17090799 0.0042105126 0.22362655
0.0097340625 0.1859309 0.012386373 -0.26518828 -0.03216126 -0.054169517 -0.0012183691 -0.22291307
0.045732394 0.12469145 -0.089508474 -0.32442832 0.15231971 0.10675923 -0.117077254 -0.2069789
-0.28451627 -0.06657772 0.1307659 0.12641993 0.13679203 0.07141195 0.1938764 -0.09377149
-0.21124671 -0.21013008 0.26475096 -0.28390017 -0.26365358 -0.21708795 0.18748683 0.17712219
0.15710782 -0.20135623 -0.15986761 0.13751462 0.03731302 -0.06818583 0.16567807 0.19715951
0.111989655 -0.13212597 0.28677413 0.2161616 0.29283732 -0.053437628 -0.15086888 -0.13935971
0.14520368 -0.21614446 0.32949534 0.26795426 -0.23170206 -0.025868455 -0.0924864 0.120886445
-0.17644401 -0.34989077 -0.091547914 0.054384265 0.42134643 -0.41854522 -0.23336776 -0.16218592

StatefulPartitionedCall/sequential_5/dense_20/BiasAdd/ReadVariableOp:0 f4 [64]
00000000: 0ffe 16bc 8577 7a3b 89c3 52bd 795b e8bd
00000010: 2e04 483d ad2d 2ebc d4fc f2bd 3245 e0bd
00000020: 2d53 58bb e618 07bd aa78 cbbd 5ea2 92bd
00000030: cf61 acbb 9800 9bbd e76e 9f3b 0a99 a93c
00000040: feca 24bd 3f63 c23b e821 45bd 2fea ca3c
00000050: 2990 353d 6697 c7bd 064d 8cbd 2019 82bd
00000060: 3ccb cb3c 8c4a 433d d9be 1c3c de72 b5bd
00000070: 2cd0 f2bc e5a4 81bd b4b2 b8bd 145b 5d3c
00000080: 254b 84bd 1a45 ebbc b6f2 82bd 9985 08be
00000090: 365f 89bd 60a1 e6bd 76ee f0bb 1ceb 54bd
000000a0: 68f9 85bd e159 8ebd 5335 0fbd 0c2f 08be
000000b0: 1224 c43c 20f0 c03c af53 44bd 86f9 7dbd
000000c0: 1156 0ebd ee73 d8bc 734e 7bbc 86ff 05bd
000000d0: 59a9 71bd 812f 1fbd 93e8 50bd f279 73bd
000000e0: 0263 91bd ade0 073d d786 1bbe 7f8d 73bc
000000f0: bc7a 163c 3c10 5cbd 974b c4ba cb51 b03c
-0.009215846 0.0038218212 -0.051456008 -0.11345572 0.04883211 -0.010631007 -0.118646294 -0.10950698
-0.003300856 -0.03298273 -0.09935124 -0.07159875 -0.005260683 -0.075684726 0.0048655155 0.020702858
-0.04023265 0.005932241 -0.04812804 0.02476987 0.044326935 -0.09745674 -0.068506286 -0.063524485
0.024877183 0.047678515 0.009566986 -0.088598 -0.02964028 -0.06330279 -0.0901846 0.013510484
-0.06459645 -0.028719474 -0.0639395 -0.13332213 -0.06707613 -0.112612486 -0.0073526455 -0.05198203
-0.06541711 -0.06950737 -0.034962963 -0.13299197 0.02394298 0.023552 -0.04793137 -0.062005542
-0.034750048 -0.026422467 -0.015338528 -0.03271439 -0.058999393 -0.038863663 -0.05100305 -0.059442468
-0.07098962 0.033173252 -0.15188156 -0.014865278 0.009184536 -0.05372642 -0.0014976141 0.021523377

StatefulPartitionedCall/sequential_5/customer_data/batchnorm/sub:0 f4 [11]
00000000: 8cdc 17bf f5b5 f2bf 28c9 00c0 2877 cbbf
00000010: 9433 9bbf 3059 9abf 958f f0bf 6022 fcc1
00000020: fe67 7abe 1f3c a3c0 fc82 ddbf
-0.593209 -1.8961779 -2.0122776 -1.5895739 -1.2125115 -1.2058468 -1.8793818 -31.516785
-0.24453732 -5.101089 -1.7305598

StatefulPartitionedCall/sequential_5/customer_data/batchnorm/mul:0 f4 [11]
00000000: 5d21 c33f c065 0237 e95b 743f 68d7 1340
00000010: 48a2 1240 1fbe 1840 35fa 1840 72fb fc41
00000020: 3ad3 4e40 ee11 b839 7fdf 2d3a
1.5244557 7.772294e-06 0.95452744 2.3100224 2.2911549 2.386604 2.3902714 31.622776
3.2316422 0.00035108574 0.000663273
