resources/loan_model_alpha.onnx (onnx, 42279 bytes, 9 tensors)

StatefulPartitionedCall/sequential_6/dense_27/MatMul/ReadVariableOp:0 f4 [64, 1]
00000000: 5193 6ebe 74ec 853e 4a19 1cbc a8b3 7dbd
00000010: 9dfd 593d 667d bcbe 674a 8d3e aefc 20be
00000020: 83a2 163f a036 31be 6371 57be 7718 e0ba
00000030: c254 64be 7d84 45be 532c a63e ff75 853e
00000040: 2c29 a2be b5fb 1bbd 152c 9ebe 42ed 08be
00000050: 413d c3be 2e10 1e3e 4bd4 ba3e 165f 033e
00000060: f455 b0be b65c 853e 485b e0be 506f 023c
00000070: 5bc6 c73d b529 123f b2a2 083e ab64 8cbe
00000080: 8ce6 96be 6513 5ebe a075 203e a317 273e
00000090: 6f0e 34be 8d98 673e 0eac dbbe fcca 903e
000000a0: cd45 43be 2a84 00bf fcf7 e43e f1e3 0a3f
000000b0: 17a6 fc3d 353f 89be 0af9 443e 0f5e 53be
000000c0: ab49 d9bd 7c3a d9bd e45e a6be dd9e 0bbf
000000d0: dab9 46be e49b a03e c5c2 2abe e754 fb3e
000000e0: de94 993e b5dc 8d3d 7eaa 2f3e e72e e03e
000000f0: 3f7d 70bd e1bf d93e 82a6 393f dd88 1ebe
-0.23298384 0.26156962 -0.009527514 -0.06193891 0.05322038 -0.3681442 0.27595827 -0.1572139
0.58841723 -0.17305994 -0.21039347 -0.0017097135 -0.22297958 -0.19288822 0.32455692 0.26066586
-0.31672037 -0.038081843 -0.30893007 -0.13371757 -0.3813267 0.1543586 0.36490092 0.12829241
-0.34440577 0.26047295 -0.43819642 0.007961109 0.0975463 0.5709489 0.13343313 -0.27420554
-0.29472768 -0.21687086 0.1566987 0.1631761 -0.17583631 0.22616787 -0.42904705 0.28279865
-0.19069596 -0.50201666 0.44720447 0.5425406 0.123363666 -0.26806036 0.19235626 -0.2064135
-0.10609754 -0.10606858 -0.3249427 -0.5453928 -0.19406834 0.31368935 -0.16675861 0.49088213
0.2999639 0.06926862 0.17154881 0.43785784 -0.058713194 0.42529204 0.72519696 -0.15481897

StatefulPartitionedCall/sequential_6/dense_26/MatMul/ReadVariableOp:0 f4 [64, 64]
00000000: d9f9 de3d 6ee7 8abe 5405 353e aa6d 5b3e
00000010: fd56 383d efc1 f6bd c502 1c3e e7b9 86be
00000020: 9ac0 ac3c f24f a5bc 5929 f7bb b862 62be
00000030: 665a 453e 2e0a 293e d6b7 d1bd 6b7a 58be
00000040: 819f 6a3e 1a90 133e 97ca a3bc 09c3 523e
00000050: f91a dc3d 5c87 fcbd ae2a 3cbc 4d58 313e
00000060: 81fa a53d c381 ad3d 788c a93d 7db7 583d
00000070: edf2 2fbd 007b 343e c0c7 91be eb06 613d
00000080: 73e4 1a3d d2e6 d33d 8d45 b4bd f69f bdbd
00000090: b5c5 813d be88 853d d846 323d 96e6 253d
000000a0: 3683 11bd be3a 9ebe 6db1 15be 53e9 be3d
000000b0: 69d9 65bd ce5d 32be 4627 743d 801d c4bd
000000c0: 00e5 07be 497c 22be 56fe 1c3e 35d7 73bd
000000d0: 5386 0a3e 3eaa 763c a7ec c23d 2673 22bd
000000e0: c35a 0dbe 8866 503d a0af 1c3e 3ae2 5abc
000000f0: 3ae6 41be 71cd 25be e426 88bc 8134 143e
00000100: 4f87 93bd 7a27 ddbd 83db ef3c 2e25 2a3e
00000110: 7e09 ea3d 3b4f c53c 5ae5 473e 4c68 413e
00000120: 003a 123d f336 f4bd 3ffb 753d 23de 3ebe
00000130: 2041 a03c 5570 df3d b319 783d d036 f0bc
00000140: 4253 c33d e438 efbd d382 113b 56ce 343e
00000150: 6869 a4bc dcbb 793d 7684 353c 0eee b4bd
00000160: 19d0 56be 50a7 473d 7911 223e 7ea8 283a
00000170: c1fd 103e 4487 6fbd cd89 b7bd edaa 853d
00000180: 7446 cc3d 1fe6 79bd da7e 04bc 5d49 69be
00000190: 7abf 333e 0d72 c5bd 088c 8e3e 5f8b 7bbd
000001a0: 9a31 033e 7900 a93c a4bd 3a3e 2912 44be
000001b0: 5cf2 a5bd 74f4 f83c bae3 6e3d 5bd6 4bbe
000001c0: 84b7 97bd 9940 ec3b cdeb 2fbe aa19 8cbd
000001d0: e848 36be f0ec 7ebe 7626 bb3b c6e0 a2be
000001e0: 9b3c 3c3d b3d2 6fbd 1a14 5fbe ad84 cfbd
000001f0: a420 8fbd 8395 b0bc 506f b0be 80ef 7ebe
00000200: 3f08 e5ba 692c 2abd e0ff 91bd 4d01 e23d
00000210: 0a95 8c3d c4f9 113d afd2 05be 799a 323d
00000220: f6b5 d33d a42a 163e bae6 f6bd 5386 44be
00000230: 0959 fa3d 99f8 0abe d73f 86be 2445 18bd
00000240: ea67 1bbe 36df 6fbc f700 3f3e e66f eabc
00000250: 8d4c a13d c5bf 163e b007 513e 9713 40be
00000260: 7678 9e3d 3d2b 01be 5985 c53d 9f73 643c
00000270: d64a 403e da0e 323e 16ca eb3d ea45 ab3d
00000280: 49f5 e63d 1eb2 21be 3cc0 243d 9174 e43d
00000290: 347e 4dbe 6f79 29bd 586d e9bd 59e0 ab3d
000002a0: 97ea 423d 6e70 13be 8722 37bd ba63 6ebd
000002b0: 20a7 123e 2133 04be 7898 b9bd ec35 6e3e
000002c0: e47b 0bbe dbe1 1d3d 28d1 5c3e 3cf5 fdbc
000002d0: 9404 323c 1791 17be 152a 00bd 2424 2b3d
000002e0: d7aa 023e 792a 9cbc 4f28 f4bd 8d37 4cbe
000002f0: 14e2 583d 720f 3bbe 2d63 013e 4f8a aabd
00000300: 6b5b 6c3e ab13 26be 6aa4 af3d bbdd b43d
00000310: ec70 43be 3425 263e bd10 593d 128a 1c3e
00000320: 67f5 40be d2b1 20be e946 febd 68f8 5ebe
00000330: 45d7 0b3e bed7 fa3d f6b2 f2bd bbbc 453e
00000340: b60a 333c 29e1 0cbe a85a 143e e065 e43c
00000350: 0ff1 73be 0e12 3c3e 9ba8 053e bda3 5e3e
00000360: 3ff1 563d 54b1 723e b27b afbe d879 81bd
00000370: a1d9 49bd 4091 f63d b0f6 743e 4b43 adbc
00000380: 5f34 5f3e 203c 01be 90ef 60bd ef27 0c3d
00000390: 9060 223e 21af 56bd dcc6 83be 2cde 273e
000003a0: 33c2 84bd af86 4d3e c2e3 65bd 58c0 883d
000003b0: fb82 e9bd f174 6cbe a6a1 45be 69a8 503d
000003c0: 7c9f ddbd 2d53 d1bd f3f2 8e3d 40c5 abbd
000003d0: d95a 9a3d 3957 4f3e e43d 163e 335e e13d
000003e0: ca81 06bd eb50 31bd fd06 0d3d ca8d 8fbd
000003f0: 9b66 d4bd a425 eb3d 7a51 84be 7462 1c3e
0.108874984 -0.27129692 0.17677814 0.21428552 0.045004833 -0.12048709 0.15235431 -0.26313707
0.021087933 -0.020179722 -0.007542771 -0.2210797 0.19272766 0.1650779 -0.10240142 -0.21140449
0.22912408 0.14410439 -0.019994063 0.20582213 0.10747332 -0.12330505 -0.011484785 0.1731884
0.081044205 0.08472016 0.082787454 0.052909363 -0.04295628 0.17625046 -0.2847271 0.054938238
0.037815522 0.1034676 -0.08802328 -0.09259026 0.06336538 0.06520222 0.043524593 0.040503107
-0.035525523 -0.30904192 -0.14618464 0.09321847 -0.05611554 -0.17418596 0.059607767 -0.09575939
-0.1327095 -0.15867724 0.15331396 -0.05953141 0.13527803 0.015055237 0.09517794 -0.039660595
-0.13804154 0.05087903 0.1530137 -0.013359601 -0.1893548 -0.16191651 -0.016620107 0.14473154
-0.072035424 -0.10798545 0.029279476 0.16615745 0.11427592 0.024085632 0.19521084 0.18887442
0.035699844 -0.11924543 0.06005406 -0.18639426 0.019562304 0.109100975 0.060571384 -0.029323012
0.095373645 -0.11680773 0.0022203221 0.17656836 -0.020069793 0.060970172 0.011078944 -0.08834468
-0.2097782 0.048743546 0.15826978 0.00064337987 0.141593 -0.05847861 -0.0896183 0.06526742
0.09974375 -0.061010476 -0.008086884 -0.22781892 0.17553511 -0.09640894 0.2784121 -0.06141221
0.1281189 0.020630108 0.18236405 -0.19147553 -0.08102867 0.030390002 0.058322646 -0.19905989
-0.0740805 0.007209849 -0.17179795 -0.068408325 -0.17801249 -0.24895072 0.005711372 -0.31812114
0.045956235 -0.058550548 -0.21785012 -0.10132728 -0.069886476 -0.021555668 -0.34459925 -0.2489605
-0.0017473771 -0.04154626 -0.071288824 0.11035404 0.068643644 0.035638586 -0.1306865 0.043604348
0.10337441 0.14664704 -0.12055726 -0.19191866 0.12224013 -0.13571395 -0.2622058 -0.037175313
-0.15176359 -0.01464062 0.18652712 -0.02861781 0.07875929 0.14721592 0.20413089 -0.18757473
0.0773782 -0.1261415 0.09644575 0.013943582 0.18778548 0.17388478 0.11513154 0.083629444
0.11277253 -0.15790603 0.04022239 0.11155046 -0.20067674 -0.041375574 -0.11397809 0.083924
0.047587004 -0.14398357 -0.044710662 -0.058200575 0.14321566 -0.12910129 -0.09062284 0.23262757
-0.1362148 0.03854547 0.21564162 -0.031000726 0.010865349 -0.14801441 -0.031290133 0.041782513
0.12760483 -0.019063221 -0.11921751 -0.19943066 0.05294998 -0.1826761 0.12635489 -0.083271615
0.23081748 -0.1621844 0.08576281 0.08831354 -0.19086045 0.1622513 0.05299448 0.15287045
-0.18843614 -0.15692833 -0.12415869 -0.21774447 0.13656338 0.12248181 -0.1185054 0.19310276
0.010927847 -0.13757767 0.14487708 0.027880609 -0.23822425 0.18366262 0.13052599 0.21742149
0.052476164 0.23700458 -0.3427406 -0.06322068 -0.049279813 0.12039423 0.23922229 -0.021150252
0.21797322 -0.12620592 -0.054915965 0.03421777 0.15857148 -0.05241311 -0.25737655 0.16393346
-0.06482353 0.20070909 -0.05612541 0.06677312 -0.11401936 -0.23091485 -0.19299945 0.05094186
-0.10821435 -0.10220943 0.06979933 -0.08387232 0.07536859 0.20248117 0.14672047 0.11004295
-0.03283862 -0.04329006 0.034430493 -0.07009466 -0.10371133 0.11481789 -0.25843412 0.15271932

StatefulPartitionedCall/sequential_6/dense_26/BiasAdd/ReadVariableOp:0 f4 [64]
00000000: 83d6 b43d 4d06 7ebc 1d8c 01bc f944 63bc
00000010: ccc9 16bd d5cb 673d 3bfa c9bc 08cf 2d3d
00000020: edcc 87bd 6dbb 58bd 9aa9 f4bc c560 00bd
00000030: e34b 6e3d feee 543d b317 743d 39fa 013d
00000040: 6012 973d b184 283d 0f95 c43d 0e83 c7bb
00000050: 0ba6 833d c42d d1bb b4ae 70bb ce10 6439
00000060: 9f62 823d da46 c0bb 8381 f33c a741 56bd
00000070: 7858 72bc c685 ecbb 7e1a 953c 36a5 083d
00000080: fe44 8a3d 338b 513c 416f 643c 079a b53c
00000090: f6ef 02bd 9efe 8b38 d0b1 2e3c bf7c ffba
000000a0: 3886 083d 7151 e03b 06c0 d03c 09c5 4bba
000000b0: 3403 e93a f583 26bd 3e32 f6bb 5c19 a33d
000000c0: fb79 99bd 60e6 51bd 5ddb 503d fc79 0f3e
000000d0: 6a68 143d 3797 563d 521a 383c deb3 703d
000000e0: 941c 7f3a 58b0 b2bc 3b54 153c e1f8 0b3d
000000f0: 6e7b 15bd 74ee 633c 4dad aa3c 12f8 883d
0.08829977 -0.015504432 -0.007906941 -0.013871425 -0.036813542 0.056590874 -0.024655452 0.04243377
-0.06630883 -0.05291312 -0.029866029 -0.031342287 0.05817784 0.051985733 0.059592914 0.03173277
0.07376552 0.04114217 0.09598743 -0.006088621 0.064281546 -0.0063836295 -0.0036725225 0.00021750035
0.06366467 -0.005867821 0.029724842 -0.052308705 -0.0147916 -0.0072180955 0.018201109 0.033360682
0.067514405 0.012789535 0.013942541 0.022168173 -0.031967126 6.675463e-05 0.010662511 -0.0019492133
0.033331126 0.006845646 0.025482189 -0.0007773196 0.0017777444 -0.040653188 -0.0075133136 0.07963821
-0.07493969 -0.051245093 0.05099045 0.14011377 0.03623239 0.052390303 0.011236744 0.058765285
0.00097317365 -0.021812603 0.00911432 0.034172896 -0.036494665 0.013911832 0.02083459 0.06687941

StatefulPartitionedCall/sequential_6/dense_25/MatMul/ReadVariableOp:0 f4 [64, 64]
00000000: b885 9fbb 9943 64be d1e8 07be 94e3 013c
00000010: 1801 843e eb41 c0bc a5d6 0dbd 04eb a33c
00000020: c9b8 3abe b69a d83d a4dc a23e 5706 c0bd
00000030: f725 6abe 1ffc 97bd b779 113e 4986 923e
00000040: 6b33 43be 8c24 a83d 41dd 74be fe82 433d
00000050: 9f44 88be 6b68 843e b9a1 a3bd 93c3 f9bd
00000060: d0cf 543d 8629 653d e7a7 b4bd b171 3a3e
00000070: 80b6 64be b6df 1b3e 6e7c 53bc 364e 903e
00000080: 6ea7 d43d e2f4 1bbe 5ed5 a83d 5c93 7fbd
00000090: 3571 913e cb8b 5cbe 7425 b2bd 27b7 353c
000000a0: c4d9 4dbe 7995 08be 63ff 853e 7ca8 61be
000000b0: 5bf9 00bc 01bc 4bbe a836 5d3e b5b6 82be
000000c0: 79d7 56be a77c 63be feb6 493e 4306 8cbd
000000d0: 955a a3bd 9b06 2a3e 0268 013e 16b5 5fbe
000000e0: 86cf d43d 1403 75bd ad3f 543d ee2c 82be
000000f0: 7bd7 02bd cef3 abbd 821d a73d a283 a4be
00000100: 89c5 77be b81f 8f3c f7d4 373e 3233 023e
00000110: bfa7 023c b937 d43d b84f be3d 453f b7bd
00000120: 87d6 6cbe 08b4 243e fa37 cb3d 26f3 79bd
00000130: 410c 903d 5e3a 563c f8c1 9a3c d24c 68bd
00000140: 0a64 9cbd 8e87 3bbe 7b91 193c 6c40 83be
00000150: 7dc1 dcbc f80b 243e 5a52 6ebe 7418 583e
00000160: 8d42 66be a512 fbbd 436d 3fbe ea99 1abe
00000170: 175f dbbd d5f0 2f3e 3213 803e 7e27 86bd
00000180: 461e 92bd b3a5 093e c978 4fbe c9dd 583d
00000190: 8cc9 29bd 1ddb 1cbe 3bd9 593d b1cc 3cbe
000001a0: 0495 debd f2df e9bd 5590 51be e438 533d
000001b0: 4454 98bc a01a 7e3d 1947 09be 80d0 b2bd
000001c0: 5483 523d 0811 6abd 2913 7e3c 896d 4b3d
000001d0: e8f1 9dbe b63e d4bd 235b 12bd c26a 533e
000001e0: 605d 66be 4617 ba3d 3757 84be 9515 eebd
000001f0: 1445 1f3b c357 6e3e 3073 d53d 9f68 49be
00000200: bc21 35be d2d6 f43c 23d0 343d 5360 2a3e
00000210: 1f52 28be b753 cd3d 6c99 ebbc 6601 35be
00000220: 28d9 38be e743 ee3c f94a 563e 8d42 743d
00000230: ba25 2f3e be6a 24bd 48d0 f2bd 86b2 32bd
00000240: bd89 363d 977c a7be 6c84 313e 67df 0b3e
00000250: 0f36 7dbe 4e62 e3bd 3a39 993d f692 cebd
00000260: b38f 0fbe ee96 fc3d cda5 dcbd 99a4 ebbd
00000270: 0637 413e c624 eabd 58c7 f839 b133 1cbe
00000280: 2ad2 04be 8fcb 57bd 4f9e 9ebd 6527 12bd
00000290: a54d a7bd 6db7 70be 13e0 52bc 57c2 f7bd
000002a0: ed5f 643d 283b 133e 2398 12bc 38c7 56bd
000002b0: 415d 823e 7929 01be 7d13 98be 5f26 e6bd
000002c0: 9768 95be bdc0 f6bb 6670 003e 66c6 93be
000002d0: 42ef 623c 7ced 8dbe b4e4 6c3e 09fc 3bbe
000002e0: 2ca6 843e 5bd9 2abe ae35 853e e46e 93be
000002f0: f42d 4e3e 90da fcbb efed 103e 235c 19be
00000300: 8ed5 0a3e baa8 5bbe 7043 3d3e 83fc 653e
00000310: 131b 363d dfc1 68be 5dc7 abbd f313 213d
00000320: 89aa 32bd e7bb 88bc 6144 4e3d 8db6 e9bd
00000330: 86a2 35be fee0 2e3e 7a24 683e 0588 dabd
00000340: 4a61 05bd 7497 1abd a174 b03d b5f4 63bc
00000350: 15ba 9c3d 2657 143c d5e8 803d 37f6 4d3e
00000360: 1f47 04be 40c4 94bd 4524 3a3e 2f1a 06be
00000370: e980 893d 2ded 423e 46be d0bd b2c1 6f3e
00000380: 271d 1abe a80a 2a3e 9127 283e 0331 593e
00000390: 5fd6 0c3e 8cfa 35bd 01d0 f53d 5ad1 a0bc
000003a0: eb3b 83bd 3b92 833e 0f62 84bd 4ef9 01bd
000003b0: c7a1 7cbe 9344 b6bb 734f 7fbe de99 da3d
000003c0: 739b 693e 5699 8abd d44a b33b 05a5 0dbe
000003d0: 1640 e1bd 2d27 6a3d ba62 223d df0d 89be
000003e0: a83b 7e3d dedb 3cbe 9433 01be 47b0 45bd
000003f0: ceed c9bd 08be 53be 750f 543e 6c52 08bd
-0.0048682354 -0.22291411 -0.13272406 0.007927794 0.25782084 -0.023468932 -0.03462853 0.020009525
-0.18234552 0.10576384 0.3180896 -0.09376209 -0.22866045 -0.07421135 0.14206587 0.28618076
-0.19062583 0.08210096 -0.23912527 0.047732346 -0.26614854 0.25860915 -0.079898305 -0.12195506
0.051955998 0.055947803 -0.08821087 0.18207432 -0.22335243 0.15222058 -0.012908084 0.2818467
0.10383497 -0.15230134 0.082438216 -0.062396392 0.28406683 -0.21537702 -0.0869855 0.01109103
-0.20102602 -0.1333827 0.26171407 -0.22036928 -0.007871951 -0.19895937 0.21602881 -0.2553002
-0.20980634 -0.2221552 0.19698712 -0.06837132 -0.079762615 0.16604082 0.12637332 -0.21846423
0.103911445 -0.05981739 0.05181854 -0.25424904 -0.03194378 -0.083961114 0.08159925 -0.32131678
-0.24196447 0.01747118 0.17952333 0.12714842 0.007974564 0.10362191 0.09292549 -0.089476146
-0.2312871 0.16084301 0.09922786 -0.0610229 0.07033587 0.013075439 0.01889132 -0.056713887
-0.076362684 -0.18313429 0.009373064 -0.25635087 -0.026947731 0.1602019 -0.23273602 0.21103078
-0.22486325 -0.122594155 -0.18694024 -0.15097776 -0.10711496 0.17181714 0.25014645 -0.06550501
-0.071346804 0.13442115 -0.2026092 0.052945886 -0.041451976 -0.1531796 0.053185683 -0.18437459
-0.10868266 -0.11419667 -0.20465215 0.051567927 -0.018594868 0.06203711 -0.13406028 -0.087311745
0.051394776 -0.05714515 0.015507498 0.049665008 -0.30848622 -0.10363524 -0.035731446 0.20646194
-0.22496557 0.0908647 -0.2584779 -0.1162521 0.0024302648 0.23275666 0.10422361 -0.19668816
-0.1768865 0.02988759 0.044143807 0.16638307 -0.16437577 0.10025733 -0.02875968 -0.17676315
-0.18051589 0.029085113 0.20927037 0.05963378 0.17104235 -0.04014086 -0.11856133 -0.043627284
0.04456495 -0.32712242 0.17335671 0.1365944 -0.24727653 -0.111027345 0.07481618 -0.10086624
-0.1401966 0.12333475 -0.107738115 -0.11506004 0.18868646 -0.11432795 0.0004745077 -0.15254094
-0.12970796 -0.052684363 -0.07745039 -0.0356821 -0.081691064 -0.23507471 -0.012870806 -0.12097614
0.055755544 0.14378035 -0.008947405 -0.052436084 0.25461772 -0.12613477 -0.29702368 -0.112377875
-0.29181358 -0.0075303004 0.12542877 -0.28862303 0.013850989 -0.2772025 0.23134118 -0.18357863
0.2590803 -0.16684477 0.26017517 -0.2879554 0.20134717 -0.0077164844 0.14153264 -0.14976554
0.13558027 -0.21451083 0.18482757 0.22459607 0.044459414 -0.22730206 -0.08387635 0.039325666
-0.043619666 -0.016691161 0.05035818 -0.11411772 -0.17737779 0.17078015 0.22670165 -0.10670475
-0.032563485 -0.037742093 0.08615995 -0.013913323 0.0765268 0.009053981 0.06294409 0.20113455
-0.12917756 -0.07263994 0.18177898 -0.13095926 0.06714041 0.19035788 -0.10192542 0.23413733
-0.15050183 0.16605628 0.16421343 0.21210103 0.13753651 -0.044428393 0.12002564 -0.019631077
-0.06407913 0.25697502 -0.06464016 -0.031731896 -0.24671088 -0.005562374 -0.24932651 0.10673879
0.22813205 -0.06767528 0.0054715667 -0.13832481 -0.109985515 0.057166267 0.039644934 -0.26768395
0.06206861 -0.18443248 -0.12617332 -0.048263814 -0.09859811 -0.2067796 0.20709021 -0.03328173

StatefulPartitionedCall/sequential_6/dense_25/BiasAdd/ReadVariableOp:0 f4 [64]
00000000: d01e 813c 38d3 82bd 94cf fabc f8bf 143d
00000010: 5eed 273e 98dc adbc e52f 52bc b59a 2dbc
00000020: f363 3d3c 6a09 763d 1907 e13c 5dd2 973d
00000030: 9577 423c cea4 3b3c 3402 a43c 67ea a03d
00000040: f53b 97bc 9abf 0abb 180b 45bd f3a1 08bd
00000050: 2d67 53bd 8422 8d3d 7c31 123b 54f3 cf3d
00000060: 6f4f 6bbc a0a5 863d 8a9d 0abd 7ff5 89bb
00000070: c77b 6c3c 838b b03d 5715 843c b161 773d
00000080: ae05 52bc 88b4 1b3d d8fa b03c 3abb 13bd
00000090: 341a 1a3d 4b9a f5bc 908d c1bc c898 3fbd
000000a0: 1d08 38bd 0cee 02bc a8a4 db3c 07b4 95bc
000000b0: ac92 da3c 8f2b 03bd 6b5c 62bd 54bf 5abd
000000c0: 62af d2bb 1097 80bd 15d8 ff3b 7279 29bc
000000d0: aa06 1ebd 2494 bb3d 42d8 1e3a 5cd0 9ebb
000000e0: 08bd 4b3d ae6a a23c 5717 3d3d d5e6 5cbc
000000f0: c694 9b3c 7000 0bbb 6073 8a3d 43a2 b1bd
0.015761763 -0.06387943 -0.03061656 0.03631589 0.16399142 -0.021223351 -0.012828802 -0.010595967
0.011559474 0.06006757 0.027469205 0.074131705 0.011869331 0.011452867 0.020020582 0.07857209
-0.018461207 -0.0021171332 -0.048106283 -0.03335757 -0.051612068 0.06891349 0.0022307327 0.10153833
-0.0143622 0.06574559 -0.033841647 -0.0042101736 0.014433808 0.0862036 0.016123457 0.0603959
-0.012818737 0.038013965 0.021603987 -0.036067225 0.037622645 -0.0299808 -0.023627073 -0.046776563
-0.044929612 -0.007991325 0.026811913 -0.01827432 0.026681267 -0.032023963 -0.055263918 -0.05340512
-0.0064295987 -0.06278813 0.0078077414 -0.010343896 -0.038580574 0.09159115 0.00060594466 -0.0048466157
0.04974082 0.01982626 0.046164837 -0.013482769 0.01899184 -0.0021209978 0.06760287 -0.08673527

StatefulPartitionedCall/sequential_6/dense_24/MatMul/ReadVariableOp:0 f4 [11, 64]
00000000: ed07 b33c 7033 0b3d 685c 5a3e 7130 99be
00000010: acce a0bd 8ec9 82be 3ddb c03d 043f 843e
00000020: efb5 29bd 9700 00be 4354 553e fac2 b43d
00000030: f109 19be 63f8 67bd 8cd8 c4be 6b37 d63d
00000040: e7cb a9bd 5d69 913e a37f 4fbe b7b9 60be
00000050: d64b 053e 3bd8 ce3d 31ca 333e 6ca1 723e
00000060: 7387 e93c 085f b73e 4f70 7e3b e9c3 c7bd
00000070: c41f 473b 7cb8 233e d413 533e 08cd 3d3d
00000080: a05b 93be 7e03 57bd ea91 5cbe e256 523e
00000090: 4173 893e 7b5e 6c3e 7560 493e 78ce 603e
000000a0: c255 453d c83a 89be 6472 143e c5bd 813d
000000b0: 1ef8 dc3d 8f1d b6bd 1699 8e3e 4f3e 8e3e
000000c0: 2a9c 19be 4e85 2c3d 9a8a 493e 12a0 853e
000000d0: 3111 28be ba4a 973e 559d acbe 114d 383e
000000e0: f54b 9c3d 11e1 a0be be99 35be bd5f 463e
000000f0: e9be 4bbe a544 593d c9b0 883e bd06 433e
00000100: 2976 fcbe c4ed c03d 5577 5c3e 5d5d 8bbe
00000110: 16f2 433e 0dc4 b53e 3d9b 1c3c 22c8 923e
00000120: 1551 9f3d ed7b 1d3d effa 3fbd 9d85 a6be
00000130: 9b6f 92be 9e81 0bbe 88f7 a33d 7fe6 ba3d
00000140: 2ff6 bdbe 92d2 ba3a 0c01 ed3d 6563 6dbe
00000150: ca66 51be b336 dabd 50a7 d4bd c2f7 b5be
00000160: f490 603e 5bcd 343e 2de5 8fbe bca6 02be
00000170: d0b3 a23d 2f63 61be e740 dc3a e4d8 6b3d
00000180: 11cd d1be 0b5e 5fbd b0a3 f13d d9de 5c3d
00000190: 8bd6 943e 4ff5 f3bd c33d 80be 1378 693e
000001a0: f6ad bc3e b7a9 9f3d c49b 833d 9253 12be
000001b0: b2e6 ebbb 376f cd3d 9a0f 573e ab66 27bd
000001c0: 1dee 503e 9e6e ad3d 1027 b73c e16f a93e
000001d0: d4cb 4dbd 0e8b fbbe 7baa aabe c241 623e
000001e0: 1a0f 66be 431a d13c c0f6 0b3e 87f7 fdbd
000001f0: 702f 483d 57cc 0f3e 8a0d 07be e9f7 193e
00000200: a363 c9bb c46c 95bd c883 7d3d 758c 133d
00000210: f9ab d13c 6e43 f1bd 174c 0d3c 16fc 4fbc
00000220: b961 27be 423f 10bc 2d03 cebd b45c 7b3e
00000230: 8f36 58be 4c84 46be 26cf 4dbe 3b11 92be
00000240: 3a63 90be ff24 42be 863b 1e3d 0b12 013d
00000250: b0ff fb3d c00d 8bbd 131a 203d fb52 bd3d
00000260: 5f1e aa3d a560 a2bd 0615 00be 1a5d 6cbe
00000270: 38c7 29be 634a 58bd c879 7abc ed0c 31be
00000280: 4b8d 65be 95a0 aebd 1d17 9bbd 9649 cfbb
00000290: 87b1 6b3e 8971 413e 6789 2bbe 07f0 14be
000002a0: 9621 bdbe 4566 f0bc 014e e93d f729 89bd
000002b0: 5806 ddbb 6be9 933e 9879 ac3d d705 21be
000002c0: 74ea 69be b310 b03d 468b 033d 59b2 94bd
000002d0: 3feb 00bd f56e 3abd 4107 203d 01d7 f23d
000002e0: 589a 03be be52 d4bd e6e0 163e 4211 3f3e
000002f0: 014d e03d cb03 d33d f981 53bd f35e 663e
00000300: a009 303e e314 773e 93d4 3cbc 7462 f3bd
00000310: 9cbb c0bb a21f d6bd 9688 d1bd e75b edbd
00000320: 0daa aebc 2f33 363e e79d b6be ec0a 80be
00000330: b5ce 0f3d 6395 993d 28ef 02be 2e10 3dbe
00000340: 5dc7 8bbe c22f e43d 43b3 9b3d dbb0 923e
00000350: bf39 243e 1fe8 dd3c b860 dd3c 4adf 32bd
00000360: fa3e 77be dcd4 60be 1f2f 813e 0048 4cbe
00000370: 81c9 52be a241 18be d854 223e aadf 4a3e
00000380: 7064 1e3e aaad 38be d7a1 8dbe 7849 5e3e
00000390: 0819 8a3c bbd0 e7bd 79a3 123e ac03 a03d
000003a0: 69aa a5bd 2d55 56bd 1e2b 6e3e ab6d 9d3e
000003b0: 0c3f 7a3e 4f80 cdbd fa4d 88be 6f2f 52bc
000003c0: bcba e83c 8a8f c9bd 0306 3f3e bdbf 723e
000003d0: a2a7 54be 8520 b23d ab63 87bd c9ad 4c3e
000003e0: 4a62 5dbe ec29 91be 6c64 69be c1c2 253c
000003f0: edd5 833e 7900 4ebe 42c0 84bd 5655 1fbe
0.021854365 0.0339846 0.21324313 -0.2991977 -0.078519195 -0.255444 0.094168164 0.25829327
-0.04143327 -0.12500225 0.20832925 0.08826251 -0.14945199 -0.056633364 -0.38446462 0.10459789
-0.082908444 0.28400698 -0.20263533 -0.21945845 0.1301721 0.100998364 0.17557599 0.2369439
0.02850697 0.3581469 0.0038824265 -0.09754164 0.0030383924 0.15988344 0.20613033 0.04633811
-0.28780842 -0.052493565 -0.21540037 0.20540956 0.26845744 0.23082916 0.19665702 0.21953762
0.04817749 -0.2680266 0.14496762 0.06335024 0.10789512 -0.088923566 0.2785117 0.27781913
-0.15000978 0.042119317 0.19681779 0.26098686 -0.16412808 0.295492 -0.33713785 0.17998149
0.07631675 -0.31421712 -0.17734429 0.19372459 -0.19897045 0.05304398 0.26697376 0.19045539
-0.493089 0.0942035 0.21529897 -0.27219668 0.19135317 0.35501137 0.009558496 0.28668314
0.07779137 0.038448263 -0.04687017 -0.32523814 -0.28600773 -0.13623664 0.08006197 0.09125995
-0.37101886 0.0014253429 0.11572465 -0.23182447 -0.20449367 -0.10654964 -0.10383475 -0.35540587
0.21930295 0.17656462 -0.28104535 -0.12758917 0.07944453 -0.22010492 0.001680401 0.05757989
-0.40976766 -0.054533046 0.11798799 0.05392346 0.29069933 -0.11912023 -0.2504712 0.22799711
0.36851472 0.077960424 0.06426194 -0.14289692 -0.007199132 0.10030978 0.21002045 -0.040869396
0.20403333 0.08468364 0.022357494 0.3309317 -0.050243214 -0.49129528 -0.3333319 0.22095397
-0.22466698 0.025525218 0.13668346 -0.12400728 0.048873365 0.14042793 -0.13188758 0.15035976
-0.006145911 -0.07296136 0.061893255 0.036022622 0.025594698 -0.11780439 0.008624098 -0.012694379
-0.16345872 -0.008804144 -0.100591995 0.24547082 -0.21114562 -0.19386405 -0.20098552 -0.2852877
-0.28200704 -0.18959425 0.038630985 0.031511348 0.12304628 -0.06789732 0.039087366 0.09244343
0.08306574 -0.0792859 -0.1250802 -0.2308239 -0.16579902 -0.052805316 -0.015287824 -0.17290087
-0.2241718 -0.08526722 -0.07572768 -0.006325911 0.2301694 0.18890966 -0.16751634 -0.14544688
-0.36939687 -0.02934564 0.11391831 -0.06697457 -0.006745141 0.2888902 0.0842163 -0.15724884
-0.22843343 0.08596935 0.032115243 -0.072605796 -0.03147435 -0.045515973 0.039069418 0.11857415
-0.12851846 -0.10367344 0.1473423 0.18658927 0.10952187 0.10303458 -0.051637623 0.22497158
0.17191172 0.24129061 -0.011525291 -0.11884013 -0.00588174 -0.10455252 -0.1023113 -0.115897946
-0.02132132 0.17792962 -0.35667345 -0.25008333 0.03510924 0.074991964 -0.12786543 -0.18463203
-0.2730054 0.111419216 0.07602551 0.28650555 0.16037653 0.027088223 0.027023658 -0.043669976
-0.24145117 -0.219562 0.25231263 -0.19949341 -0.2058468 -0.14868787 0.15852678 0.19811884
0.15468001 -0.18034998 -0.27662537 0.21707714 0.016857639 -0.11319109 0.14320172 0.078132
-0.08089144 -0.052327324 0.23258635 0.30747733 0.24438113 -0.100342385 -0.2662199 -0.012828692
0.028409354 -0.09841831 0.18654637 0.23705955 -0.20767072 0.08697609 -0.06610807 0.19988169
-0.21619526 -0.28352296 -0.22792214 0.010117234 0.2574915 -0.20117368 -0.06481983 -0.15559897

StatefulPartitionedCall/sequential_6/dense_24/BiasAdd/ReadVariableOp:0 f4 [64]
00000000: 4535 fb3b 0ed1 1abd 397a 3a3c fff3 9e3d
00000010: 291e 8b3d 8087 a03b 4b4f 10bd fabe 343d
00000020: 77f3 dfbc 30bc 4a3c 7c23 c1bc 3bd4 a1bd
00000030: 2e55 1ebd 22b3 3ebd 9da5 223d 048f 68bc
00000040: 2735 d4bd 5b9b debc b8a3 efbb 9b70 543d
00000050: 6587 95bd b4ca 843d 52b2 76bd 46fe bbbd
00000060: da28 903c 7ba3 593d 8c2a 823b 054d 22be
00000070: f3df 9e3b 35c7 9dbd cf6c 80bb 19af c3bd
00000080: 264e 83bd bb70 68bd 7a51 03bd 6bfc 57bd
00000090: 0f48 26bd fb76 b8bc bcc9 8bbd b86d 10bd
000000a0: dbf4 593c 1e66 21bc 35d1 9dbd cf69 86bb
000000b0: e4db 2c3c 7f6f cf3c f666 82bd 8d51 babd
000000c0: f05f 84bd d43f cfbd d818 5bbc 72a2 98bc
000000d0: 99cb ccbd e740 53bd 304e 7dbd b8c8 9ebd
000000e0: 2924 febd 75eb e5bb 12e9 03bd 6170 f1bc
000000f0: d074 713d 6671 dfbd b05b 4f3b 51e1 b5bd
0.0076662623 -0.037797026 0.011381679 0.07761382 0.06792862 0.0048989654 -0.03523187 0.044127442
-0.027337773 0.012373969 -0.02357649 -0.07901808 -0.038655452 -0.046557553 0.039708722 -0.014194254
-0.103617005 -0.027173689 -0.007313218 0.0518652 -0.07301215 0.06483975 -0.060228653 -0.09179358
0.017597605 0.053134423 0.003972357 -0.15849693 0.004848474 -0.07704011 -0.003919221 -0.095548816
-0.0641139 -0.056748133 -0.032060124 -0.05273096 -0.040596064 -0.022517672 -0.06825587 -0.035260886
0.013303007 -0.009851007 -0.07705919 -0.004101969 0.010550473 0.02532172 -0.063672945 -0.09097586
-0.06463611 -0.10119596 -0.013372622 -0.018632147 -0.09999771 -0.051575568 -0.061842144 -0.07753128
-0.12409241 -0.007016594 -0.032204695 -0.029472532 0.05894929 -0.10910301 0.0031640343 -0.08880866

StatefulPartitionedCall/sequential_6/customer_data/batchnorm/sub:0 f4 [11]
00000000: 78dd 27bf 46f5 dfbf 0d70 0dc0 cd0f 52c0
00000010: b040 c6bf 7480 78bf 7500 0ec0 2e53 fcc1
00000020: 90ef b6be bf68 99c0 1e56 dbbf
-0.6557231 -1.7496727 -2.209964 -3.2822144 -1.5488491 -0.97071004 -2.218778 -31.540615
-0.35729647 -4.7940364 -1.7135656

StatefulPartitionedCall/sequential_6/customer_data/batchnorm/mul:0 f4 [11]
00000000: 6c86 d53f 45c5 ee36 8231 863f 2728 6840
00000010: 9fd7 1c40 2520 1740 b6a7 2640 72fb fc41
00000020: b90d 4540 61bb b239 7150 323a
1.6681647 7.115918e-06 1.0483859 3.6274507 2.4506605 2.361337 2.6039863 31.622776
3.0789626 0.00034090414 0.0006802148
